{"Layers": [{
  "Name": "onnx::Mul_347",
  "LayerType": "Constant",
  "Inputs": [],
  "Outputs": [
  {
    "Name": "(Unnamed Layer* 79) [Constant]_output",
    "Location": "Device",
    "Dimensions": [1,160],
    "Format/Datatype": "Row major linear FP32"
  }],
  "ParameterType": "Constant",
  "weights": {"Type": "Float", "Count": 160},
  "dimensions": [1,160],
  "TacticValue": "0x0000000000000000",
  "StreamId": 0,
  "Metadata": ""
},{
  "Name": "Unsqueeze_67",
  "LayerType": "NoOp",
  "Inputs": [
  {
    "Name": "timesteps",
    "Location": "Device",
    "Dimensions": [1],
    "Format/Datatype": "Row major linear Int32"
  }],
  "Outputs": [
  {
    "Name": "onnx::Cast_345",
    "Location": "Device",
    "Dimensions": [1,1],
    "Format/Datatype": "Row major linear Int32"
  }],
  "TacticValue": "0x0000000000000000",
  "StreamId": 0,
  "Metadata": "[ONNX Layer: Unsqueeze_67]"
},{
  "Name": "Cast_68",
  "LayerType": "MyelinReformat",
  "Inputs": [
  {
    "Name": "onnx::Cast_345",
    "Location": "Device",
    "Dimensions": [1,1],
    "Format/Datatype": "Row major linear Int32"
  }],
  "Outputs": [
  {
    "Name": "onnx::Mul_346",
    "Location": "Device",
    "Dimensions": [1,1],
    "Format/Datatype": "Row major linear FP32"
  }],
  "TacticValue": "0x0000000000000000",
  "StreamId": 0,
  "Metadata": ""
},{
  "Name": "Mul_70",
  "LayerType": "ElementWise",
  "Inputs": [
  {
    "Name": "onnx::Mul_346",
    "Location": "Device",
    "Dimensions": [1,1],
    "Format/Datatype": "Row major linear FP32"
  },
  {
    "Name": "(Unnamed Layer* 79) [Constant]_output",
    "Location": "Device",
    "Dimensions": [1,160],
    "Format/Datatype": "Row major linear FP32"
  }],
  "Outputs": [
  {
    "Name": "onnx::Cos_348",
    "Location": "Device",
    "Dimensions": [1,160],
    "Format/Datatype": "Row major linear FP32"
  }],
  "ParameterType": "ElementWise",
  "ElementWiseOperation": "PROD",
  "Activation": "NONE",
  "TacticValue": "0x0000000000000001",
  "StreamId": 0,
  "Metadata": "[ONNX Layer: Mul_70]"
},{
  "Name": "Cast_100",
  "LayerType": "NoOp",
  "Inputs": [
  {
    "Name": "onnx::Cast_0",
    "Location": "Device",
    "Dimensions": [1,4,32,48],
    "Format/Datatype": "Row major linear FP32"
  }],
  "Outputs": [
  {
    "Name": "input.64",
    "Location": "Device",
    "Dimensions": [1,4,32,48],
    "Format/Datatype": "Row major linear FP32"
  }],
  "TacticValue": "0x0000000000000000",
  "StreamId": 0,
  "Metadata": ""
},{
  "Name": "PWN(Sin_72)",
  "LayerType": "PointWiseV2",
  "Inputs": [
  {
    "Name": "onnx::Cos_348",
    "Location": "Device",
    "Dimensions": [1,160],
    "Format/Datatype": "Row major linear FP32"
  }],
  "Outputs": [
  {
    "Name": "onnx::Gemm_351",
    "Location": "Device",
    "Dimensions": [1,160],
    "Format/Datatype": "Row major linear FP32"
  }],
  "ParameterType": "PointWise",
  "ParameterSubType": "PointWiseExpression",
  "NbInputArgs": 1,
  "InputArgs": ["arg0"],
  "NbOutputVars": 1,
  "OutputVars": ["var0"],
  "NbParams": 0,
  "Params": [],
  "NbLiterals": 0,
  "Literals": [],
  "NbOperations": 1,
  "Operations": ["auto const var0 = pwgen::iSin(arg0);"],
  "TacticValue": "0x000000000000001c",
  "StreamId": 0,
  "Metadata": "[ONNX Layer: Sin_72]"
},{
  "Name": "PWN(Cos_71)",
  "LayerType": "PointWiseV2",
  "Inputs": [
  {
    "Name": "onnx::Cos_348",
    "Location": "Device",
    "Dimensions": [1,160],
    "Format/Datatype": "Row major linear FP32"
  }],
  "Outputs": [
  {
    "Name": "onnx::Gemm_351",
    "Location": "Device",
    "Dimensions": [1,160],
    "Format/Datatype": "Row major linear FP32"
  }],
  "ParameterType": "PointWise",
  "ParameterSubType": "PointWiseExpression",
  "NbInputArgs": 1,
  "InputArgs": ["arg0"],
  "NbOutputVars": 1,
  "OutputVars": ["var0"],
  "NbParams": 0,
  "Params": [],
  "NbLiterals": 0,
  "Literals": [],
  "NbOperations": 1,
  "Operations": ["auto const var0 = pwgen::iCos(arg0);"],
  "TacticValue": "0x000000000000001c",
  "StreamId": 0,
  "Metadata": "[ONNX Layer: Cos_71]"
},{
  "Name": "Reformatting CopyNode for Input Tensor 0 to Conv_78",
  "LayerType": "Reformat",
  "Inputs": [
  {
    "Name": "input.3",
    "Location": "Device",
    "Dimensions": [1,3,256,384],
    "Format/Datatype": "Row major linear FP32"
  }],
  "Outputs": [
  {
    "Name": "Reformatted Input Tensor 0 to Conv_78",
    "Location": "Device",
    "Dimensions": [1,3,256,384],
    "Format/Datatype": "Channel major FP32 format"
  }],
  "ParameterType": "Reformat",
  "Origin": "REFORMAT",
  "TacticValue": "0x00000000000003e8",
  "StreamId": 0,
  "Metadata": ""
},{
  "Name": "Conv_78",
  "LayerType": "CaskConvolution",
  "Inputs": [
  {
    "Name": "Reformatted Input Tensor 0 to Conv_78",
    "Location": "Device",
    "Dimensions": [1,3,256,384],
    "Format/Datatype": "Channel major FP32 format"
  }],
  "Outputs": [
  {
    "Name": "input.8",
    "Location": "Device",
    "Dimensions": [1,16,256,384],
    "Format/Datatype": "Channel major FP32 format"
  }],
  "ParameterType": "Convolution",
  "Kernel": [3,3],
  "PaddingMode": "kEXPLICIT_ROUND_DOWN",
  "PrePadding": [1,1],
  "PostPadding": [1,1],
  "Stride": [1,1],
  "Dilation": [1,1],
  "OutMaps": 16,
  "Groups": 1,
  "Weights": {"Type": "Float", "Count": 432},
  "Bias": {"Type": "Float", "Count": 16},
  "HasSparseWeights": 0,
  "HasDynamicFilter": 0,
  "HasDynamicBias": 0,
  "HasResidual": 0,
  "ConvXAsActInputIdx": -1,
  "BiasAsActInputIdx": -1,
  "ResAsActInputIdx": -1,
  "Activation": "NONE",
  "HasBias": 1,
  "HasReLU": 0,
  "TacticName": "sm80_xmma_fprop_implicit_gemm_indexed_wo_smem_f32f32_tf32f32_f32_nhwckrsc_nhwc_tilesize128x16x32_stage1_warpsize4x1x1_g1_tensor16x8x8_aligna4_alignc4",
  "TacticValue": "0xcf8ea142095f02d2",
  "StreamId": 0,
  "Metadata": "[ONNX Layer: Conv_78]"
},{
  "Name": "Reformatting CopyNode for Input Tensor 0 to PWN(PWN(Sigmoid_79), Mul_80)",
  "LayerType": "NoOp",
  "Inputs": [
  {
    "Name": "input.8",
    "Location": "Device",
    "Dimensions": [1,16,256,384],
    "Format/Datatype": "Channel major FP32 format"
  }],
  "Outputs": [
  {
    "Name": "Reformatted Input Tensor 0 to PWN(PWN(Sigmoid_79), Mul_80)",
    "Location": "Device",
    "Dimensions": [1,16,256,384],
    "Format/Datatype": "Channel major FP32 format where channel % 4 == 0"
  }],
  "TacticValue": "0x0000000000000000",
  "StreamId": 0,
  "Metadata": ""
},{
  "Name": "PWN(PWN(Sigmoid_79), Mul_80)",
  "LayerType": "PointWiseV2",
  "Inputs": [
  {
    "Name": "Reformatted Input Tensor 0 to PWN(PWN(Sigmoid_79), Mul_80)",
    "Location": "Device",
    "Dimensions": [1,16,256,384],
    "Format/Datatype": "Channel major FP32 format where channel % 4 == 0"
  }],
  "Outputs": [
  {
    "Name": "input.12",
    "Location": "Device",
    "Dimensions": [1,16,256,384],
    "Format/Datatype": "Channel major FP32 format where channel % 4 == 0"
  }],
  "ParameterType": "PointWise",
  "ParameterSubType": "PointWiseExpression",
  "NbInputArgs": 1,
  "InputArgs": ["arg0"],
  "NbOutputVars": 1,
  "OutputVars": ["var4"],
  "NbParams": 0,
  "Params": [],
  "NbLiterals": 5,
  "Literals": ["0.000000e+00f", "1.000000e+00f", "0.000000e+00f", "0.000000e+00f", "1.000000e+00f"],
  "NbOperations": 5,
  "Operations": ["auto const var0 = pwgen::iNeg(arg0);", "auto const var1 = pwgen::iExp(var0);", "auto const var2 = pwgen::iPlus(literal4, var1);", "auto const var3 = pwgen::iRcp(var2);", "auto const var4 = pwgen::iMul(arg0, var3);"],
  "TacticValue": "0x0000000000000009",
  "StreamId": 0,
  "Metadata": "[ONNX Layer: Sigmoid_79]\u001e[ONNX Layer: Mul_80]"
},{
  "Name": "Conv_81",
  "LayerType": "CaskConvolution",
  "Inputs": [
  {
    "Name": "input.12",
    "Location": "Device",
    "Dimensions": [1,16,256,384],
    "Format/Datatype": "Channel major FP32 format where channel % 4 == 0"
  }],
  "Outputs": [
  {
    "Name": "input.16",
    "Location": "Device",
    "Dimensions": [1,16,256,384],
    "Format/Datatype": "Channel major FP32 format where channel % 4 == 0"
  }],
  "ParameterType": "Convolution",
  "Kernel": [3,3],
  "PaddingMode": "kEXPLICIT_ROUND_DOWN",
  "PrePadding": [1,1],
  "PostPadding": [1,1],
  "Stride": [1,1],
  "Dilation": [1,1],
  "OutMaps": 16,
  "Groups": 1,
  "Weights": {"Type": "Float", "Count": 2304},
  "Bias": {"Type": "Float", "Count": 16},
  "HasSparseWeights": 0,
  "HasDynamicFilter": 0,
  "HasDynamicBias": 0,
  "HasResidual": 0,
  "ConvXAsActInputIdx": -1,
  "BiasAsActInputIdx": -1,
  "ResAsActInputIdx": -1,
  "Activation": "NONE",
  "HasBias": 1,
  "HasReLU": 0,
  "TacticName": "sm80_xmma_fprop_implicit_gemm_indexed_wo_smem_f32f32_tf32f32_f32_nhwckrsc_nhwc_tilesize128x16x64_stage1_warpsize4x1x1_g1_tensor16x8x8",
  "TacticValue": "0x10383a0781d24dde",
  "StreamId": 0,
  "Metadata": "[ONNX Layer: Conv_81]"
},{
  "Name": "PWN(PWN(Sigmoid_82), Mul_83)",
  "LayerType": "PointWiseV2",
  "Inputs": [
  {
    "Name": "input.16",
    "Location": "Device",
    "Dimensions": [1,16,256,384],
    "Format/Datatype": "Channel major FP32 format where channel % 4 == 0"
  }],
  "Outputs": [
  {
    "Name": "input.20",
    "Location": "Device",
    "Dimensions": [1,16,256,384],
    "Format/Datatype": "Channel major FP32 format where channel % 4 == 0"
  }],
  "ParameterType": "PointWise",
  "ParameterSubType": "PointWiseExpression",
  "NbInputArgs": 1,
  "InputArgs": ["arg0"],
  "NbOutputVars": 1,
  "OutputVars": ["var4"],
  "NbParams": 0,
  "Params": [],
  "NbLiterals": 5,
  "Literals": ["0.000000e+00f", "1.000000e+00f", "0.000000e+00f", "0.000000e+00f", "1.000000e+00f"],
  "NbOperations": 5,
  "Operations": ["auto const var0 = pwgen::iNeg(arg0);", "auto const var1 = pwgen::iExp(var0);", "auto const var2 = pwgen::iPlus(literal4, var1);", "auto const var3 = pwgen::iRcp(var2);", "auto const var4 = pwgen::iMul(arg0, var3);"],
  "TacticValue": "0x0000000000000009",
  "StreamId": 0,
  "Metadata": "[ONNX Layer: Sigmoid_82]\u001e[ONNX Layer: Mul_83]"
},{
  "Name": "Conv_84",
  "LayerType": "CaskConvolution",
  "Inputs": [
  {
    "Name": "input.20",
    "Location": "Device",
    "Dimensions": [1,16,256,384],
    "Format/Datatype": "Channel major FP32 format where channel % 4 == 0"
  }],
  "Outputs": [
  {
    "Name": "input.24",
    "Location": "Device",
    "Dimensions": [1,32,128,192],
    "Format/Datatype": "Channel major FP32 format where channel % 4 == 0"
  }],
  "ParameterType": "Convolution",
  "Kernel": [3,3],
  "PaddingMode": "kEXPLICIT_ROUND_DOWN",
  "PrePadding": [1,1],
  "PostPadding": [1,1],
  "Stride": [2,2],
  "Dilation": [1,1],
  "OutMaps": 32,
  "Groups": 1,
  "Weights": {"Type": "Float", "Count": 4608},
  "Bias": {"Type": "Float", "Count": 32},
  "HasSparseWeights": 0,
  "HasDynamicFilter": 0,
  "HasDynamicBias": 0,
  "HasResidual": 0,
  "ConvXAsActInputIdx": -1,
  "BiasAsActInputIdx": -1,
  "ResAsActInputIdx": -1,
  "Activation": "NONE",
  "HasBias": 1,
  "HasReLU": 0,
  "TacticName": "sm80_xmma_fprop_implicit_gemm_indexed_wo_smem_f32f32_tf32f32_f32_nhwckrsc_nhwc_tilesize128x16x64_stage1_warpsize4x1x1_g1_tensor16x8x8",
  "TacticValue": "0x10383a0781d24dde",
  "StreamId": 0,
  "Metadata": "[ONNX Layer: Conv_84]"
},{
  "Name": "PWN(PWN(Sigmoid_85), Mul_86)",
  "LayerType": "PointWiseV2",
  "Inputs": [
  {
    "Name": "input.24",
    "Location": "Device",
    "Dimensions": [1,32,128,192],
    "Format/Datatype": "Channel major FP32 format where channel % 4 == 0"
  }],
  "Outputs": [
  {
    "Name": "input.28",
    "Location": "Device",
    "Dimensions": [1,32,128,192],
    "Format/Datatype": "Channel major FP32 format where channel % 4 == 0"
  }],
  "ParameterType": "PointWise",
  "ParameterSubType": "PointWiseExpression",
  "NbInputArgs": 1,
  "InputArgs": ["arg0"],
  "NbOutputVars": 1,
  "OutputVars": ["var4"],
  "NbParams": 0,
  "Params": [],
  "NbLiterals": 5,
  "Literals": ["0.000000e+00f", "1.000000e+00f", "0.000000e+00f", "0.000000e+00f", "1.000000e+00f"],
  "NbOperations": 5,
  "Operations": ["auto const var0 = pwgen::iNeg(arg0);", "auto const var1 = pwgen::iExp(var0);", "auto const var2 = pwgen::iPlus(literal4, var1);", "auto const var3 = pwgen::iRcp(var2);", "auto const var4 = pwgen::iMul(arg0, var3);"],
  "TacticValue": "0x000000000000001c",
  "StreamId": 0,
  "Metadata": "[ONNX Layer: Sigmoid_85]\u001e[ONNX Layer: Mul_86]"
},{
  "Name": "Conv_87",
  "LayerType": "CaskConvolution",
  "Inputs": [
  {
    "Name": "input.28",
    "Location": "Device",
    "Dimensions": [1,32,128,192],
    "Format/Datatype": "Channel major FP32 format where channel % 4 == 0"
  }],
  "Outputs": [
  {
    "Name": "input.32",
    "Location": "Device",
    "Dimensions": [1,32,128,192],
    "Format/Datatype": "Channel major FP32 format where channel % 4 == 0"
  }],
  "ParameterType": "Convolution",
  "Kernel": [3,3],
  "PaddingMode": "kEXPLICIT_ROUND_DOWN",
  "PrePadding": [1,1],
  "PostPadding": [1,1],
  "Stride": [1,1],
  "Dilation": [1,1],
  "OutMaps": 32,
  "Groups": 1,
  "Weights": {"Type": "Float", "Count": 9216},
  "Bias": {"Type": "Float", "Count": 32},
  "HasSparseWeights": 0,
  "HasDynamicFilter": 0,
  "HasDynamicBias": 0,
  "HasResidual": 0,
  "ConvXAsActInputIdx": -1,
  "BiasAsActInputIdx": -1,
  "ResAsActInputIdx": -1,
  "Activation": "NONE",
  "HasBias": 1,
  "HasReLU": 0,
  "TacticName": "sm80_xmma_fprop_implicit_gemm_indexed_wo_smem_f32f32_tf32f32_f32_nhwckrsc_nhwc_tilesize128x16x64_stage1_warpsize4x1x1_g1_tensor16x8x8",
  "TacticValue": "0x10383a0781d24dde",
  "StreamId": 0,
  "Metadata": "[ONNX Layer: Conv_87]"
},{
  "Name": "PWN(PWN(Sigmoid_88), Mul_89)",
  "LayerType": "PointWiseV2",
  "Inputs": [
  {
    "Name": "input.32",
    "Location": "Device",
    "Dimensions": [1,32,128,192],
    "Format/Datatype": "Channel major FP32 format where channel % 4 == 0"
  }],
  "Outputs": [
  {
    "Name": "input.36",
    "Location": "Device",
    "Dimensions": [1,32,128,192],
    "Format/Datatype": "Channel major FP32 format where channel % 4 == 0"
  }],
  "ParameterType": "PointWise",
  "ParameterSubType": "PointWiseExpression",
  "NbInputArgs": 1,
  "InputArgs": ["arg0"],
  "NbOutputVars": 1,
  "OutputVars": ["var4"],
  "NbParams": 0,
  "Params": [],
  "NbLiterals": 5,
  "Literals": ["0.000000e+00f", "1.000000e+00f", "0.000000e+00f", "0.000000e+00f", "1.000000e+00f"],
  "NbOperations": 5,
  "Operations": ["auto const var0 = pwgen::iNeg(arg0);", "auto const var1 = pwgen::iExp(var0);", "auto const var2 = pwgen::iPlus(literal4, var1);", "auto const var3 = pwgen::iRcp(var2);", "auto const var4 = pwgen::iMul(arg0, var3);"],
  "TacticValue": "0x000000000000001c",
  "StreamId": 0,
  "Metadata": "[ONNX Layer: Sigmoid_88]\u001e[ONNX Layer: Mul_89]"
},{
  "Name": "Conv_90",
  "LayerType": "CaskConvolution",
  "Inputs": [
  {
    "Name": "input.36",
    "Location": "Device",
    "Dimensions": [1,32,128,192],
    "Format/Datatype": "Channel major FP32 format where channel % 4 == 0"
  }],
  "Outputs": [
  {
    "Name": "input.40",
    "Location": "Device",
    "Dimensions": [1,96,64,96],
    "Format/Datatype": "Channel major FP32 format where channel % 4 == 0"
  }],
  "ParameterType": "Convolution",
  "Kernel": [3,3],
  "PaddingMode": "kEXPLICIT_ROUND_DOWN",
  "PrePadding": [1,1],
  "PostPadding": [1,1],
  "Stride": [2,2],
  "Dilation": [1,1],
  "OutMaps": 96,
  "Groups": 1,
  "Weights": {"Type": "Float", "Count": 27648},
  "Bias": {"Type": "Float", "Count": 96},
  "HasSparseWeights": 0,
  "HasDynamicFilter": 0,
  "HasDynamicBias": 0,
  "HasResidual": 0,
  "ConvXAsActInputIdx": -1,
  "BiasAsActInputIdx": -1,
  "ResAsActInputIdx": -1,
  "Activation": "NONE",
  "HasBias": 1,
  "HasReLU": 0,
  "TacticName": "sm80_xmma_fprop_implicit_gemm_indexed_wo_smem_f32f32_tf32f32_f32_nhwckrsc_nhwc_tilesize128x32x64_stage1_warpsize4x1x1_g1_tensor16x8x8_alignc8",
  "TacticValue": "0x3a8712b17741b582",
  "StreamId": 0,
  "Metadata": "[ONNX Layer: Conv_90]"
},{
  "Name": "PWN(PWN(Sigmoid_91), Mul_92)",
  "LayerType": "PointWiseV2",
  "Inputs": [
  {
    "Name": "input.40",
    "Location": "Device",
    "Dimensions": [1,96,64,96],
    "Format/Datatype": "Channel major FP32 format where channel % 4 == 0"
  }],
  "Outputs": [
  {
    "Name": "input.44",
    "Location": "Device",
    "Dimensions": [1,96,64,96],
    "Format/Datatype": "Channel major FP32 format where channel % 4 == 0"
  }],
  "ParameterType": "PointWise",
  "ParameterSubType": "PointWiseExpression",
  "NbInputArgs": 1,
  "InputArgs": ["arg0"],
  "NbOutputVars": 1,
  "OutputVars": ["var4"],
  "NbParams": 0,
  "Params": [],
  "NbLiterals": 5,
  "Literals": ["0.000000e+00f", "1.000000e+00f", "0.000000e+00f", "0.000000e+00f", "1.000000e+00f"],
  "NbOperations": 5,
  "Operations": ["auto const var0 = pwgen::iNeg(arg0);", "auto const var1 = pwgen::iExp(var0);", "auto const var2 = pwgen::iPlus(literal4, var1);", "auto const var3 = pwgen::iRcp(var2);", "auto const var4 = pwgen::iMul(arg0, var3);"],
  "TacticValue": "0x0000000000000001",
  "StreamId": 0,
  "Metadata": "[ONNX Layer: Sigmoid_91]\u001e[ONNX Layer: Mul_92]"
},{
  "Name": "Reformatting CopyNode for Input Tensor 0 to Conv_93",
  "LayerType": "Reformat",
  "Inputs": [
  {
    "Name": "input.44",
    "Location": "Device",
    "Dimensions": [1,96,64,96],
    "Format/Datatype": "Channel major FP32 format where channel % 4 == 0"
  }],
  "Outputs": [
  {
    "Name": "Reformatted Input Tensor 0 to Conv_93",
    "Location": "Device",
    "Dimensions": [1,96,64,96],
    "Format/Datatype": "Row major linear FP32"
  }],
  "ParameterType": "Reformat",
  "Origin": "REFORMAT",
  "TacticValue": "0x0000000000000000",
  "StreamId": 0,
  "Metadata": ""
},{
  "Name": "Conv_93",
  "LayerType": "CaskConvolution",
  "Inputs": [
  {
    "Name": "Reformatted Input Tensor 0 to Conv_93",
    "Location": "Device",
    "Dimensions": [1,96,64,96],
    "Format/Datatype": "Row major linear FP32"
  }],
  "Outputs": [
  {
    "Name": "input.48",
    "Location": "Device",
    "Dimensions": [1,96,64,96],
    "Format/Datatype": "Row major linear FP32"
  }],
  "ParameterType": "Convolution",
  "Kernel": [3,3],
  "PaddingMode": "kEXPLICIT_ROUND_DOWN",
  "PrePadding": [1,1],
  "PostPadding": [1,1],
  "Stride": [1,1],
  "Dilation": [1,1],
  "OutMaps": 96,
  "Groups": 1,
  "Weights": {"Type": "Float", "Count": 82944},
  "Bias": {"Type": "Float", "Count": 96},
  "HasSparseWeights": 0,
  "HasDynamicFilter": 0,
  "HasDynamicBias": 0,
  "HasResidual": 0,
  "ConvXAsActInputIdx": -1,
  "BiasAsActInputIdx": -1,
  "ResAsActInputIdx": -1,
  "Activation": "NONE",
  "HasBias": 1,
  "HasReLU": 0,
  "TacticName": "ampere_scudnn_winograd_128x128_ldg1_ldg4_relu_tile148t_nt_v1",
  "TacticValue": "0x94119b4c514b211a",
  "StreamId": 0,
  "Metadata": "[ONNX Layer: Conv_93]"
},{
  "Name": "Reformatting CopyNode for Input Tensor 0 to PWN(PWN(Sigmoid_94), Mul_95)",
  "LayerType": "NoOp",
  "Inputs": [
  {
    "Name": "input.48",
    "Location": "Device",
    "Dimensions": [1,96,64,96],
    "Format/Datatype": "Row major linear FP32"
  }],
  "Outputs": [
  {
    "Name": "Reformatted Input Tensor 0 to PWN(PWN(Sigmoid_94), Mul_95)",
    "Location": "Device",
    "Dimensions": [1,96,64,96],
    "Format/Datatype": "Row major linear FP32"
  }],
  "TacticValue": "0x0000000000000000",
  "StreamId": 0,
  "Metadata": ""
},{
  "Name": "PWN(PWN(Sigmoid_94), Mul_95)",
  "LayerType": "PointWiseV2",
  "Inputs": [
  {
    "Name": "Reformatted Input Tensor 0 to PWN(PWN(Sigmoid_94), Mul_95)",
    "Location": "Device",
    "Dimensions": [1,96,64,96],
    "Format/Datatype": "Row major linear FP32"
  }],
  "Outputs": [
  {
    "Name": "input.52",
    "Location": "Device",
    "Dimensions": [1,96,64,96],
    "Format/Datatype": "Row major linear FP32"
  }],
  "ParameterType": "PointWise",
  "ParameterSubType": "PointWiseExpression",
  "NbInputArgs": 1,
  "InputArgs": ["arg0"],
  "NbOutputVars": 1,
  "OutputVars": ["var4"],
  "NbParams": 0,
  "Params": [],
  "NbLiterals": 5,
  "Literals": ["0.000000e+00f", "1.000000e+00f", "0.000000e+00f", "0.000000e+00f", "1.000000e+00f"],
  "NbOperations": 5,
  "Operations": ["auto const var0 = pwgen::iNeg(arg0);", "auto const var1 = pwgen::iExp(var0);", "auto const var2 = pwgen::iPlus(literal4, var1);", "auto const var3 = pwgen::iRcp(var2);", "auto const var4 = pwgen::iMul(arg0, var3);"],
  "TacticValue": "0x0000000000000009",
  "StreamId": 0,
  "Metadata": "[ONNX Layer: Sigmoid_94]\u001e[ONNX Layer: Mul_95]"
},{
  "Name": "Reformatting CopyNode for Input Tensor 0 to Conv_96",
  "LayerType": "NoOp",
  "Inputs": [
  {
    "Name": "input.52",
    "Location": "Device",
    "Dimensions": [1,96,64,96],
    "Format/Datatype": "Row major linear FP32"
  }],
  "Outputs": [
  {
    "Name": "Reformatted Input Tensor 0 to Conv_96",
    "Location": "Device",
    "Dimensions": [1,96,64,96],
    "Format/Datatype": "Row major linear FP32"
  }],
  "TacticValue": "0x0000000000000000",
  "StreamId": 0,
  "Metadata": ""
},{
  "Name": "Conv_96",
  "LayerType": "CaskConvolution",
  "Inputs": [
  {
    "Name": "Reformatted Input Tensor 0 to Conv_96",
    "Location": "Device",
    "Dimensions": [1,96,64,96],
    "Format/Datatype": "Row major linear FP32"
  }],
  "Outputs": [
  {
    "Name": "input.56",
    "Location": "Device",
    "Dimensions": [1,256,32,48],
    "Format/Datatype": "Row major linear FP32"
  }],
  "ParameterType": "Convolution",
  "Kernel": [3,3],
  "PaddingMode": "kEXPLICIT_ROUND_DOWN",
  "PrePadding": [1,1],
  "PostPadding": [1,1],
  "Stride": [2,2],
  "Dilation": [1,1],
  "OutMaps": 256,
  "Groups": 1,
  "Weights": {"Type": "Float", "Count": 221184},
  "Bias": {"Type": "Float", "Count": 256},
  "HasSparseWeights": 0,
  "HasDynamicFilter": 0,
  "HasDynamicBias": 0,
  "HasResidual": 0,
  "ConvXAsActInputIdx": -1,
  "BiasAsActInputIdx": -1,
  "ResAsActInputIdx": -1,
  "Activation": "NONE",
  "HasBias": 1,
  "HasReLU": 0,
  "TacticName": "sm80_xmma_fprop_implicit_gemm_f32f32_f32f32_f32_nchwkcrs_nchw_tilesize64x128x8_stage3_warpsize1x4x1_g1_ffma_t1r3s3_aligna4_alignc4",
  "TacticValue": "0x01cf8ce2da913006",
  "StreamId": 0,
  "Metadata": "[ONNX Layer: Conv_96]"
},{
  "Name": "Reformatting CopyNode for Input Tensor 0 to PWN(PWN(Sigmoid_97), Mul_98)",
  "LayerType": "NoOp",
  "Inputs": [
  {
    "Name": "input.56",
    "Location": "Device",
    "Dimensions": [1,256,32,48],
    "Format/Datatype": "Row major linear FP32"
  }],
  "Outputs": [
  {
    "Name": "Reformatted Input Tensor 0 to PWN(PWN(Sigmoid_97), Mul_98)",
    "Location": "Device",
    "Dimensions": [1,256,32,48],
    "Format/Datatype": "Row major linear FP32"
  }],
  "TacticValue": "0x0000000000000000",
  "StreamId": 0,
  "Metadata": ""
},{
  "Name": "PWN(PWN(Sigmoid_97), Mul_98)",
  "LayerType": "PointWiseV2",
  "Inputs": [
  {
    "Name": "Reformatted Input Tensor 0 to PWN(PWN(Sigmoid_97), Mul_98)",
    "Location": "Device",
    "Dimensions": [1,256,32,48],
    "Format/Datatype": "Row major linear FP32"
  }],
  "Outputs": [
  {
    "Name": "input.60",
    "Location": "Device",
    "Dimensions": [1,256,32,48],
    "Format/Datatype": "Row major linear FP32"
  }],
  "ParameterType": "PointWise",
  "ParameterSubType": "PointWiseExpression",
  "NbInputArgs": 1,
  "InputArgs": ["arg0"],
  "NbOutputVars": 1,
  "OutputVars": ["var4"],
  "NbParams": 0,
  "Params": [],
  "NbLiterals": 5,
  "Literals": ["0.000000e+00f", "1.000000e+00f", "0.000000e+00f", "0.000000e+00f", "1.000000e+00f"],
  "NbOperations": 5,
  "Operations": ["auto const var0 = pwgen::iNeg(arg0);", "auto const var1 = pwgen::iExp(var0);", "auto const var2 = pwgen::iPlus(literal4, var1);", "auto const var3 = pwgen::iRcp(var2);", "auto const var4 = pwgen::iMul(arg0, var3);"],
  "TacticValue": "0x0000000000000005",
  "StreamId": 0,
  "Metadata": "[ONNX Layer: Sigmoid_97]\u001e[ONNX Layer: Mul_98]"
},{
  "Name": "Reformatting CopyNode for Input Tensor 0 to Conv_99",
  "LayerType": "NoOp",
  "Inputs": [
  {
    "Name": "input.60",
    "Location": "Device",
    "Dimensions": [1,256,32,48],
    "Format/Datatype": "Row major linear FP32"
  }],
  "Outputs": [
  {
    "Name": "Reformatted Input Tensor 0 to Conv_99",
    "Location": "Device",
    "Dimensions": [1,256,32,48],
    "Format/Datatype": "Row major linear FP32"
  }],
  "TacticValue": "0x0000000000000000",
  "StreamId": 0,
  "Metadata": ""
},{
  "Name": "Conv_99",
  "LayerType": "CaskConvolution",
  "Inputs": [
  {
    "Name": "Reformatted Input Tensor 0 to Conv_99",
    "Location": "Device",
    "Dimensions": [1,256,32,48],
    "Format/Datatype": "Row major linear FP32"
  }],
  "Outputs": [
  {
    "Name": "onnx::Add_377",
    "Location": "Device",
    "Dimensions": [1,320,32,48],
    "Format/Datatype": "Row major linear FP32"
  }],
  "ParameterType": "Convolution",
  "Kernel": [3,3],
  "PaddingMode": "kEXPLICIT_ROUND_DOWN",
  "PrePadding": [1,1],
  "PostPadding": [1,1],
  "Stride": [1,1],
  "Dilation": [1,1],
  "OutMaps": 320,
  "Groups": 1,
  "Weights": {"Type": "Float", "Count": 737280},
  "Bias": {"Type": "Float", "Count": 320},
  "HasSparseWeights": 0,
  "HasDynamicFilter": 0,
  "HasDynamicBias": 0,
  "HasResidual": 0,
  "ConvXAsActInputIdx": -1,
  "BiasAsActInputIdx": -1,
  "ResAsActInputIdx": -1,
  "Activation": "NONE",
  "HasBias": 1,
  "HasReLU": 0,
  "TacticName": "sm80_xmma_fprop_wngd_f32f32_f32_f32_nchwkcrs_nchw_tilesize8x16x64x8_warpsize8x1x1_wngd2x2",
  "TacticValue": "0x0190806602534cfd",
  "StreamId": 0,
  "Metadata": "[ONNX Layer: Conv_99]"
},{
  "Name": "Conv_101 + Add_102",
  "LayerType": "CaskConvolution",
  "Inputs": [
  {
    "Name": "input.64",
    "Location": "Device",
    "Dimensions": [1,4,32,48],
    "Format/Datatype": "Row major linear FP32"
  },
  {
    "Name": "onnx::Add_377",
    "Location": "Device",
    "Dimensions": [1,320,32,48],
    "Format/Datatype": "Row major linear FP32"
  }],
  "Outputs": [
  {
    "Name": "onnx::Conv_380",
    "Location": "Device",
    "Dimensions": [1,320,32,48],
    "Format/Datatype": "Row major linear FP32"
  }],
  "ParameterType": "Convolution",
  "Kernel": [3,3],
  "PaddingMode": "kEXPLICIT_ROUND_DOWN",
  "PrePadding": [1,1],
  "PostPadding": [1,1],
  "Stride": [1,1],
  "Dilation": [1,1],
  "OutMaps": 320,
  "Groups": 1,
  "Weights": {"Type": "Float", "Count": 11520},
  "Bias": {"Type": "Float", "Count": 320},
  "HasSparseWeights": 0,
  "HasDynamicFilter": 0,
  "HasDynamicBias": 0,
  "HasResidual": 1,
  "ConvXAsActInputIdx": -1,
  "BiasAsActInputIdx": -1,
  "ResAsActInputIdx": -1,
  "Activation": "NONE",
  "HasBias": 1,
  "HasReLU": 0,
  "TacticName": "sm80_xmma_fprop_implicit_gemm_f32f32_f32f32_f32_nchwkcrs_nchw_tilesize64x128x8_stage3_warpsize1x4x1_g1_ffma_t1r3s3_aligna4_alignc4",
  "TacticValue": "0x01cf8ce2da913006",
  "StreamId": 0,
  "Metadata": "[ONNX Layer: Conv_101]\u001e[ONNX Layer: Add_102]"
},{
  "Name": "Cast_104",
  "LayerType": "NoOp",
  "Inputs": [
  {
    "Name": "onnx::Conv_380",
    "Location": "Device",
    "Dimensions": [1,320,32,48],
    "Format/Datatype": "Row major linear FP32"
  }],
  "Outputs": [
  {
    "Name": "input.68",
    "Location": "Device",
    "Dimensions": [1,320,32,48],
    "Format/Datatype": "Row major linear FP32"
  }],
  "TacticValue": "0x0000000000000000",
  "StreamId": 0,
  "Metadata": ""
},{
  "Name": "Reshape_106 + (Unnamed Layer* 124) [Shuffle]",
  "LayerType": "NoOp",
  "Inputs": [
  {
    "Name": "input.68",
    "Location": "Device",
    "Dimensions": [1,320,32,48],
    "Format/Datatype": "Row major linear FP32"
  }],
  "Outputs": [
  {
    "Name": "(Unnamed Layer* 124) [Shuffle]_output",
    "Location": "Device",
    "Dimensions": [1,32,15360,1],
    "Format/Datatype": "Row major linear FP32"
  }],
  "TacticValue": "0x0000000000000000",
  "StreamId": 0,
  "Metadata": "[ONNX Layer: Reshape_106]\u001e"
},{
  "Name": "InstanceNormalization_109",
  "LayerType": "PluginV2",
  "Inputs": [
  {
    "Name": "(Unnamed Layer* 124) [Shuffle]_output",
    "Location": "Device",
    "Dimensions": [1,32,15360,1],
    "Format/Datatype": "Row major linear FP32"
  }],
  "Outputs": [
  {
    "Name": "(Unnamed Layer* 125) [PluginV2DynamicExt]_output",
    "Location": "Device",
    "Dimensions": [1,32,15360,1],
    "Format/Datatype": "Row major linear FP32"
  }],
  "PluginType": "InstanceNormalization_TRT",
  "PluginVersion": "1",
  "TacticValue": "0x0000000000000000",
  "StreamId": 0,
  "Metadata": "[ONNX Layer: InstanceNormalization_109]"
},{
  "Name": "(Unnamed Layer* 126) [Shuffle] + Reshape_111",
  "LayerType": "NoOp",
  "Inputs": [
  {
    "Name": "(Unnamed Layer* 125) [PluginV2DynamicExt]_output",
    "Location": "Device",
    "Dimensions": [1,32,15360,1],
    "Format/Datatype": "Row major linear FP32"
  }],
  "Outputs": [
  {
    "Name": "onnx::Mul_389",
    "Location": "Device",
    "Dimensions": [1,320,32,48],
    "Format/Datatype": "Row major linear FP32"
  }],
  "TacticValue": "0x0000000000000000",
  "StreamId": 0,
  "Metadata": "[ONNX Layer: Reshape_111]"
},{
  "Name": "onnx::Mul_4392 + (Unnamed Layer* 130) [Shuffle] + Mul_112 + onnx::Add_4393 + (Unnamed Layer* 133) [Shuffle] + Add_113",
  "LayerType": "Scale",
  "Inputs": [
  {
    "Name": "onnx::Mul_389",
    "Location": "Device",
    "Dimensions": [1,320,32,48],
    "Format/Datatype": "Row major linear FP32"
  }],
  "Outputs": [
  {
    "Name": "onnx::Cast_395",
    "Location": "Device",
    "Dimensions": [1,320,32,48],
    "Format/Datatype": "Row major linear FP32"
  }],
  "ParameterType": "Scale",
  "Mode": "CHANNEL",
  "Shift": {"Type": "Float", "Count": 320},
  "Scale": {"Type": "Float", "Count": 320},
  "Power": {"Type": "Float", "Count": 0},
  "Activation": "NONE",
  "ChannelAxis": 1,
  "TacticValue": "0x0000000000000000",
  "StreamId": 0,
  "Metadata": "[ONNX Layer: Mul_112]\u001e[ONNX Layer: Add_113]"
},{
  "Name": "Cast_114",
  "LayerType": "NoOp",
  "Inputs": [
  {
    "Name": "onnx::Cast_395",
    "Location": "Device",
    "Dimensions": [1,320,32,48],
    "Format/Datatype": "Row major linear FP32"
  }],
  "Outputs": [
  {
    "Name": "input.72",
    "Location": "Device",
    "Dimensions": [1,320,32,48],
    "Format/Datatype": "Row major linear FP32"
  }],
  "TacticValue": "0x0000000000000000",
  "StreamId": 0,
  "Metadata": ""
},{
  "Name": "PWN(PWN(Sigmoid_115), Mul_116)",
  "LayerType": "PointWiseV2",
  "Inputs": [
  {
    "Name": "input.72",
    "Location": "Device",
    "Dimensions": [1,320,32,48],
    "Format/Datatype": "Row major linear FP32"
  }],
  "Outputs": [
  {
    "Name": "input.76",
    "Location": "Device",
    "Dimensions": [1,320,32,48],
    "Format/Datatype": "Row major linear FP32"
  }],
  "ParameterType": "PointWise",
  "ParameterSubType": "PointWiseExpression",
  "NbInputArgs": 1,
  "InputArgs": ["arg0"],
  "NbOutputVars": 1,
  "OutputVars": ["var4"],
  "NbParams": 0,
  "Params": [],
  "NbLiterals": 5,
  "Literals": ["0.000000e+00f", "1.000000e+00f", "0.000000e+00f", "0.000000e+00f", "1.000000e+00f"],
  "NbOperations": 5,
  "Operations": ["auto const var0 = pwgen::iNeg(arg0);", "auto const var1 = pwgen::iExp(var0);", "auto const var2 = pwgen::iPlus(literal4, var1);", "auto const var3 = pwgen::iRcp(var2);", "auto const var4 = pwgen::iMul(arg0, var3);"],
  "TacticValue": "0x0000000000000005",
  "StreamId": 0,
  "Metadata": "[ONNX Layer: Sigmoid_115]\u001e[ONNX Layer: Mul_116]"
},{
  "Name": "Reformatting CopyNode for Input Tensor 0 to Conv_117",
  "LayerType": "NoOp",
  "Inputs": [
  {
    "Name": "input.76",
    "Location": "Device",
    "Dimensions": [1,320,32,48],
    "Format/Datatype": "Row major linear FP32"
  }],
  "Outputs": [
  {
    "Name": "Reformatted Input Tensor 0 to Conv_117",
    "Location": "Device",
    "Dimensions": [1,320,32,48],
    "Format/Datatype": "Row major linear FP32"
  }],
  "TacticValue": "0x0000000000000000",
  "StreamId": 0,
  "Metadata": ""
},{
  "Name": "Conv_117",
  "LayerType": "CaskConvolution",
  "Inputs": [
  {
    "Name": "Reformatted Input Tensor 0 to Conv_117",
    "Location": "Device",
    "Dimensions": [1,320,32,48],
    "Format/Datatype": "Row major linear FP32"
  }],
  "Outputs": [
  {
    "Name": "onnx::Add_399",
    "Location": "Device",
    "Dimensions": [1,320,32,48],
    "Format/Datatype": "Row major linear FP32"
  }],
  "ParameterType": "Convolution",
  "Kernel": [3,3],
  "PaddingMode": "kEXPLICIT_ROUND_DOWN",
  "PrePadding": [1,1],
  "PostPadding": [1,1],
  "Stride": [1,1],
  "Dilation": [1,1],
  "OutMaps": 320,
  "Groups": 1,
  "Weights": {"Type": "Float", "Count": 921600},
  "Bias": {"Type": "Float", "Count": 320},
  "HasSparseWeights": 0,
  "HasDynamicFilter": 0,
  "HasDynamicBias": 0,
  "HasResidual": 0,
  "ConvXAsActInputIdx": -1,
  "BiasAsActInputIdx": -1,
  "ResAsActInputIdx": -1,
  "Activation": "NONE",
  "HasBias": 1,
  "HasReLU": 0,
  "TacticName": "sm80_xmma_fprop_wngd_f32f32_f32_f32_nchwkcrs_nchw_tilesize8x16x64x8_warpsize8x1x1_wngd2x2",
  "TacticValue": "0x0190806602534cfd",
  "StreamId": 0,
  "Metadata": "[ONNX Layer: Conv_117]"
},{
  "Name": "reshape_before_Gemm_74",
  "LayerType": "NoOp",
  "Inputs": [
  {
    "Name": "onnx::Gemm_351",
    "Location": "Device",
    "Dimensions": [1,320],
    "Format/Datatype": "Row major linear FP32"
  }],
  "Outputs": [
  {
    "Name": "reshape_before_Gemm_74_out_tensor",
    "Location": "Device",
    "Dimensions": [1,320,1,1],
    "Format/Datatype": "Row major linear FP32"
  }],
  "TacticValue": "0x0000000000000000",
  "StreamId": 0,
  "Metadata": "[ONNX Layer: Gemm_74]"
},{
  "Name": "Gemm_74",
  "LayerType": "CaskGemmConvolution",
  "Inputs": [
  {
    "Name": "reshape_before_Gemm_74_out_tensor",
    "Location": "Device",
    "Dimensions": [1,320,1,1],
    "Format/Datatype": "Row major linear FP32"
  }],
  "Outputs": [
  {
    "Name": "Gemm_74_out_tensor",
    "Location": "Device",
    "Dimensions": [1,1280,1,1],
    "Format/Datatype": "Row major linear FP32"
  }],
  "ParameterType": "Convolution",
  "Kernel": [1,1],
  "PaddingMode": "kEXPLICIT_ROUND_DOWN",
  "PrePadding": [0,0],
  "PostPadding": [0,0],
  "Stride": [1,1],
  "Dilation": [1,1],
  "OutMaps": 1280,
  "Groups": 1,
  "Weights": {"Type": "Float", "Count": 409600},
  "Bias": {"Type": "Float", "Count": 1280},
  "HasSparseWeights": 0,
  "HasDynamicFilter": 0,
  "HasDynamicBias": 0,
  "HasResidual": 0,
  "ConvXAsActInputIdx": -1,
  "BiasAsActInputIdx": -1,
  "ResAsActInputIdx": -1,
  "Activation": "NONE",
  "TacticName": "sm50_xmma_cublas_gemvx_f32f32_f32_f32_nn_n_int32_unit_n_launch_param32x4x4_strided_unit_stride",
  "TacticValue": "0x00000000000205d5",
  "StreamId": 0,
  "Metadata": "[ONNX Layer: Gemm_74]"
},{
  "Name": "reshape_after_Gemm_74",
  "LayerType": "NoOp",
  "Inputs": [
  {
    "Name": "Gemm_74_out_tensor",
    "Location": "Device",
    "Dimensions": [1,1280,1,1],
    "Format/Datatype": "Row major linear FP32"
  }],
  "Outputs": [
  {
    "Name": "input",
    "Location": "Device",
    "Dimensions": [1,1280],
    "Format/Datatype": "Row major linear FP32"
  }],
  "TacticValue": "0x0000000000000000",
  "StreamId": 0,
  "Metadata": "[ONNX Layer: Gemm_74]"
},{
  "Name": "PWN(PWN(Sigmoid_75), Mul_76)",
  "LayerType": "PointWiseV2",
  "Inputs": [
  {
    "Name": "input",
    "Location": "Device",
    "Dimensions": [1,1280],
    "Format/Datatype": "Row major linear FP32"
  }],
  "Outputs": [
  {
    "Name": "onnx::Gemm_354",
    "Location": "Device",
    "Dimensions": [1,1280],
    "Format/Datatype": "Row major linear FP32"
  }],
  "ParameterType": "PointWise",
  "ParameterSubType": "PointWiseExpression",
  "NbInputArgs": 1,
  "InputArgs": ["arg0"],
  "NbOutputVars": 1,
  "OutputVars": ["var4"],
  "NbParams": 0,
  "Params": [],
  "NbLiterals": 5,
  "Literals": ["0.000000e+00f", "1.000000e+00f", "0.000000e+00f", "0.000000e+00f", "1.000000e+00f"],
  "NbOperations": 5,
  "Operations": ["auto const var0 = pwgen::iNeg(arg0);", "auto const var1 = pwgen::iExp(var0);", "auto const var2 = pwgen::iPlus(literal4, var1);", "auto const var3 = pwgen::iRcp(var2);", "auto const var4 = pwgen::iMul(arg0, var3);"],
  "TacticValue": "0x000000000000001c",
  "StreamId": 0,
  "Metadata": "[ONNX Layer: Sigmoid_75]\u001e[ONNX Layer: Mul_76]"
},{
  "Name": "reshape_before_Gemm_77",
  "LayerType": "NoOp",
  "Inputs": [
  {
    "Name": "onnx::Gemm_354",
    "Location": "Device",
    "Dimensions": [1,1280],
    "Format/Datatype": "Row major linear FP32"
  }],
  "Outputs": [
  {
    "Name": "reshape_before_Gemm_77_out_tensor",
    "Location": "Device",
    "Dimensions": [1,1280,1,1],
    "Format/Datatype": "Row major linear FP32"
  }],
  "TacticValue": "0x0000000000000000",
  "StreamId": 0,
  "Metadata": "[ONNX Layer: Gemm_77]"
},{
  "Name": "Gemm_77",
  "LayerType": "CaskGemmConvolution",
  "Inputs": [
  {
    "Name": "reshape_before_Gemm_77_out_tensor",
    "Location": "Device",
    "Dimensions": [1,1280,1,1],
    "Format/Datatype": "Row major linear FP32"
  }],
  "Outputs": [
  {
    "Name": "Gemm_77_out_tensor",
    "Location": "Device",
    "Dimensions": [1,1280,1,1],
    "Format/Datatype": "Row major linear FP32"
  }],
  "ParameterType": "Convolution",
  "Kernel": [1,1],
  "PaddingMode": "kEXPLICIT_ROUND_DOWN",
  "PrePadding": [0,0],
  "PostPadding": [0,0],
  "Stride": [1,1],
  "Dilation": [1,1],
  "OutMaps": 1280,
  "Groups": 1,
  "Weights": {"Type": "Float", "Count": 1638400},
  "Bias": {"Type": "Float", "Count": 1280},
  "HasSparseWeights": 0,
  "HasDynamicFilter": 0,
  "HasDynamicBias": 0,
  "HasResidual": 0,
  "ConvXAsActInputIdx": -1,
  "BiasAsActInputIdx": -1,
  "ResAsActInputIdx": -1,
  "Activation": "NONE",
  "TacticName": "sm50_xmma_cublas_gemvx_f32f32_f32_f32_tn_n_int32_unit_n_launch_param16x32x32_strided_unit_stride",
  "TacticValue": "0x000000000002021b",
  "StreamId": 0,
  "Metadata": "[ONNX Layer: Gemm_77]"
},{
  "Name": "reshape_after_Gemm_77",
  "LayerType": "NoOp",
  "Inputs": [
  {
    "Name": "Gemm_77_out_tensor",
    "Location": "Device",
    "Dimensions": [1,1280,1,1],
    "Format/Datatype": "Row major linear FP32"
  }],
  "Outputs": [
  {
    "Name": "input.4",
    "Location": "Device",
    "Dimensions": [1,1280],
    "Format/Datatype": "Row major linear FP32"
  }],
  "TacticValue": "0x0000000000000000",
  "StreamId": 0,
  "Metadata": "[ONNX Layer: Gemm_77]"
},{
  "Name": "PWN(PWN(Sigmoid_118), Mul_119)",
  "LayerType": "PointWiseV2",
  "Inputs": [
  {
    "Name": "input.4",
    "Location": "Device",
    "Dimensions": [1,1280],
    "Format/Datatype": "Row major linear FP32"
  }],
  "Outputs": [
  {
    "Name": "onnx::Gemm_401",
    "Location": "Device",
    "Dimensions": [1,1280],
    "Format/Datatype": "Row major linear FP32"
  }],
  "ParameterType": "PointWise",
  "ParameterSubType": "PointWiseExpression",
  "NbInputArgs": 1,
  "InputArgs": ["arg0"],
  "NbOutputVars": 1,
  "OutputVars": ["var4"],
  "NbParams": 0,
  "Params": [],
  "NbLiterals": 5,
  "Literals": ["0.000000e+00f", "1.000000e+00f", "0.000000e+00f", "0.000000e+00f", "1.000000e+00f"],
  "NbOperations": 5,
  "Operations": ["auto const var0 = pwgen::iNeg(arg0);", "auto const var1 = pwgen::iExp(var0);", "auto const var2 = pwgen::iPlus(literal4, var1);", "auto const var3 = pwgen::iRcp(var2);", "auto const var4 = pwgen::iMul(arg0, var3);"],
  "TacticValue": "0x000000000000001c",
  "StreamId": 0,
  "Metadata": "[ONNX Layer: Sigmoid_118]\u001e[ONNX Layer: Mul_119]"
},{
  "Name": "reshape_before_Gemm_120",
  "LayerType": "NoOp",
  "Inputs": [
  {
    "Name": "onnx::Gemm_401",
    "Location": "Device",
    "Dimensions": [1,1280],
    "Format/Datatype": "Row major linear FP32"
  }],
  "Outputs": [
  {
    "Name": "reshape_before_Gemm_120_out_tensor",
    "Location": "Device",
    "Dimensions": [1,1280,1,1],
    "Format/Datatype": "Row major linear FP32"
  }],
  "TacticValue": "0x0000000000000000",
  "StreamId": 0,
  "Metadata": "[ONNX Layer: Gemm_120]"
},{
  "Name": "Gemm_1879 || Gemm_2363 || Gemm_2848 || Gemm_2887 || Gemm_2926 || Gemm_3408 || Gemm_910 || Gemm_1394 || Gemm_120 || Gemm_425",
  "LayerType": "CaskGemmConvolution",
  "Inputs": [
  {
    "Name": "reshape_before_Gemm_120_out_tensor",
    "Location": "Device",
    "Dimensions": [1,1280,1,1],
    "Format/Datatype": "Row major linear FP32"
  }],
  "Outputs": [
  {
    "Name": "Gemm_1879 || Gemm_2363 || Gemm_2848 || Gemm_2887 || Gemm_2926 || Gemm_3408 || Gemm_910 || Gemm_1394 || Gemm_120 || Gemm_425",
    "Location": "Device",
    "Dimensions": [1,9600,1,1],
    "Format/Datatype": "Row major linear FP32"
  }],
  "ParameterType": "Convolution",
  "Kernel": [1,1],
  "PaddingMode": "kEXPLICIT_ROUND_DOWN",
  "PrePadding": [0,0],
  "PostPadding": [0,0],
  "Stride": [1,1],
  "Dilation": [1,1],
  "OutMaps": 9600,
  "Groups": 1,
  "Weights": {"Type": "Float", "Count": 12288000},
  "Bias": {"Type": "Float", "Count": 9600},
  "HasSparseWeights": 0,
  "HasDynamicFilter": 0,
  "HasDynamicBias": 0,
  "HasResidual": 0,
  "ConvXAsActInputIdx": -1,
  "BiasAsActInputIdx": -1,
  "ResAsActInputIdx": -1,
  "Activation": "NONE",
  "TacticName": "sm50_xmma_cublas_gemvx_f32f32_f32_f32_nn_n_int32_unit_n_launch_param64x2x1_strided_unit_stride",
  "TacticValue": "0x00000000000206fc",
  "StreamId": 0,
  "Metadata": "[ONNX Layer: Gemm_1879]\u001e[ONNX Layer: Gemm_2363]\u001e[ONNX Layer: Gemm_2848]\u001e[ONNX Layer: Gemm_2887]\u001e[ONNX Layer: Gemm_2926]\u001e[ONNX Layer: Gemm_3408]\u001e[ONNX Layer: Gemm_910]\u001e[ONNX Layer: Gemm_1394]\u001e[ONNX Layer: Gemm_120]\u001e[ONNX Layer: Gemm_425]"
},{
  "Name": "reshape_after_Gemm_120_copy_input",
  "LayerType": "Reformat",
  "Inputs": [
  {
    "Name": "Gemm_1879 || Gemm_2363 || Gemm_2848 || Gemm_2887 || Gemm_2926 || Gemm_3408 || Gemm_910 || Gemm_1394 || Gemm_120 || Gemm_425",
    "Location": "Device",
    "Dimensions": [1,320,1,1],
    "Format/Datatype": "Row major linear FP32"
  }],
  "Outputs": [
  {
    "Name": "reshape_after_Gemm_120_copy_input",
    "Location": "Device",
    "Dimensions": [1,320,1,1],
    "Format/Datatype": "Row major linear FP32"
  }],
  "ParameterType": "Reformat",
  "Origin": "SLICE",
  "TacticValue": "0x00000000000003e8",
  "StreamId": 0,
  "Metadata": "[ONNX Layer: Gemm_120]"
},{
  "Name": "reshape_after_Gemm_120",
  "LayerType": "NoOp",
  "Inputs": [
  {
    "Name": "reshape_after_Gemm_120_copy_input",
    "Location": "Device",
    "Dimensions": [1,320,1,1],
    "Format/Datatype": "Row major linear FP32"
  }],
  "Outputs": [
  {
    "Name": "onnx::Cast_402",
    "Location": "Device",
    "Dimensions": [1,320],
    "Format/Datatype": "Row major linear FP32"
  }],
  "TacticValue": "0x0000000000000000",
  "StreamId": 0,
  "Metadata": "[ONNX Layer: Gemm_120]"
},{
  "Name": "Cast_121",
  "LayerType": "NoOp",
  "Inputs": [
  {
    "Name": "onnx::Cast_402",
    "Location": "Device",
    "Dimensions": [1,320],
    "Format/Datatype": "Row major linear FP32"
  }],
  "Outputs": [
  {
    "Name": "onnx::Unsqueeze_403",
    "Location": "Device",
    "Dimensions": [1,320],
    "Format/Datatype": "Row major linear FP32"
  }],
  "TacticValue": "0x0000000000000000",
  "StreamId": 0,
  "Metadata": ""
},{
  "Name": "Unsqueeze_123 + Unsqueeze_125",
  "LayerType": "NoOp",
  "Inputs": [
  {
    "Name": "onnx::Unsqueeze_403",
    "Location": "Device",
    "Dimensions": [1,320],
    "Format/Datatype": "Row major linear FP32"
  }],
  "Outputs": [
  {
    "Name": "onnx::Add_407",
    "Location": "Device",
    "Dimensions": [1,320,1,1],
    "Format/Datatype": "Row major linear FP32"
  }],
  "TacticValue": "0x0000000000000000",
  "StreamId": 0,
  "Metadata": "[ONNX Layer: Unsqueeze_123]\u001e[ONNX Layer: Unsqueeze_125]"
},{
  "Name": "Add_126",
  "LayerType": "ElementWise",
  "Inputs": [
  {
    "Name": "onnx::Add_399",
    "Location": "Device",
    "Dimensions": [1,320,32,48],
    "Format/Datatype": "Row major linear FP32"
  },
  {
    "Name": "onnx::Add_407",
    "Location": "Device",
    "Dimensions": [1,320,1,1],
    "Format/Datatype": "Row major linear FP32"
  }],
  "Outputs": [
  {
    "Name": "onnx::Cast_408",
    "Location": "Device",
    "Dimensions": [1,320,32,48],
    "Format/Datatype": "Row major linear FP32"
  }],
  "ParameterType": "ElementWise",
  "ElementWiseOperation": "SUM",
  "Activation": "NONE",
  "TacticValue": "0x0000000000000001",
  "StreamId": 0,
  "Metadata": "[ONNX Layer: Add_126]"
},{
  "Name": "Cast_127",
  "LayerType": "NoOp",
  "Inputs": [
  {
    "Name": "onnx::Cast_408",
    "Location": "Device",
    "Dimensions": [1,320,32,48],
    "Format/Datatype": "Row major linear FP32"
  }],
  "Outputs": [
  {
    "Name": "input.80",
    "Location": "Device",
    "Dimensions": [1,320,32,48],
    "Format/Datatype": "Row major linear FP32"
  }],
  "TacticValue": "0x0000000000000000",
  "StreamId": 0,
  "Metadata": ""
},{
  "Name": "Reshape_129 + (Unnamed Layer* 152) [Shuffle]",
  "LayerType": "NoOp",
  "Inputs": [
  {
    "Name": "input.80",
    "Location": "Device",
    "Dimensions": [1,320,32,48],
    "Format/Datatype": "Row major linear FP32"
  }],
  "Outputs": [
  {
    "Name": "(Unnamed Layer* 152) [Shuffle]_output",
    "Location": "Device",
    "Dimensions": [1,32,15360,1],
    "Format/Datatype": "Row major linear FP32"
  }],
  "TacticValue": "0x0000000000000000",
  "StreamId": 0,
  "Metadata": "[ONNX Layer: Reshape_129]\u001e"
},{
  "Name": "InstanceNormalization_132",
  "LayerType": "PluginV2",
  "Inputs": [
  {
    "Name": "(Unnamed Layer* 152) [Shuffle]_output",
    "Location": "Device",
    "Dimensions": [1,32,15360,1],
    "Format/Datatype": "Row major linear FP32"
  }],
  "Outputs": [
  {
    "Name": "(Unnamed Layer* 153) [PluginV2DynamicExt]_output",
    "Location": "Device",
    "Dimensions": [1,32,15360,1],
    "Format/Datatype": "Row major linear FP32"
  }],
  "PluginType": "InstanceNormalization_TRT",
  "PluginVersion": "1",
  "TacticValue": "0x0000000000000000",
  "StreamId": 0,
  "Metadata": "[ONNX Layer: InstanceNormalization_132]"
},{
  "Name": "(Unnamed Layer* 154) [Shuffle] + Reshape_134",
  "LayerType": "NoOp",
  "Inputs": [
  {
    "Name": "(Unnamed Layer* 153) [PluginV2DynamicExt]_output",
    "Location": "Device",
    "Dimensions": [1,32,15360,1],
    "Format/Datatype": "Row major linear FP32"
  }],
  "Outputs": [
  {
    "Name": "onnx::Mul_416",
    "Location": "Device",
    "Dimensions": [1,320,32,48],
    "Format/Datatype": "Row major linear FP32"
  }],
  "TacticValue": "0x0000000000000000",
  "StreamId": 0,
  "Metadata": "[ONNX Layer: Reshape_134]"
},{
  "Name": "onnx::Mul_4394 + (Unnamed Layer* 158) [Shuffle] + Mul_135 + onnx::Add_4395 + (Unnamed Layer* 161) [Shuffle] + Add_136",
  "LayerType": "Scale",
  "Inputs": [
  {
    "Name": "onnx::Mul_416",
    "Location": "Device",
    "Dimensions": [1,320,32,48],
    "Format/Datatype": "Row major linear FP32"
  }],
  "Outputs": [
  {
    "Name": "onnx::Cast_422",
    "Location": "Device",
    "Dimensions": [1,320,32,48],
    "Format/Datatype": "Row major linear FP32"
  }],
  "ParameterType": "Scale",
  "Mode": "CHANNEL",
  "Shift": {"Type": "Float", "Count": 320},
  "Scale": {"Type": "Float", "Count": 320},
  "Power": {"Type": "Float", "Count": 0},
  "Activation": "NONE",
  "ChannelAxis": 1,
  "TacticValue": "0x0000000000000000",
  "StreamId": 0,
  "Metadata": "[ONNX Layer: Mul_135]\u001e[ONNX Layer: Add_136]"
},{
  "Name": "Cast_137",
  "LayerType": "NoOp",
  "Inputs": [
  {
    "Name": "onnx::Cast_422",
    "Location": "Device",
    "Dimensions": [1,320,32,48],
    "Format/Datatype": "Row major linear FP32"
  }],
  "Outputs": [
  {
    "Name": "input.84",
    "Location": "Device",
    "Dimensions": [1,320,32,48],
    "Format/Datatype": "Row major linear FP32"
  }],
  "TacticValue": "0x0000000000000000",
  "StreamId": 0,
  "Metadata": ""
},{
  "Name": "PWN(PWN(Sigmoid_138), Mul_139)",
  "LayerType": "PointWiseV2",
  "Inputs": [
  {
    "Name": "input.84",
    "Location": "Device",
    "Dimensions": [1,320,32,48],
    "Format/Datatype": "Row major linear FP32"
  }],
  "Outputs": [
  {
    "Name": "input.88",
    "Location": "Device",
    "Dimensions": [1,320,32,48],
    "Format/Datatype": "Row major linear FP32"
  }],
  "ParameterType": "PointWise",
  "ParameterSubType": "PointWiseExpression",
  "NbInputArgs": 1,
  "InputArgs": ["arg0"],
  "NbOutputVars": 1,
  "OutputVars": ["var4"],
  "NbParams": 0,
  "Params": [],
  "NbLiterals": 5,
  "Literals": ["0.000000e+00f", "1.000000e+00f", "0.000000e+00f", "0.000000e+00f", "1.000000e+00f"],
  "NbOperations": 5,
  "Operations": ["auto const var0 = pwgen::iNeg(arg0);", "auto const var1 = pwgen::iExp(var0);", "auto const var2 = pwgen::iPlus(literal4, var1);", "auto const var3 = pwgen::iRcp(var2);", "auto const var4 = pwgen::iMul(arg0, var3);"],
  "TacticValue": "0x0000000000000005",
  "StreamId": 0,
  "Metadata": "[ONNX Layer: Sigmoid_138]\u001e[ONNX Layer: Mul_139]"
},{
  "Name": "Reformatting CopyNode for Input Tensor 0 to Conv_140 + Add_141",
  "LayerType": "NoOp",
  "Inputs": [
  {
    "Name": "input.88",
    "Location": "Device",
    "Dimensions": [1,320,32,48],
    "Format/Datatype": "Row major linear FP32"
  }],
  "Outputs": [
  {
    "Name": "Reformatted Input Tensor 0 to Conv_140 + Add_141",
    "Location": "Device",
    "Dimensions": [1,320,32,48],
    "Format/Datatype": "Row major linear FP32"
  }],
  "TacticValue": "0x0000000000000000",
  "StreamId": 0,
  "Metadata": ""
},{
  "Name": "Conv_140 + Add_141",
  "LayerType": "CaskConvolution",
  "Inputs": [
  {
    "Name": "Reformatted Input Tensor 0 to Conv_140 + Add_141",
    "Location": "Device",
    "Dimensions": [1,320,32,48],
    "Format/Datatype": "Row major linear FP32"
  },
  {
    "Name": "input.68",
    "Location": "Device",
    "Dimensions": [1,320,32,48],
    "Format/Datatype": "Row major linear FP32"
  }],
  "Outputs": [
  {
    "Name": "input.92",
    "Location": "Device",
    "Dimensions": [1,320,32,48],
    "Format/Datatype": "Row major linear FP32"
  }],
  "ParameterType": "Convolution",
  "Kernel": [3,3],
  "PaddingMode": "kEXPLICIT_ROUND_DOWN",
  "PrePadding": [1,1],
  "PostPadding": [1,1],
  "Stride": [1,1],
  "Dilation": [1,1],
  "OutMaps": 320,
  "Groups": 1,
  "Weights": {"Type": "Float", "Count": 921600},
  "Bias": {"Type": "Float", "Count": 320},
  "HasSparseWeights": 0,
  "HasDynamicFilter": 0,
  "HasDynamicBias": 0,
  "HasResidual": 1,
  "ConvXAsActInputIdx": -1,
  "BiasAsActInputIdx": -1,
  "ResAsActInputIdx": -1,
  "Activation": "NONE",
  "HasBias": 1,
  "HasReLU": 0,
  "TacticName": "ampere_scudnn_winograd_128x128_ldg1_ldg4_relu_tile148t_nt_v1",
  "TacticValue": "0x94119b4c514b211a",
  "StreamId": 0,
  "Metadata": "[ONNX Layer: Conv_140]\u001e[ONNX Layer: Add_141]"
},{
  "Name": "Reshape_143 + (Unnamed Layer* 169) [Shuffle]",
  "LayerType": "NoOp",
  "Inputs": [
  {
    "Name": "input.92",
    "Location": "Device",
    "Dimensions": [1,320,32,48],
    "Format/Datatype": "Row major linear FP32"
  }],
  "Outputs": [
  {
    "Name": "(Unnamed Layer* 169) [Shuffle]_output",
    "Location": "Device",
    "Dimensions": [1,32,15360,1],
    "Format/Datatype": "Row major linear FP32"
  }],
  "TacticValue": "0x0000000000000000",
  "StreamId": 0,
  "Metadata": "[ONNX Layer: Reshape_143]\u001e"
},{
  "Name": "InstanceNormalization_146",
  "LayerType": "PluginV2",
  "Inputs": [
  {
    "Name": "(Unnamed Layer* 169) [Shuffle]_output",
    "Location": "Device",
    "Dimensions": [1,32,15360,1],
    "Format/Datatype": "Row major linear FP32"
  }],
  "Outputs": [
  {
    "Name": "(Unnamed Layer* 170) [PluginV2DynamicExt]_output",
    "Location": "Device",
    "Dimensions": [1,32,15360,1],
    "Format/Datatype": "Row major linear FP32"
  }],
  "PluginType": "InstanceNormalization_TRT",
  "PluginVersion": "1",
  "TacticValue": "0x0000000000000000",
  "StreamId": 0,
  "Metadata": "[ONNX Layer: InstanceNormalization_146]"
},{
  "Name": "(Unnamed Layer* 171) [Shuffle] + Reshape_148",
  "LayerType": "NoOp",
  "Inputs": [
  {
    "Name": "(Unnamed Layer* 170) [PluginV2DynamicExt]_output",
    "Location": "Device",
    "Dimensions": [1,32,15360,1],
    "Format/Datatype": "Row major linear FP32"
  }],
  "Outputs": [
  {
    "Name": "onnx::Mul_436",
    "Location": "Device",
    "Dimensions": [1,320,32,48],
    "Format/Datatype": "Row major linear FP32"
  }],
  "TacticValue": "0x0000000000000000",
  "StreamId": 0,
  "Metadata": "[ONNX Layer: Reshape_148]"
},{
  "Name": "onnx::Mul_4396 + (Unnamed Layer* 175) [Shuffle] + Mul_149 + onnx::Add_4397 + (Unnamed Layer* 178) [Shuffle] + Add_150",
  "LayerType": "Scale",
  "Inputs": [
  {
    "Name": "onnx::Mul_436",
    "Location": "Device",
    "Dimensions": [1,320,32,48],
    "Format/Datatype": "Row major linear FP32"
  }],
  "Outputs": [
  {
    "Name": "input.96",
    "Location": "Device",
    "Dimensions": [1,320,32,48],
    "Format/Datatype": "Row major linear FP32"
  }],
  "ParameterType": "Scale",
  "Mode": "CHANNEL",
  "Shift": {"Type": "Float", "Count": 320},
  "Scale": {"Type": "Float", "Count": 320},
  "Power": {"Type": "Float", "Count": 0},
  "Activation": "NONE",
  "ChannelAxis": 1,
  "TacticValue": "0x0000000000000000",
  "StreamId": 0,
  "Metadata": "[ONNX Layer: Mul_149]\u001e[ONNX Layer: Add_150]"
},{
  "Name": "Conv_151",
  "LayerType": "CaskConvolution",
  "Inputs": [
  {
    "Name": "input.96",
    "Location": "Device",
    "Dimensions": [1,320,32,48],
    "Format/Datatype": "Row major linear FP32"
  }],
  "Outputs": [
  {
    "Name": "tensor",
    "Location": "Device",
    "Dimensions": [1,320,32,48],
    "Format/Datatype": "Row major linear FP32"
  }],
  "ParameterType": "Convolution",
  "Kernel": [1,1],
  "PaddingMode": "kEXPLICIT_ROUND_DOWN",
  "PrePadding": [0,0],
  "PostPadding": [0,0],
  "Stride": [1,1],
  "Dilation": [1,1],
  "OutMaps": 320,
  "Groups": 1,
  "Weights": {"Type": "Float", "Count": 102400},
  "Bias": {"Type": "Float", "Count": 320},
  "HasSparseWeights": 0,
  "HasDynamicFilter": 0,
  "HasDynamicBias": 0,
  "HasResidual": 0,
  "ConvXAsActInputIdx": -1,
  "BiasAsActInputIdx": -1,
  "ResAsActInputIdx": -1,
  "Activation": "NONE",
  "HasBias": 1,
  "HasReLU": 0,
  "TacticName": "sm80_xmma_fprop_implicit_gemm_f32f32_tf32f32_f32_nchwkrsc_nchw_tilesize128x64x16_stage2_warpsize2x2x1_g1_tensor16x8x8_simple_t1r1s1_aligna4_alignc4",
  "TacticValue": "0xe52b0ddb126aa135",
  "StreamId": 0,
  "Metadata": "[ONNX Layer: Conv_151]"
},{
  "Name": "{ForeignNode[Reshape_152 + Transpose_153 + Reshape_154...Reshape_398 + Transpose_399 + Reshape_405]}",
  "LayerType": "Myelin",
  "Inputs": [
  {
    "Name": "tensor",
    "Location": "Device",
    "Dimensions": [1,320,32,48],
    "Format/Datatype": "Row major linear FP32"
  },
  {
    "Name": "onnx::MatMul_3",
    "Location": "Device",
    "Dimensions": [1,77,768],
    "Format/Datatype": "Row major linear FP32"
  }],
  "Outputs": [
  {
    "Name": "onnx::Conv_850",
    "Location": "Device",
    "Dimensions": [1,320,32,48],
    "Format/Datatype": "Row major linear FP32"
  }],
  "TacticValue": "0x0000000000000000",
  "StreamId": 0,
  "Metadata": ""
},{
  "Name": "Conv_406 + Add_407",
  "LayerType": "CaskConvolution",
  "Inputs": [
  {
    "Name": "onnx::Conv_850",
    "Location": "Device",
    "Dimensions": [1,320,32,48],
    "Format/Datatype": "Row major linear FP32"
  },
  {
    "Name": "input.92",
    "Location": "Device",
    "Dimensions": [1,320,32,48],
    "Format/Datatype": "Row major linear FP32"
  }],
  "Outputs": [
  {
    "Name": "input.120",
    "Location": "Device",
    "Dimensions": [1,320,32,48],
    "Format/Datatype": "Row major linear FP32"
  }],
  "ParameterType": "Convolution",
  "Kernel": [1,1],
  "PaddingMode": "kEXPLICIT_ROUND_DOWN",
  "PrePadding": [0,0],
  "PostPadding": [0,0],
  "Stride": [1,1],
  "Dilation": [1,1],
  "OutMaps": 320,
  "Groups": 1,
  "Weights": {"Type": "Float", "Count": 102400},
  "Bias": {"Type": "Float", "Count": 320},
  "HasSparseWeights": 0,
  "HasDynamicFilter": 0,
  "HasDynamicBias": 0,
  "HasResidual": 1,
  "ConvXAsActInputIdx": -1,
  "BiasAsActInputIdx": -1,
  "ResAsActInputIdx": -1,
  "Activation": "NONE",
  "HasBias": 1,
  "HasReLU": 0,
  "TacticName": "sm80_xmma_fprop_implicit_gemm_f32f32_f32f32_f32_nchwkcrs_nchw_tilesize64x128x8_stage3_warpsize1x4x1_g1_ffma_t1r1s1_aligna4_alignc4",
  "TacticValue": "0xc0b05b61d128e46e",
  "StreamId": 0,
  "Metadata": "[ONNX Layer: Conv_406]\u001e[ONNX Layer: Add_407]"
},{
  "Name": "Cast_409",
  "LayerType": "NoOp",
  "Inputs": [
  {
    "Name": "input.120",
    "Location": "Device",
    "Dimensions": [1,320,32,48],
    "Format/Datatype": "Row major linear FP32"
  }],
  "Outputs": [
  {
    "Name": "input.124",
    "Location": "Device",
    "Dimensions": [1,320,32,48],
    "Format/Datatype": "Row major linear FP32"
  }],
  "TacticValue": "0x0000000000000000",
  "StreamId": 0,
  "Metadata": ""
},{
  "Name": "Reshape_411 + (Unnamed Layer* 513) [Shuffle]",
  "LayerType": "NoOp",
  "Inputs": [
  {
    "Name": "input.124",
    "Location": "Device",
    "Dimensions": [1,320,32,48],
    "Format/Datatype": "Row major linear FP32"
  }],
  "Outputs": [
  {
    "Name": "(Unnamed Layer* 513) [Shuffle]_output",
    "Location": "Device",
    "Dimensions": [1,32,15360,1],
    "Format/Datatype": "Row major linear FP32"
  }],
  "TacticValue": "0x0000000000000000",
  "StreamId": 0,
  "Metadata": "[ONNX Layer: Reshape_411]\u001e"
},{
  "Name": "InstanceNormalization_414",
  "LayerType": "PluginV2",
  "Inputs": [
  {
    "Name": "(Unnamed Layer* 513) [Shuffle]_output",
    "Location": "Device",
    "Dimensions": [1,32,15360,1],
    "Format/Datatype": "Row major linear FP32"
  }],
  "Outputs": [
  {
    "Name": "(Unnamed Layer* 514) [PluginV2DynamicExt]_output",
    "Location": "Device",
    "Dimensions": [1,32,15360,1],
    "Format/Datatype": "Row major linear FP32"
  }],
  "PluginType": "InstanceNormalization_TRT",
  "PluginVersion": "1",
  "TacticValue": "0x0000000000000000",
  "StreamId": 0,
  "Metadata": "[ONNX Layer: InstanceNormalization_414]"
},{
  "Name": "(Unnamed Layer* 515) [Shuffle] + Reshape_416",
  "LayerType": "NoOp",
  "Inputs": [
  {
    "Name": "(Unnamed Layer* 514) [PluginV2DynamicExt]_output",
    "Location": "Device",
    "Dimensions": [1,32,15360,1],
    "Format/Datatype": "Row major linear FP32"
  }],
  "Outputs": [
  {
    "Name": "onnx::Mul_861",
    "Location": "Device",
    "Dimensions": [1,320,32,48],
    "Format/Datatype": "Row major linear FP32"
  }],
  "TacticValue": "0x0000000000000000",
  "StreamId": 0,
  "Metadata": "[ONNX Layer: Reshape_416]"
},{
  "Name": "onnx::Mul_4469 + (Unnamed Layer* 519) [Shuffle] + Mul_417 + onnx::Add_4470 + (Unnamed Layer* 522) [Shuffle] + Add_418",
  "LayerType": "Scale",
  "Inputs": [
  {
    "Name": "onnx::Mul_861",
    "Location": "Device",
    "Dimensions": [1,320,32,48],
    "Format/Datatype": "Row major linear FP32"
  }],
  "Outputs": [
  {
    "Name": "onnx::Cast_867",
    "Location": "Device",
    "Dimensions": [1,320,32,48],
    "Format/Datatype": "Row major linear FP32"
  }],
  "ParameterType": "Scale",
  "Mode": "CHANNEL",
  "Shift": {"Type": "Float", "Count": 320},
  "Scale": {"Type": "Float", "Count": 320},
  "Power": {"Type": "Float", "Count": 0},
  "Activation": "NONE",
  "ChannelAxis": 1,
  "TacticValue": "0x0000000000000000",
  "StreamId": 0,
  "Metadata": "[ONNX Layer: Mul_417]\u001e[ONNX Layer: Add_418]"
},{
  "Name": "Cast_419",
  "LayerType": "NoOp",
  "Inputs": [
  {
    "Name": "onnx::Cast_867",
    "Location": "Device",
    "Dimensions": [1,320,32,48],
    "Format/Datatype": "Row major linear FP32"
  }],
  "Outputs": [
  {
    "Name": "input.128",
    "Location": "Device",
    "Dimensions": [1,320,32,48],
    "Format/Datatype": "Row major linear FP32"
  }],
  "TacticValue": "0x0000000000000000",
  "StreamId": 0,
  "Metadata": ""
},{
  "Name": "PWN(PWN(Sigmoid_420), Mul_421)",
  "LayerType": "PointWiseV2",
  "Inputs": [
  {
    "Name": "input.128",
    "Location": "Device",
    "Dimensions": [1,320,32,48],
    "Format/Datatype": "Row major linear FP32"
  }],
  "Outputs": [
  {
    "Name": "input.132",
    "Location": "Device",
    "Dimensions": [1,320,32,48],
    "Format/Datatype": "Row major linear FP32"
  }],
  "ParameterType": "PointWise",
  "ParameterSubType": "PointWiseExpression",
  "NbInputArgs": 1,
  "InputArgs": ["arg0"],
  "NbOutputVars": 1,
  "OutputVars": ["var4"],
  "NbParams": 0,
  "Params": [],
  "NbLiterals": 5,
  "Literals": ["0.000000e+00f", "1.000000e+00f", "0.000000e+00f", "0.000000e+00f", "1.000000e+00f"],
  "NbOperations": 5,
  "Operations": ["auto const var0 = pwgen::iNeg(arg0);", "auto const var1 = pwgen::iExp(var0);", "auto const var2 = pwgen::iPlus(literal4, var1);", "auto const var3 = pwgen::iRcp(var2);", "auto const var4 = pwgen::iMul(arg0, var3);"],
  "TacticValue": "0x0000000000000005",
  "StreamId": 0,
  "Metadata": "[ONNX Layer: Sigmoid_420]\u001e[ONNX Layer: Mul_421]"
},{
  "Name": "Reformatting CopyNode for Input Tensor 0 to Conv_422",
  "LayerType": "NoOp",
  "Inputs": [
  {
    "Name": "input.132",
    "Location": "Device",
    "Dimensions": [1,320,32,48],
    "Format/Datatype": "Row major linear FP32"
  }],
  "Outputs": [
  {
    "Name": "Reformatted Input Tensor 0 to Conv_422",
    "Location": "Device",
    "Dimensions": [1,320,32,48],
    "Format/Datatype": "Row major linear FP32"
  }],
  "TacticValue": "0x0000000000000000",
  "StreamId": 0,
  "Metadata": ""
},{
  "Name": "Conv_422",
  "LayerType": "CaskConvolution",
  "Inputs": [
  {
    "Name": "Reformatted Input Tensor 0 to Conv_422",
    "Location": "Device",
    "Dimensions": [1,320,32,48],
    "Format/Datatype": "Row major linear FP32"
  }],
  "Outputs": [
  {
    "Name": "onnx::Add_871",
    "Location": "Device",
    "Dimensions": [1,320,32,48],
    "Format/Datatype": "Row major linear FP32"
  }],
  "ParameterType": "Convolution",
  "Kernel": [3,3],
  "PaddingMode": "kEXPLICIT_ROUND_DOWN",
  "PrePadding": [1,1],
  "PostPadding": [1,1],
  "Stride": [1,1],
  "Dilation": [1,1],
  "OutMaps": 320,
  "Groups": 1,
  "Weights": {"Type": "Float", "Count": 921600},
  "Bias": {"Type": "Float", "Count": 320},
  "HasSparseWeights": 0,
  "HasDynamicFilter": 0,
  "HasDynamicBias": 0,
  "HasResidual": 0,
  "ConvXAsActInputIdx": -1,
  "BiasAsActInputIdx": -1,
  "ResAsActInputIdx": -1,
  "Activation": "NONE",
  "HasBias": 1,
  "HasReLU": 0,
  "TacticName": "sm80_xmma_fprop_wngd_f32f32_f32_f32_nchwkcrs_nchw_tilesize8x16x64x8_warpsize8x1x1_wngd2x2",
  "TacticValue": "0x0190806602534cfd",
  "StreamId": 0,
  "Metadata": "[ONNX Layer: Conv_422]"
},{
  "Name": "reshape_after_Gemm_425_copy_input",
  "LayerType": "Reformat",
  "Inputs": [
  {
    "Name": "Gemm_1879 || Gemm_2363 || Gemm_2848 || Gemm_2887 || Gemm_2926 || Gemm_3408 || Gemm_910 || Gemm_1394 || Gemm_120 || Gemm_425",
    "Location": "Device",
    "Dimensions": [1,320,1,1],
    "Format/Datatype": "Row major linear FP32"
  }],
  "Outputs": [
  {
    "Name": "reshape_after_Gemm_425_copy_input",
    "Location": "Device",
    "Dimensions": [1,320,1,1],
    "Format/Datatype": "Row major linear FP32"
  }],
  "ParameterType": "Reformat",
  "Origin": "SLICE",
  "TacticValue": "0x00000000000003e8",
  "StreamId": 0,
  "Metadata": "[ONNX Layer: Gemm_425]"
},{
  "Name": "reshape_after_Gemm_425",
  "LayerType": "NoOp",
  "Inputs": [
  {
    "Name": "reshape_after_Gemm_425_copy_input",
    "Location": "Device",
    "Dimensions": [1,320,1,1],
    "Format/Datatype": "Row major linear FP32"
  }],
  "Outputs": [
  {
    "Name": "onnx::Cast_874",
    "Location": "Device",
    "Dimensions": [1,320],
    "Format/Datatype": "Row major linear FP32"
  }],
  "TacticValue": "0x0000000000000000",
  "StreamId": 0,
  "Metadata": "[ONNX Layer: Gemm_425]"
},{
  "Name": "Cast_426",
  "LayerType": "NoOp",
  "Inputs": [
  {
    "Name": "onnx::Cast_874",
    "Location": "Device",
    "Dimensions": [1,320],
    "Format/Datatype": "Row major linear FP32"
  }],
  "Outputs": [
  {
    "Name": "onnx::Unsqueeze_875",
    "Location": "Device",
    "Dimensions": [1,320],
    "Format/Datatype": "Row major linear FP32"
  }],
  "TacticValue": "0x0000000000000000",
  "StreamId": 0,
  "Metadata": ""
},{
  "Name": "Unsqueeze_428 + Unsqueeze_430",
  "LayerType": "NoOp",
  "Inputs": [
  {
    "Name": "onnx::Unsqueeze_875",
    "Location": "Device",
    "Dimensions": [1,320],
    "Format/Datatype": "Row major linear FP32"
  }],
  "Outputs": [
  {
    "Name": "onnx::Add_879",
    "Location": "Device",
    "Dimensions": [1,320,1,1],
    "Format/Datatype": "Row major linear FP32"
  }],
  "TacticValue": "0x0000000000000000",
  "StreamId": 0,
  "Metadata": "[ONNX Layer: Unsqueeze_428]\u001e[ONNX Layer: Unsqueeze_430]"
},{
  "Name": "Add_431",
  "LayerType": "ElementWise",
  "Inputs": [
  {
    "Name": "onnx::Add_871",
    "Location": "Device",
    "Dimensions": [1,320,32,48],
    "Format/Datatype": "Row major linear FP32"
  },
  {
    "Name": "onnx::Add_879",
    "Location": "Device",
    "Dimensions": [1,320,1,1],
    "Format/Datatype": "Row major linear FP32"
  }],
  "Outputs": [
  {
    "Name": "onnx::Cast_880",
    "Location": "Device",
    "Dimensions": [1,320,32,48],
    "Format/Datatype": "Row major linear FP32"
  }],
  "ParameterType": "ElementWise",
  "ElementWiseOperation": "SUM",
  "Activation": "NONE",
  "TacticValue": "0x0000000000000001",
  "StreamId": 0,
  "Metadata": "[ONNX Layer: Add_431]"
},{
  "Name": "Cast_432",
  "LayerType": "NoOp",
  "Inputs": [
  {
    "Name": "onnx::Cast_880",
    "Location": "Device",
    "Dimensions": [1,320,32,48],
    "Format/Datatype": "Row major linear FP32"
  }],
  "Outputs": [
  {
    "Name": "input.136",
    "Location": "Device",
    "Dimensions": [1,320,32,48],
    "Format/Datatype": "Row major linear FP32"
  }],
  "TacticValue": "0x0000000000000000",
  "StreamId": 0,
  "Metadata": ""
},{
  "Name": "Reshape_434 + (Unnamed Layer* 541) [Shuffle]",
  "LayerType": "NoOp",
  "Inputs": [
  {
    "Name": "input.136",
    "Location": "Device",
    "Dimensions": [1,320,32,48],
    "Format/Datatype": "Row major linear FP32"
  }],
  "Outputs": [
  {
    "Name": "(Unnamed Layer* 541) [Shuffle]_output",
    "Location": "Device",
    "Dimensions": [1,32,15360,1],
    "Format/Datatype": "Row major linear FP32"
  }],
  "TacticValue": "0x0000000000000000",
  "StreamId": 0,
  "Metadata": "[ONNX Layer: Reshape_434]\u001e"
},{
  "Name": "InstanceNormalization_437",
  "LayerType": "PluginV2",
  "Inputs": [
  {
    "Name": "(Unnamed Layer* 541) [Shuffle]_output",
    "Location": "Device",
    "Dimensions": [1,32,15360,1],
    "Format/Datatype": "Row major linear FP32"
  }],
  "Outputs": [
  {
    "Name": "(Unnamed Layer* 542) [PluginV2DynamicExt]_output",
    "Location": "Device",
    "Dimensions": [1,32,15360,1],
    "Format/Datatype": "Row major linear FP32"
  }],
  "PluginType": "InstanceNormalization_TRT",
  "PluginVersion": "1",
  "TacticValue": "0x0000000000000000",
  "StreamId": 0,
  "Metadata": "[ONNX Layer: InstanceNormalization_437]"
},{
  "Name": "(Unnamed Layer* 543) [Shuffle] + Reshape_439",
  "LayerType": "NoOp",
  "Inputs": [
  {
    "Name": "(Unnamed Layer* 542) [PluginV2DynamicExt]_output",
    "Location": "Device",
    "Dimensions": [1,32,15360,1],
    "Format/Datatype": "Row major linear FP32"
  }],
  "Outputs": [
  {
    "Name": "onnx::Mul_888",
    "Location": "Device",
    "Dimensions": [1,320,32,48],
    "Format/Datatype": "Row major linear FP32"
  }],
  "TacticValue": "0x0000000000000000",
  "StreamId": 0,
  "Metadata": "[ONNX Layer: Reshape_439]"
},{
  "Name": "onnx::Mul_4471 + (Unnamed Layer* 547) [Shuffle] + Mul_440 + onnx::Add_4472 + (Unnamed Layer* 550) [Shuffle] + Add_441",
  "LayerType": "Scale",
  "Inputs": [
  {
    "Name": "onnx::Mul_888",
    "Location": "Device",
    "Dimensions": [1,320,32,48],
    "Format/Datatype": "Row major linear FP32"
  }],
  "Outputs": [
  {
    "Name": "onnx::Cast_894",
    "Location": "Device",
    "Dimensions": [1,320,32,48],
    "Format/Datatype": "Row major linear FP32"
  }],
  "ParameterType": "Scale",
  "Mode": "CHANNEL",
  "Shift": {"Type": "Float", "Count": 320},
  "Scale": {"Type": "Float", "Count": 320},
  "Power": {"Type": "Float", "Count": 0},
  "Activation": "NONE",
  "ChannelAxis": 1,
  "TacticValue": "0x0000000000000000",
  "StreamId": 0,
  "Metadata": "[ONNX Layer: Mul_440]\u001e[ONNX Layer: Add_441]"
},{
  "Name": "Cast_442",
  "LayerType": "NoOp",
  "Inputs": [
  {
    "Name": "onnx::Cast_894",
    "Location": "Device",
    "Dimensions": [1,320,32,48],
    "Format/Datatype": "Row major linear FP32"
  }],
  "Outputs": [
  {
    "Name": "input.140",
    "Location": "Device",
    "Dimensions": [1,320,32,48],
    "Format/Datatype": "Row major linear FP32"
  }],
  "TacticValue": "0x0000000000000000",
  "StreamId": 0,
  "Metadata": ""
},{
  "Name": "PWN(PWN(Sigmoid_443), Mul_444)",
  "LayerType": "PointWiseV2",
  "Inputs": [
  {
    "Name": "input.140",
    "Location": "Device",
    "Dimensions": [1,320,32,48],
    "Format/Datatype": "Row major linear FP32"
  }],
  "Outputs": [
  {
    "Name": "input.144",
    "Location": "Device",
    "Dimensions": [1,320,32,48],
    "Format/Datatype": "Row major linear FP32"
  }],
  "ParameterType": "PointWise",
  "ParameterSubType": "PointWiseExpression",
  "NbInputArgs": 1,
  "InputArgs": ["arg0"],
  "NbOutputVars": 1,
  "OutputVars": ["var4"],
  "NbParams": 0,
  "Params": [],
  "NbLiterals": 5,
  "Literals": ["0.000000e+00f", "1.000000e+00f", "0.000000e+00f", "0.000000e+00f", "1.000000e+00f"],
  "NbOperations": 5,
  "Operations": ["auto const var0 = pwgen::iNeg(arg0);", "auto const var1 = pwgen::iExp(var0);", "auto const var2 = pwgen::iPlus(literal4, var1);", "auto const var3 = pwgen::iRcp(var2);", "auto const var4 = pwgen::iMul(arg0, var3);"],
  "TacticValue": "0x0000000000000005",
  "StreamId": 0,
  "Metadata": "[ONNX Layer: Sigmoid_443]\u001e[ONNX Layer: Mul_444]"
},{
  "Name": "Reformatting CopyNode for Input Tensor 0 to Conv_445 + Add_446",
  "LayerType": "NoOp",
  "Inputs": [
  {
    "Name": "input.144",
    "Location": "Device",
    "Dimensions": [1,320,32,48],
    "Format/Datatype": "Row major linear FP32"
  }],
  "Outputs": [
  {
    "Name": "Reformatted Input Tensor 0 to Conv_445 + Add_446",
    "Location": "Device",
    "Dimensions": [1,320,32,48],
    "Format/Datatype": "Row major linear FP32"
  }],
  "TacticValue": "0x0000000000000000",
  "StreamId": 0,
  "Metadata": ""
},{
  "Name": "Conv_445 + Add_446",
  "LayerType": "CaskConvolution",
  "Inputs": [
  {
    "Name": "Reformatted Input Tensor 0 to Conv_445 + Add_446",
    "Location": "Device",
    "Dimensions": [1,320,32,48],
    "Format/Datatype": "Row major linear FP32"
  },
  {
    "Name": "input.124",
    "Location": "Device",
    "Dimensions": [1,320,32,48],
    "Format/Datatype": "Row major linear FP32"
  }],
  "Outputs": [
  {
    "Name": "input.148",
    "Location": "Device",
    "Dimensions": [1,320,32,48],
    "Format/Datatype": "Row major linear FP32"
  }],
  "ParameterType": "Convolution",
  "Kernel": [3,3],
  "PaddingMode": "kEXPLICIT_ROUND_DOWN",
  "PrePadding": [1,1],
  "PostPadding": [1,1],
  "Stride": [1,1],
  "Dilation": [1,1],
  "OutMaps": 320,
  "Groups": 1,
  "Weights": {"Type": "Float", "Count": 921600},
  "Bias": {"Type": "Float", "Count": 320},
  "HasSparseWeights": 0,
  "HasDynamicFilter": 0,
  "HasDynamicBias": 0,
  "HasResidual": 1,
  "ConvXAsActInputIdx": -1,
  "BiasAsActInputIdx": -1,
  "ResAsActInputIdx": -1,
  "Activation": "NONE",
  "HasBias": 1,
  "HasReLU": 0,
  "TacticName": "ampere_scudnn_winograd_128x128_ldg1_ldg4_relu_tile148t_nt_v1",
  "TacticValue": "0x94119b4c514b211a",
  "StreamId": 0,
  "Metadata": "[ONNX Layer: Conv_445]\u001e[ONNX Layer: Add_446]"
},{
  "Name": "Reshape_454 + (Unnamed Layer* 564) [Shuffle]",
  "LayerType": "NoOp",
  "Inputs": [
  {
    "Name": "input.148",
    "Location": "Device",
    "Dimensions": [1,320,32,48],
    "Format/Datatype": "Row major linear FP32"
  }],
  "Outputs": [
  {
    "Name": "(Unnamed Layer* 564) [Shuffle]_output",
    "Location": "Device",
    "Dimensions": [1,32,15360,1],
    "Format/Datatype": "Row major linear FP32"
  }],
  "TacticValue": "0x0000000000000000",
  "StreamId": 0,
  "Metadata": "[ONNX Layer: Reshape_454]\u001e"
},{
  "Name": "InstanceNormalization_457",
  "LayerType": "PluginV2",
  "Inputs": [
  {
    "Name": "(Unnamed Layer* 564) [Shuffle]_output",
    "Location": "Device",
    "Dimensions": [1,32,15360,1],
    "Format/Datatype": "Row major linear FP32"
  }],
  "Outputs": [
  {
    "Name": "(Unnamed Layer* 565) [PluginV2DynamicExt]_output",
    "Location": "Device",
    "Dimensions": [1,32,15360,1],
    "Format/Datatype": "Row major linear FP32"
  }],
  "PluginType": "InstanceNormalization_TRT",
  "PluginVersion": "1",
  "TacticValue": "0x0000000000000000",
  "StreamId": 0,
  "Metadata": "[ONNX Layer: InstanceNormalization_457]"
},{
  "Name": "(Unnamed Layer* 566) [Shuffle] + Reshape_459",
  "LayerType": "NoOp",
  "Inputs": [
  {
    "Name": "(Unnamed Layer* 565) [PluginV2DynamicExt]_output",
    "Location": "Device",
    "Dimensions": [1,32,15360,1],
    "Format/Datatype": "Row major linear FP32"
  }],
  "Outputs": [
  {
    "Name": "onnx::Mul_912",
    "Location": "Device",
    "Dimensions": [1,320,32,48],
    "Format/Datatype": "Row major linear FP32"
  }],
  "TacticValue": "0x0000000000000000",
  "StreamId": 0,
  "Metadata": "[ONNX Layer: Reshape_459]"
},{
  "Name": "onnx::Mul_4473 + (Unnamed Layer* 570) [Shuffle] + Mul_460 + onnx::Add_4474 + (Unnamed Layer* 573) [Shuffle] + Add_461",
  "LayerType": "Scale",
  "Inputs": [
  {
    "Name": "onnx::Mul_912",
    "Location": "Device",
    "Dimensions": [1,320,32,48],
    "Format/Datatype": "Row major linear FP32"
  }],
  "Outputs": [
  {
    "Name": "input.152",
    "Location": "Device",
    "Dimensions": [1,320,32,48],
    "Format/Datatype": "Row major linear FP32"
  }],
  "ParameterType": "Scale",
  "Mode": "CHANNEL",
  "Shift": {"Type": "Float", "Count": 320},
  "Scale": {"Type": "Float", "Count": 320},
  "Power": {"Type": "Float", "Count": 0},
  "Activation": "NONE",
  "ChannelAxis": 1,
  "TacticValue": "0x0000000000000000",
  "StreamId": 0,
  "Metadata": "[ONNX Layer: Mul_460]\u001e[ONNX Layer: Add_461]"
},{
  "Name": "Conv_462",
  "LayerType": "CaskConvolution",
  "Inputs": [
  {
    "Name": "input.152",
    "Location": "Device",
    "Dimensions": [1,320,32,48],
    "Format/Datatype": "Row major linear FP32"
  }],
  "Outputs": [
  {
    "Name": "tensor.119",
    "Location": "Device",
    "Dimensions": [1,320,32,48],
    "Format/Datatype": "Row major linear FP32"
  }],
  "ParameterType": "Convolution",
  "Kernel": [1,1],
  "PaddingMode": "kEXPLICIT_ROUND_DOWN",
  "PrePadding": [0,0],
  "PostPadding": [0,0],
  "Stride": [1,1],
  "Dilation": [1,1],
  "OutMaps": 320,
  "Groups": 1,
  "Weights": {"Type": "Float", "Count": 102400},
  "Bias": {"Type": "Float", "Count": 320},
  "HasSparseWeights": 0,
  "HasDynamicFilter": 0,
  "HasDynamicBias": 0,
  "HasResidual": 0,
  "ConvXAsActInputIdx": -1,
  "BiasAsActInputIdx": -1,
  "ResAsActInputIdx": -1,
  "Activation": "NONE",
  "HasBias": 1,
  "HasReLU": 0,
  "TacticName": "sm80_xmma_fprop_implicit_gemm_f32f32_tf32f32_f32_nchwkrsc_nchw_tilesize128x64x16_stage2_warpsize2x2x1_g1_tensor16x8x8_simple_t1r1s1_aligna4_alignc4",
  "TacticValue": "0xe52b0ddb126aa135",
  "StreamId": 0,
  "Metadata": "[ONNX Layer: Conv_462]"
},{
  "Name": "{ForeignNode[Reshape_503 + Transpose_504 + Reshape_512...Reshape_877 + Transpose_878 + Reshape_888]}",
  "LayerType": "Myelin",
  "Inputs": [
  {
    "Name": "tensor.119",
    "Location": "Device",
    "Dimensions": [1,320,32,48],
    "Format/Datatype": "Row major linear FP32"
  },
  {
    "Name": "onnx::MatMul_3",
    "Location": "Device",
    "Dimensions": [1,77,768],
    "Format/Datatype": "Row major linear FP32"
  }],
  "Outputs": [
  {
    "Name": "Reformatted Output Tensor 0 to {ForeignNode[Reshape_503 + Transpose_504 + Reshape_512...Reshape_877 + Transpose_878 + Reshape_888]}",
    "Location": "Device",
    "Dimensions": [1,320,32,48],
    "Format/Datatype": "Row major linear FP32"
  }],
  "TacticValue": "0x0000000000000000",
  "StreamId": 0,
  "Metadata": ""
},{
  "Name": "Reformatting CopyNode for Output Tensor 0 to {ForeignNode[Reshape_503 + Transpose_504 + Reshape_512...Reshape_877 + Transpose_878 + Reshape_888]}",
  "LayerType": "Reformat",
  "Inputs": [
  {
    "Name": "Reformatted Output Tensor 0 to {ForeignNode[Reshape_503 + Transpose_504 + Reshape_512...Reshape_877 + Transpose_878 + Reshape_888]}",
    "Location": "Device",
    "Dimensions": [1,320,32,48],
    "Format/Datatype": "Row major linear FP32"
  }],
  "Outputs": [
  {
    "Name": "onnx::Conv_1415",
    "Location": "Device",
    "Dimensions": [1,320,32,48],
    "Format/Datatype": "Channel major FP32 format where channel % 4 == 0"
  }],
  "ParameterType": "Reformat",
  "Origin": "REFORMAT",
  "TacticValue": "0x0000000000000000",
  "StreamId": 0,
  "Metadata": ""
},{
  "Name": "Reformatting CopyNode for Input Tensor 1 to Conv_889 + Add_890",
  "LayerType": "Reformat",
  "Inputs": [
  {
    "Name": "input.148",
    "Location": "Device",
    "Dimensions": [1,320,32,48],
    "Format/Datatype": "Row major linear FP32"
  }],
  "Outputs": [
  {
    "Name": "Reformatted Input Tensor 1 to Conv_889 + Add_890",
    "Location": "Device",
    "Dimensions": [1,320,32,48],
    "Format/Datatype": "Channel major FP32 format where channel % 4 == 0"
  }],
  "ParameterType": "Reformat",
  "Origin": "REFORMAT",
  "TacticValue": "0x0000000000000000",
  "StreamId": 0,
  "Metadata": ""
},{
  "Name": "Conv_889 + Add_890",
  "LayerType": "CaskGemmConvolution",
  "Inputs": [
  {
    "Name": "onnx::Conv_1415",
    "Location": "Device",
    "Dimensions": [1,320,32,48],
    "Format/Datatype": "Channel major FP32 format where channel % 4 == 0"
  },
  {
    "Name": "Reformatted Input Tensor 1 to Conv_889 + Add_890",
    "Location": "Device",
    "Dimensions": [1,320,32,48],
    "Format/Datatype": "Channel major FP32 format where channel % 4 == 0"
  }],
  "Outputs": [
  {
    "Name": "input.176",
    "Location": "Device",
    "Dimensions": [1,320,32,48],
    "Format/Datatype": "Channel major FP32 format where channel % 4 == 0"
  }],
  "ParameterType": "Convolution",
  "Kernel": [1,1],
  "PaddingMode": "kEXPLICIT_ROUND_DOWN",
  "PrePadding": [0,0],
  "PostPadding": [0,0],
  "Stride": [1,1],
  "Dilation": [1,1],
  "OutMaps": 320,
  "Groups": 1,
  "Weights": {"Type": "Float", "Count": 102400},
  "Bias": {"Type": "Float", "Count": 320},
  "HasSparseWeights": 0,
  "HasDynamicFilter": 0,
  "HasDynamicBias": 0,
  "HasResidual": 1,
  "ConvXAsActInputIdx": -1,
  "BiasAsActInputIdx": -1,
  "ResAsActInputIdx": -1,
  "Activation": "NONE",
  "TacticName": "sm86_xmma_gemm_f32f32_tf32f32_f32_tn_n_tilesize64x128x32_stage4_warpsize2x2x1_tensor16x8x8",
  "TacticValue": "0x00000000000204b3",
  "StreamId": 0,
  "Metadata": "[ONNX Layer: Conv_889]\u001e[ONNX Layer: Add_890]"
},{
  "Name": "Reformatting CopyNode for Input Tensor 0 to Conv_892",
  "LayerType": "NoOp",
  "Inputs": [
  {
    "Name": "input.176",
    "Location": "Device",
    "Dimensions": [1,320,32,48],
    "Format/Datatype": "Channel major FP32 format where channel % 4 == 0"
  }],
  "Outputs": [
  {
    "Name": "Reformatted Input Tensor 0 to Conv_892",
    "Location": "Device",
    "Dimensions": [1,320,32,48],
    "Format/Datatype": "Channel major FP32 format"
  }],
  "TacticValue": "0x0000000000000000",
  "StreamId": 0,
  "Metadata": ""
},{
  "Name": "Conv_892",
  "LayerType": "CaskConvolution",
  "Inputs": [
  {
    "Name": "Reformatted Input Tensor 0 to Conv_892",
    "Location": "Device",
    "Dimensions": [1,320,32,48],
    "Format/Datatype": "Channel major FP32 format"
  }],
  "Outputs": [
  {
    "Name": "input.180",
    "Location": "Device",
    "Dimensions": [1,320,16,24],
    "Format/Datatype": "Channel major FP32 format"
  }],
  "ParameterType": "Convolution",
  "Kernel": [3,3],
  "PaddingMode": "kEXPLICIT_ROUND_DOWN",
  "PrePadding": [1,1],
  "PostPadding": [1,1],
  "Stride": [2,2],
  "Dilation": [1,1],
  "OutMaps": 320,
  "Groups": 1,
  "Weights": {"Type": "Float", "Count": 921600},
  "Bias": {"Type": "Float", "Count": 320},
  "HasSparseWeights": 0,
  "HasDynamicFilter": 0,
  "HasDynamicBias": 0,
  "HasResidual": 0,
  "ConvXAsActInputIdx": -1,
  "BiasAsActInputIdx": -1,
  "ResAsActInputIdx": -1,
  "Activation": "NONE",
  "HasBias": 1,
  "HasReLU": 0,
  "TacticName": "sm80_xmma_fprop_implicit_gemm_f32f32_f32f32_f32_nhwckrsc_nhwc_tilesize32x32x8_stage3_warpsize1x2x1_g1_ffma_t1r3s3_aligna4_alignc4",
  "TacticValue": "0x5953bec563d26434",
  "StreamId": 0,
  "Metadata": "[ONNX Layer: Conv_892]"
},{
  "Name": "Cast_894",
  "LayerType": "NoOp",
  "Inputs": [
  {
    "Name": "input.180",
    "Location": "Device",
    "Dimensions": [1,320,16,24],
    "Format/Datatype": "Channel major FP32 format"
  }],
  "Outputs": [
  {
    "Name": "input.184",
    "Location": "Device",
    "Dimensions": [1,320,16,24],
    "Format/Datatype": "Channel major FP32 format"
  }],
  "TacticValue": "0x0000000000000000",
  "StreamId": 0,
  "Metadata": ""
},{
  "Name": "Reformatting CopyNode for Input Tensor 0 to Reshape_896 + (Unnamed Layer* 1053) [Shuffle]",
  "LayerType": "Reformat",
  "Inputs": [
  {
    "Name": "input.184",
    "Location": "Device",
    "Dimensions": [1,320,16,24],
    "Format/Datatype": "Channel major FP32 format"
  }],
  "Outputs": [
  {
    "Name": "Reformatted Input Tensor 0 to Reshape_896 + (Unnamed Layer* 1053) [Shuffle]",
    "Location": "Device",
    "Dimensions": [1,320,16,24],
    "Format/Datatype": "Row major linear FP32"
  }],
  "ParameterType": "Reformat",
  "Origin": "REFORMAT",
  "TacticValue": "0x0000000000000000",
  "StreamId": 0,
  "Metadata": ""
},{
  "Name": "Reshape_896 + (Unnamed Layer* 1053) [Shuffle]",
  "LayerType": "NoOp",
  "Inputs": [
  {
    "Name": "Reformatted Input Tensor 0 to Reshape_896 + (Unnamed Layer* 1053) [Shuffle]",
    "Location": "Device",
    "Dimensions": [1,320,16,24],
    "Format/Datatype": "Row major linear FP32"
  }],
  "Outputs": [
  {
    "Name": "(Unnamed Layer* 1053) [Shuffle]_output",
    "Location": "Device",
    "Dimensions": [1,32,3840,1],
    "Format/Datatype": "Row major linear FP32"
  }],
  "TacticValue": "0x0000000000000000",
  "StreamId": 0,
  "Metadata": "[ONNX Layer: Reshape_896]\u001e"
},{
  "Name": "InstanceNormalization_899",
  "LayerType": "PluginV2",
  "Inputs": [
  {
    "Name": "(Unnamed Layer* 1053) [Shuffle]_output",
    "Location": "Device",
    "Dimensions": [1,32,3840,1],
    "Format/Datatype": "Row major linear FP32"
  }],
  "Outputs": [
  {
    "Name": "(Unnamed Layer* 1054) [PluginV2DynamicExt]_output",
    "Location": "Device",
    "Dimensions": [1,32,3840,1],
    "Format/Datatype": "Row major linear FP32"
  }],
  "PluginType": "InstanceNormalization_TRT",
  "PluginVersion": "1",
  "TacticValue": "0x0000000000000000",
  "StreamId": 0,
  "Metadata": "[ONNX Layer: InstanceNormalization_899]"
},{
  "Name": "(Unnamed Layer* 1055) [Shuffle] + Reshape_901",
  "LayerType": "NoOp",
  "Inputs": [
  {
    "Name": "(Unnamed Layer* 1054) [PluginV2DynamicExt]_output",
    "Location": "Device",
    "Dimensions": [1,32,3840,1],
    "Format/Datatype": "Row major linear FP32"
  }],
  "Outputs": [
  {
    "Name": "onnx::Mul_1428",
    "Location": "Device",
    "Dimensions": [1,320,16,24],
    "Format/Datatype": "Row major linear FP32"
  }],
  "TacticValue": "0x0000000000000000",
  "StreamId": 0,
  "Metadata": "[ONNX Layer: Reshape_901]"
},{
  "Name": "onnx::Mul_4509 + (Unnamed Layer* 1059) [Shuffle] + Mul_902 + onnx::Add_4510 + (Unnamed Layer* 1062) [Shuffle] + Add_903",
  "LayerType": "Scale",
  "Inputs": [
  {
    "Name": "onnx::Mul_1428",
    "Location": "Device",
    "Dimensions": [1,320,16,24],
    "Format/Datatype": "Row major linear FP32"
  }],
  "Outputs": [
  {
    "Name": "onnx::Cast_1434",
    "Location": "Device",
    "Dimensions": [1,320,16,24],
    "Format/Datatype": "Row major linear FP32"
  }],
  "ParameterType": "Scale",
  "Mode": "CHANNEL",
  "Shift": {"Type": "Float", "Count": 320},
  "Scale": {"Type": "Float", "Count": 320},
  "Power": {"Type": "Float", "Count": 0},
  "Activation": "NONE",
  "ChannelAxis": 1,
  "TacticValue": "0x0000000000000000",
  "StreamId": 0,
  "Metadata": "[ONNX Layer: Mul_902]\u001e[ONNX Layer: Add_903]"
},{
  "Name": "Cast_904",
  "LayerType": "NoOp",
  "Inputs": [
  {
    "Name": "onnx::Cast_1434",
    "Location": "Device",
    "Dimensions": [1,320,16,24],
    "Format/Datatype": "Row major linear FP32"
  }],
  "Outputs": [
  {
    "Name": "input.188",
    "Location": "Device",
    "Dimensions": [1,320,16,24],
    "Format/Datatype": "Row major linear FP32"
  }],
  "TacticValue": "0x0000000000000000",
  "StreamId": 0,
  "Metadata": ""
},{
  "Name": "PWN(PWN(Sigmoid_905), Mul_906)",
  "LayerType": "PointWiseV2",
  "Inputs": [
  {
    "Name": "input.188",
    "Location": "Device",
    "Dimensions": [1,320,16,24],
    "Format/Datatype": "Row major linear FP32"
  }],
  "Outputs": [
  {
    "Name": "input.192",
    "Location": "Device",
    "Dimensions": [1,320,16,24],
    "Format/Datatype": "Row major linear FP32"
  }],
  "ParameterType": "PointWise",
  "ParameterSubType": "PointWiseExpression",
  "NbInputArgs": 1,
  "InputArgs": ["arg0"],
  "NbOutputVars": 1,
  "OutputVars": ["var4"],
  "NbParams": 0,
  "Params": [],
  "NbLiterals": 5,
  "Literals": ["0.000000e+00f", "1.000000e+00f", "0.000000e+00f", "0.000000e+00f", "1.000000e+00f"],
  "NbOperations": 5,
  "Operations": ["auto const var0 = pwgen::iNeg(arg0);", "auto const var1 = pwgen::iExp(var0);", "auto const var2 = pwgen::iPlus(literal4, var1);", "auto const var3 = pwgen::iRcp(var2);", "auto const var4 = pwgen::iMul(arg0, var3);"],
  "TacticValue": "0x0000000000000002",
  "StreamId": 0,
  "Metadata": "[ONNX Layer: Sigmoid_905]\u001e[ONNX Layer: Mul_906]"
},{
  "Name": "Reformatting CopyNode for Input Tensor 0 to Conv_907",
  "LayerType": "NoOp",
  "Inputs": [
  {
    "Name": "input.192",
    "Location": "Device",
    "Dimensions": [1,320,16,24],
    "Format/Datatype": "Row major linear FP32"
  }],
  "Outputs": [
  {
    "Name": "Reformatted Input Tensor 0 to Conv_907",
    "Location": "Device",
    "Dimensions": [1,320,16,24],
    "Format/Datatype": "Row major linear FP32"
  }],
  "TacticValue": "0x0000000000000000",
  "StreamId": 0,
  "Metadata": ""
},{
  "Name": "Conv_907",
  "LayerType": "CaskConvolution",
  "Inputs": [
  {
    "Name": "Reformatted Input Tensor 0 to Conv_907",
    "Location": "Device",
    "Dimensions": [1,320,16,24],
    "Format/Datatype": "Row major linear FP32"
  }],
  "Outputs": [
  {
    "Name": "onnx::Add_1438",
    "Location": "Device",
    "Dimensions": [1,640,16,24],
    "Format/Datatype": "Row major linear FP32"
  }],
  "ParameterType": "Convolution",
  "Kernel": [3,3],
  "PaddingMode": "kEXPLICIT_ROUND_DOWN",
  "PrePadding": [1,1],
  "PostPadding": [1,1],
  "Stride": [1,1],
  "Dilation": [1,1],
  "OutMaps": 640,
  "Groups": 1,
  "Weights": {"Type": "Float", "Count": 1843200},
  "Bias": {"Type": "Float", "Count": 640},
  "HasSparseWeights": 0,
  "HasDynamicFilter": 0,
  "HasDynamicBias": 0,
  "HasResidual": 0,
  "ConvXAsActInputIdx": -1,
  "BiasAsActInputIdx": -1,
  "ResAsActInputIdx": -1,
  "Activation": "NONE",
  "HasBias": 1,
  "HasReLU": 0,
  "TacticName": "ampere_scudnn_winograd_128x128_ldg1_ldg4_relu_tile148t_nt_v1",
  "TacticValue": "0x94119b4c514b211a",
  "StreamId": 0,
  "Metadata": "[ONNX Layer: Conv_907]"
},{
  "Name": "reshape_after_Gemm_910_copy_input",
  "LayerType": "Reformat",
  "Inputs": [
  {
    "Name": "Gemm_1879 || Gemm_2363 || Gemm_2848 || Gemm_2887 || Gemm_2926 || Gemm_3408 || Gemm_910 || Gemm_1394 || Gemm_120 || Gemm_425",
    "Location": "Device",
    "Dimensions": [1,640,1,1],
    "Format/Datatype": "Row major linear FP32"
  }],
  "Outputs": [
  {
    "Name": "reshape_after_Gemm_910_copy_input",
    "Location": "Device",
    "Dimensions": [1,640,1,1],
    "Format/Datatype": "Row major linear FP32"
  }],
  "ParameterType": "Reformat",
  "Origin": "SLICE",
  "TacticValue": "0x00000000000003e8",
  "StreamId": 0,
  "Metadata": "[ONNX Layer: Gemm_910]"
},{
  "Name": "reshape_after_Gemm_910",
  "LayerType": "NoOp",
  "Inputs": [
  {
    "Name": "reshape_after_Gemm_910_copy_input",
    "Location": "Device",
    "Dimensions": [1,640,1,1],
    "Format/Datatype": "Row major linear FP32"
  }],
  "Outputs": [
  {
    "Name": "onnx::Cast_1441",
    "Location": "Device",
    "Dimensions": [1,640],
    "Format/Datatype": "Row major linear FP32"
  }],
  "TacticValue": "0x0000000000000000",
  "StreamId": 0,
  "Metadata": "[ONNX Layer: Gemm_910]"
},{
  "Name": "Cast_911",
  "LayerType": "NoOp",
  "Inputs": [
  {
    "Name": "onnx::Cast_1441",
    "Location": "Device",
    "Dimensions": [1,640],
    "Format/Datatype": "Row major linear FP32"
  }],
  "Outputs": [
  {
    "Name": "onnx::Unsqueeze_1442",
    "Location": "Device",
    "Dimensions": [1,640],
    "Format/Datatype": "Row major linear FP32"
  }],
  "TacticValue": "0x0000000000000000",
  "StreamId": 0,
  "Metadata": ""
},{
  "Name": "Unsqueeze_913 + Unsqueeze_915",
  "LayerType": "NoOp",
  "Inputs": [
  {
    "Name": "onnx::Unsqueeze_1442",
    "Location": "Device",
    "Dimensions": [1,640],
    "Format/Datatype": "Row major linear FP32"
  }],
  "Outputs": [
  {
    "Name": "onnx::Add_1446",
    "Location": "Device",
    "Dimensions": [1,640,1,1],
    "Format/Datatype": "Row major linear FP32"
  }],
  "TacticValue": "0x0000000000000000",
  "StreamId": 0,
  "Metadata": "[ONNX Layer: Unsqueeze_913]\u001e[ONNX Layer: Unsqueeze_915]"
},{
  "Name": "Add_916",
  "LayerType": "ElementWise",
  "Inputs": [
  {
    "Name": "onnx::Add_1438",
    "Location": "Device",
    "Dimensions": [1,640,16,24],
    "Format/Datatype": "Row major linear FP32"
  },
  {
    "Name": "onnx::Add_1446",
    "Location": "Device",
    "Dimensions": [1,640,1,1],
    "Format/Datatype": "Row major linear FP32"
  }],
  "Outputs": [
  {
    "Name": "onnx::Cast_1447",
    "Location": "Device",
    "Dimensions": [1,640,16,24],
    "Format/Datatype": "Row major linear FP32"
  }],
  "ParameterType": "ElementWise",
  "ElementWiseOperation": "SUM",
  "Activation": "NONE",
  "TacticValue": "0x0000000000000001",
  "StreamId": 0,
  "Metadata": "[ONNX Layer: Add_916]"
},{
  "Name": "Cast_917",
  "LayerType": "NoOp",
  "Inputs": [
  {
    "Name": "onnx::Cast_1447",
    "Location": "Device",
    "Dimensions": [1,640,16,24],
    "Format/Datatype": "Row major linear FP32"
  }],
  "Outputs": [
  {
    "Name": "input.196",
    "Location": "Device",
    "Dimensions": [1,640,16,24],
    "Format/Datatype": "Row major linear FP32"
  }],
  "TacticValue": "0x0000000000000000",
  "StreamId": 0,
  "Metadata": ""
},{
  "Name": "Reshape_919 + (Unnamed Layer* 1081) [Shuffle]",
  "LayerType": "NoOp",
  "Inputs": [
  {
    "Name": "input.196",
    "Location": "Device",
    "Dimensions": [1,640,16,24],
    "Format/Datatype": "Row major linear FP32"
  }],
  "Outputs": [
  {
    "Name": "(Unnamed Layer* 1081) [Shuffle]_output",
    "Location": "Device",
    "Dimensions": [1,32,7680,1],
    "Format/Datatype": "Row major linear FP32"
  }],
  "TacticValue": "0x0000000000000000",
  "StreamId": 0,
  "Metadata": "[ONNX Layer: Reshape_919]\u001e"
},{
  "Name": "InstanceNormalization_922",
  "LayerType": "PluginV2",
  "Inputs": [
  {
    "Name": "(Unnamed Layer* 1081) [Shuffle]_output",
    "Location": "Device",
    "Dimensions": [1,32,7680,1],
    "Format/Datatype": "Row major linear FP32"
  }],
  "Outputs": [
  {
    "Name": "(Unnamed Layer* 1082) [PluginV2DynamicExt]_output",
    "Location": "Device",
    "Dimensions": [1,32,7680,1],
    "Format/Datatype": "Row major linear FP32"
  }],
  "PluginType": "InstanceNormalization_TRT",
  "PluginVersion": "1",
  "TacticValue": "0x0000000000000000",
  "StreamId": 0,
  "Metadata": "[ONNX Layer: InstanceNormalization_922]"
},{
  "Name": "(Unnamed Layer* 1083) [Shuffle] + Reshape_924",
  "LayerType": "NoOp",
  "Inputs": [
  {
    "Name": "(Unnamed Layer* 1082) [PluginV2DynamicExt]_output",
    "Location": "Device",
    "Dimensions": [1,32,7680,1],
    "Format/Datatype": "Row major linear FP32"
  }],
  "Outputs": [
  {
    "Name": "onnx::Mul_1455",
    "Location": "Device",
    "Dimensions": [1,640,16,24],
    "Format/Datatype": "Row major linear FP32"
  }],
  "TacticValue": "0x0000000000000000",
  "StreamId": 0,
  "Metadata": "[ONNX Layer: Reshape_924]"
},{
  "Name": "onnx::Mul_4511 + (Unnamed Layer* 1087) [Shuffle] + Mul_925 + onnx::Add_4512 + (Unnamed Layer* 1090) [Shuffle] + Add_926",
  "LayerType": "Scale",
  "Inputs": [
  {
    "Name": "onnx::Mul_1455",
    "Location": "Device",
    "Dimensions": [1,640,16,24],
    "Format/Datatype": "Row major linear FP32"
  }],
  "Outputs": [
  {
    "Name": "onnx::Cast_1461",
    "Location": "Device",
    "Dimensions": [1,640,16,24],
    "Format/Datatype": "Row major linear FP32"
  }],
  "ParameterType": "Scale",
  "Mode": "CHANNEL",
  "Shift": {"Type": "Float", "Count": 640},
  "Scale": {"Type": "Float", "Count": 640},
  "Power": {"Type": "Float", "Count": 0},
  "Activation": "NONE",
  "ChannelAxis": 1,
  "TacticValue": "0x0000000000000000",
  "StreamId": 0,
  "Metadata": "[ONNX Layer: Mul_925]\u001e[ONNX Layer: Add_926]"
},{
  "Name": "Cast_927",
  "LayerType": "NoOp",
  "Inputs": [
  {
    "Name": "onnx::Cast_1461",
    "Location": "Device",
    "Dimensions": [1,640,16,24],
    "Format/Datatype": "Row major linear FP32"
  }],
  "Outputs": [
  {
    "Name": "input.200",
    "Location": "Device",
    "Dimensions": [1,640,16,24],
    "Format/Datatype": "Row major linear FP32"
  }],
  "TacticValue": "0x0000000000000000",
  "StreamId": 0,
  "Metadata": ""
},{
  "Name": "PWN(PWN(Sigmoid_928), Mul_929)",
  "LayerType": "PointWiseV2",
  "Inputs": [
  {
    "Name": "input.200",
    "Location": "Device",
    "Dimensions": [1,640,16,24],
    "Format/Datatype": "Row major linear FP32"
  }],
  "Outputs": [
  {
    "Name": "input.204",
    "Location": "Device",
    "Dimensions": [1,640,16,24],
    "Format/Datatype": "Row major linear FP32"
  }],
  "ParameterType": "PointWise",
  "ParameterSubType": "PointWiseExpression",
  "NbInputArgs": 1,
  "InputArgs": ["arg0"],
  "NbOutputVars": 1,
  "OutputVars": ["var4"],
  "NbParams": 0,
  "Params": [],
  "NbLiterals": 5,
  "Literals": ["0.000000e+00f", "1.000000e+00f", "0.000000e+00f", "0.000000e+00f", "1.000000e+00f"],
  "NbOperations": 5,
  "Operations": ["auto const var0 = pwgen::iNeg(arg0);", "auto const var1 = pwgen::iExp(var0);", "auto const var2 = pwgen::iPlus(literal4, var1);", "auto const var3 = pwgen::iRcp(var2);", "auto const var4 = pwgen::iMul(arg0, var3);"],
  "TacticValue": "0x0000000000000005",
  "StreamId": 0,
  "Metadata": "[ONNX Layer: Sigmoid_928]\u001e[ONNX Layer: Mul_929]"
},{
  "Name": "Reformatting CopyNode for Input Tensor 0 to Conv_930",
  "LayerType": "NoOp",
  "Inputs": [
  {
    "Name": "input.204",
    "Location": "Device",
    "Dimensions": [1,640,16,24],
    "Format/Datatype": "Row major linear FP32"
  }],
  "Outputs": [
  {
    "Name": "Reformatted Input Tensor 0 to Conv_930",
    "Location": "Device",
    "Dimensions": [1,640,16,24],
    "Format/Datatype": "Row major linear FP32"
  }],
  "TacticValue": "0x0000000000000000",
  "StreamId": 0,
  "Metadata": ""
},{
  "Name": "Conv_930",
  "LayerType": "CaskConvolution",
  "Inputs": [
  {
    "Name": "Reformatted Input Tensor 0 to Conv_930",
    "Location": "Device",
    "Dimensions": [1,640,16,24],
    "Format/Datatype": "Row major linear FP32"
  }],
  "Outputs": [
  {
    "Name": "onnx::Add_1465",
    "Location": "Device",
    "Dimensions": [1,640,16,24],
    "Format/Datatype": "Row major linear FP32"
  }],
  "ParameterType": "Convolution",
  "Kernel": [3,3],
  "PaddingMode": "kEXPLICIT_ROUND_DOWN",
  "PrePadding": [1,1],
  "PostPadding": [1,1],
  "Stride": [1,1],
  "Dilation": [1,1],
  "OutMaps": 640,
  "Groups": 1,
  "Weights": {"Type": "Float", "Count": 3686400},
  "Bias": {"Type": "Float", "Count": 640},
  "HasSparseWeights": 0,
  "HasDynamicFilter": 0,
  "HasDynamicBias": 0,
  "HasResidual": 0,
  "ConvXAsActInputIdx": -1,
  "BiasAsActInputIdx": -1,
  "ResAsActInputIdx": -1,
  "Activation": "NONE",
  "HasBias": 1,
  "HasReLU": 0,
  "TacticName": "ampere_scudnn_winograd_128x128_ldg1_ldg4_relu_tile148t_nt_v1",
  "TacticValue": "0x94119b4c514b211a",
  "StreamId": 0,
  "Metadata": "[ONNX Layer: Conv_930]"
},{
  "Name": "Reformatting CopyNode for Input Tensor 0 to Conv_931 + Add_932",
  "LayerType": "NoOp",
  "Inputs": [
  {
    "Name": "input.184",
    "Location": "Device",
    "Dimensions": [1,320,16,24],
    "Format/Datatype": "Channel major FP32 format"
  }],
  "Outputs": [
  {
    "Name": "Reformatted Input Tensor 0 to Conv_931 + Add_932",
    "Location": "Device",
    "Dimensions": [1,320,16,24],
    "Format/Datatype": "Channel major FP32 format where channel % 4 == 0"
  }],
  "TacticValue": "0x0000000000000000",
  "StreamId": 0,
  "Metadata": ""
},{
  "Name": "Reformatting CopyNode for Input Tensor 1 to Conv_931 + Add_932",
  "LayerType": "Reformat",
  "Inputs": [
  {
    "Name": "onnx::Add_1465",
    "Location": "Device",
    "Dimensions": [1,640,16,24],
    "Format/Datatype": "Row major linear FP32"
  }],
  "Outputs": [
  {
    "Name": "Reformatted Input Tensor 1 to Conv_931 + Add_932",
    "Location": "Device",
    "Dimensions": [1,640,16,24],
    "Format/Datatype": "Channel major FP32 format where channel % 4 == 0"
  }],
  "ParameterType": "Reformat",
  "Origin": "REFORMAT",
  "TacticValue": "0x0000000000000000",
  "StreamId": 0,
  "Metadata": ""
},{
  "Name": "Conv_931 + Add_932",
  "LayerType": "CaskGemmConvolution",
  "Inputs": [
  {
    "Name": "Reformatted Input Tensor 0 to Conv_931 + Add_932",
    "Location": "Device",
    "Dimensions": [1,320,16,24],
    "Format/Datatype": "Channel major FP32 format where channel % 4 == 0"
  },
  {
    "Name": "Reformatted Input Tensor 1 to Conv_931 + Add_932",
    "Location": "Device",
    "Dimensions": [1,640,16,24],
    "Format/Datatype": "Channel major FP32 format where channel % 4 == 0"
  }],
  "Outputs": [
  {
    "Name": "input.208",
    "Location": "Device",
    "Dimensions": [1,640,16,24],
    "Format/Datatype": "Channel major FP32 format where channel % 4 == 0"
  }],
  "ParameterType": "Convolution",
  "Kernel": [1,1],
  "PaddingMode": "kEXPLICIT_ROUND_DOWN",
  "PrePadding": [0,0],
  "PostPadding": [0,0],
  "Stride": [1,1],
  "Dilation": [1,1],
  "OutMaps": 640,
  "Groups": 1,
  "Weights": {"Type": "Float", "Count": 204800},
  "Bias": {"Type": "Float", "Count": 640},
  "HasSparseWeights": 0,
  "HasDynamicFilter": 0,
  "HasDynamicBias": 0,
  "HasResidual": 1,
  "ConvXAsActInputIdx": -1,
  "BiasAsActInputIdx": -1,
  "ResAsActInputIdx": -1,
  "Activation": "NONE",
  "TacticName": "sm86_xmma_gemm_f32f32_tf32f32_f32_tn_n_tilesize64x64x64_stage3_warpsize2x2x1_tensor16x8x8",
  "TacticValue": "0x0000000000020338",
  "StreamId": 0,
  "Metadata": "[ONNX Layer: Conv_931]\u001e[ONNX Layer: Add_932]"
},{
  "Name": "Reformatting CopyNode for Input Tensor 0 to Reshape_940 + (Unnamed Layer* 1105) [Shuffle]",
  "LayerType": "Reformat",
  "Inputs": [
  {
    "Name": "input.208",
    "Location": "Device",
    "Dimensions": [1,640,16,24],
    "Format/Datatype": "Channel major FP32 format where channel % 4 == 0"
  }],
  "Outputs": [
  {
    "Name": "Reformatted Input Tensor 0 to Reshape_940 + (Unnamed Layer* 1105) [Shuffle]",
    "Location": "Device",
    "Dimensions": [1,640,16,24],
    "Format/Datatype": "Row major linear FP32"
  }],
  "ParameterType": "Reformat",
  "Origin": "REFORMAT",
  "TacticValue": "0x0000000000000000",
  "StreamId": 0,
  "Metadata": ""
},{
  "Name": "Reshape_940 + (Unnamed Layer* 1105) [Shuffle]",
  "LayerType": "NoOp",
  "Inputs": [
  {
    "Name": "Reformatted Input Tensor 0 to Reshape_940 + (Unnamed Layer* 1105) [Shuffle]",
    "Location": "Device",
    "Dimensions": [1,640,16,24],
    "Format/Datatype": "Row major linear FP32"
  }],
  "Outputs": [
  {
    "Name": "(Unnamed Layer* 1105) [Shuffle]_output",
    "Location": "Device",
    "Dimensions": [1,32,7680,1],
    "Format/Datatype": "Row major linear FP32"
  }],
  "TacticValue": "0x0000000000000000",
  "StreamId": 0,
  "Metadata": "[ONNX Layer: Reshape_940]\u001e"
},{
  "Name": "InstanceNormalization_943",
  "LayerType": "PluginV2",
  "Inputs": [
  {
    "Name": "(Unnamed Layer* 1105) [Shuffle]_output",
    "Location": "Device",
    "Dimensions": [1,32,7680,1],
    "Format/Datatype": "Row major linear FP32"
  }],
  "Outputs": [
  {
    "Name": "(Unnamed Layer* 1106) [PluginV2DynamicExt]_output",
    "Location": "Device",
    "Dimensions": [1,32,7680,1],
    "Format/Datatype": "Row major linear FP32"
  }],
  "PluginType": "InstanceNormalization_TRT",
  "PluginVersion": "1",
  "TacticValue": "0x0000000000000000",
  "StreamId": 0,
  "Metadata": "[ONNX Layer: InstanceNormalization_943]"
},{
  "Name": "(Unnamed Layer* 1107) [Shuffle] + Reshape_945",
  "LayerType": "NoOp",
  "Inputs": [
  {
    "Name": "(Unnamed Layer* 1106) [PluginV2DynamicExt]_output",
    "Location": "Device",
    "Dimensions": [1,32,7680,1],
    "Format/Datatype": "Row major linear FP32"
  }],
  "Outputs": [
  {
    "Name": "onnx::Mul_1480",
    "Location": "Device",
    "Dimensions": [1,640,16,24],
    "Format/Datatype": "Row major linear FP32"
  }],
  "TacticValue": "0x0000000000000000",
  "StreamId": 0,
  "Metadata": "[ONNX Layer: Reshape_945]"
},{
  "Name": "onnx::Mul_4513 + (Unnamed Layer* 1111) [Shuffle] + Mul_946 + onnx::Add_4514 + (Unnamed Layer* 1114) [Shuffle] + Add_947",
  "LayerType": "Scale",
  "Inputs": [
  {
    "Name": "onnx::Mul_1480",
    "Location": "Device",
    "Dimensions": [1,640,16,24],
    "Format/Datatype": "Row major linear FP32"
  }],
  "Outputs": [
  {
    "Name": "input.212",
    "Location": "Device",
    "Dimensions": [1,640,16,24],
    "Format/Datatype": "Row major linear FP32"
  }],
  "ParameterType": "Scale",
  "Mode": "CHANNEL",
  "Shift": {"Type": "Float", "Count": 640},
  "Scale": {"Type": "Float", "Count": 640},
  "Power": {"Type": "Float", "Count": 0},
  "Activation": "NONE",
  "ChannelAxis": 1,
  "TacticValue": "0x0000000000000000",
  "StreamId": 0,
  "Metadata": "[ONNX Layer: Mul_946]\u001e[ONNX Layer: Add_947]"
},{
  "Name": "Reformatting CopyNode for Input Tensor 0 to Conv_948",
  "LayerType": "Reformat",
  "Inputs": [
  {
    "Name": "input.212",
    "Location": "Device",
    "Dimensions": [1,640,16,24],
    "Format/Datatype": "Row major linear FP32"
  }],
  "Outputs": [
  {
    "Name": "Reformatted Input Tensor 0 to Conv_948",
    "Location": "Device",
    "Dimensions": [1,640,16,24],
    "Format/Datatype": "Channel major FP32 format where channel % 4 == 0"
  }],
  "ParameterType": "Reformat",
  "Origin": "REFORMAT",
  "TacticValue": "0x0000000000000000",
  "StreamId": 0,
  "Metadata": ""
},{
  "Name": "Conv_948",
  "LayerType": "CaskGemmConvolution",
  "Inputs": [
  {
    "Name": "Reformatted Input Tensor 0 to Conv_948",
    "Location": "Device",
    "Dimensions": [1,640,16,24],
    "Format/Datatype": "Channel major FP32 format where channel % 4 == 0"
  }],
  "Outputs": [
  {
    "Name": "tensor.239",
    "Location": "Device",
    "Dimensions": [1,640,16,24],
    "Format/Datatype": "Channel major FP32 format where channel % 4 == 0"
  }],
  "ParameterType": "Convolution",
  "Kernel": [1,1],
  "PaddingMode": "kEXPLICIT_ROUND_DOWN",
  "PrePadding": [0,0],
  "PostPadding": [0,0],
  "Stride": [1,1],
  "Dilation": [1,1],
  "OutMaps": 640,
  "Groups": 1,
  "Weights": {"Type": "Float", "Count": 409600},
  "Bias": {"Type": "Float", "Count": 640},
  "HasSparseWeights": 0,
  "HasDynamicFilter": 0,
  "HasDynamicBias": 0,
  "HasResidual": 0,
  "ConvXAsActInputIdx": -1,
  "BiasAsActInputIdx": -1,
  "ResAsActInputIdx": -1,
  "Activation": "NONE",
  "TacticName": "sm86_xmma_gemm_f32f32_tf32f32_f32_tn_n_tilesize64x64x64_stage3_warpsize2x2x1_tensor16x8x8",
  "TacticValue": "0x0000000000020338",
  "StreamId": 0,
  "Metadata": "[ONNX Layer: Conv_948]"
},{
  "Name": "Reformatting CopyNode for Input Tensor 0 to {ForeignNode[Reshape_989 + Transpose_990 + Reshape_998...Reshape_1363 + Transpose_1364 + Reshape_1374]}",
  "LayerType": "Reformat",
  "Inputs": [
  {
    "Name": "tensor.239",
    "Location": "Device",
    "Dimensions": [1,640,16,24],
    "Format/Datatype": "Channel major FP32 format where channel % 4 == 0"
  }],
  "Outputs": [
  {
    "Name": "Reformatted Input Tensor 0 to {ForeignNode[Reshape_989 + Transpose_990 + Reshape_998...Reshape_1363 + Transpose_1364 + Reshape_1374]}",
    "Location": "Device",
    "Dimensions": [1,640,16,24],
    "Format/Datatype": "Row major linear FP32"
  }],
  "ParameterType": "Reformat",
  "Origin": "REFORMAT",
  "TacticValue": "0x0000000000000000",
  "StreamId": 0,
  "Metadata": ""
},{
  "Name": "{ForeignNode[Reshape_989 + Transpose_990 + Reshape_998...Reshape_1363 + Transpose_1364 + Reshape_1374]}",
  "LayerType": "Myelin",
  "Inputs": [
  {
    "Name": "Reformatted Input Tensor 0 to {ForeignNode[Reshape_989 + Transpose_990 + Reshape_998...Reshape_1363 + Transpose_1364 + Reshape_1374]}",
    "Location": "Device",
    "Dimensions": [1,640,16,24],
    "Format/Datatype": "Row major linear FP32"
  },
  {
    "Name": "onnx::MatMul_3",
    "Location": "Device",
    "Dimensions": [1,77,768],
    "Format/Datatype": "Row major linear FP32"
  }],
  "Outputs": [
  {
    "Name": "onnx::Conv_1983",
    "Location": "Device",
    "Dimensions": [1,640,16,24],
    "Format/Datatype": "Row major linear FP32"
  }],
  "TacticValue": "0x0000000000000000",
  "StreamId": 0,
  "Metadata": ""
},{
  "Name": "Reformatting CopyNode for Input Tensor 0 to Conv_1375 + Add_1376",
  "LayerType": "Reformat",
  "Inputs": [
  {
    "Name": "onnx::Conv_1983",
    "Location": "Device",
    "Dimensions": [1,640,16,24],
    "Format/Datatype": "Row major linear FP32"
  }],
  "Outputs": [
  {
    "Name": "Reformatted Input Tensor 0 to Conv_1375 + Add_1376",
    "Location": "Device",
    "Dimensions": [1,640,16,24],
    "Format/Datatype": "Channel major FP32 format where channel % 4 == 0"
  }],
  "ParameterType": "Reformat",
  "Origin": "REFORMAT",
  "TacticValue": "0x0000000000000000",
  "StreamId": 0,
  "Metadata": ""
},{
  "Name": "Conv_1375 + Add_1376",
  "LayerType": "CaskGemmConvolution",
  "Inputs": [
  {
    "Name": "Reformatted Input Tensor 0 to Conv_1375 + Add_1376",
    "Location": "Device",
    "Dimensions": [1,640,16,24],
    "Format/Datatype": "Channel major FP32 format where channel % 4 == 0"
  },
  {
    "Name": "input.208",
    "Location": "Device",
    "Dimensions": [1,640,16,24],
    "Format/Datatype": "Channel major FP32 format where channel % 4 == 0"
  }],
  "Outputs": [
  {
    "Name": "input.236",
    "Location": "Device",
    "Dimensions": [1,640,16,24],
    "Format/Datatype": "Channel major FP32 format where channel % 4 == 0"
  }],
  "ParameterType": "Convolution",
  "Kernel": [1,1],
  "PaddingMode": "kEXPLICIT_ROUND_DOWN",
  "PrePadding": [0,0],
  "PostPadding": [0,0],
  "Stride": [1,1],
  "Dilation": [1,1],
  "OutMaps": 640,
  "Groups": 1,
  "Weights": {"Type": "Float", "Count": 409600},
  "Bias": {"Type": "Float", "Count": 640},
  "HasSparseWeights": 0,
  "HasDynamicFilter": 0,
  "HasDynamicBias": 0,
  "HasResidual": 1,
  "ConvXAsActInputIdx": -1,
  "BiasAsActInputIdx": -1,
  "ResAsActInputIdx": -1,
  "Activation": "NONE",
  "TacticName": "sm86_xmma_gemm_f32f32_tf32f32_f32_tn_n_tilesize64x64x64_stage3_warpsize2x2x1_tensor16x8x8",
  "TacticValue": "0x0000000000020338",
  "StreamId": 0,
  "Metadata": "[ONNX Layer: Conv_1375]\u001e[ONNX Layer: Add_1376]"
},{
  "Name": "Cast_1378",
  "LayerType": "MyelinReformat",
  "Inputs": [
  {
    "Name": "input.236",
    "Location": "Device",
    "Dimensions": [1,640,16,24],
    "Format/Datatype": "Channel major FP32 format where channel % 4 == 0"
  }],
  "Outputs": [
  {
    "Name": "input.240",
    "Location": "Device",
    "Dimensions": [1,640,16,24],
    "Format/Datatype": "Row major linear FP32"
  }],
  "TacticValue": "0x0000000000000000",
  "StreamId": 0,
  "Metadata": ""
},{
  "Name": "Reshape_1380 + (Unnamed Layer* 1592) [Shuffle]",
  "LayerType": "NoOp",
  "Inputs": [
  {
    "Name": "input.240",
    "Location": "Device",
    "Dimensions": [1,640,16,24],
    "Format/Datatype": "Row major linear FP32"
  }],
  "Outputs": [
  {
    "Name": "(Unnamed Layer* 1592) [Shuffle]_output",
    "Location": "Device",
    "Dimensions": [1,32,7680,1],
    "Format/Datatype": "Row major linear FP32"
  }],
  "TacticValue": "0x0000000000000000",
  "StreamId": 0,
  "Metadata": "[ONNX Layer: Reshape_1380]\u001e"
},{
  "Name": "InstanceNormalization_1383",
  "LayerType": "PluginV2",
  "Inputs": [
  {
    "Name": "(Unnamed Layer* 1592) [Shuffle]_output",
    "Location": "Device",
    "Dimensions": [1,32,7680,1],
    "Format/Datatype": "Row major linear FP32"
  }],
  "Outputs": [
  {
    "Name": "(Unnamed Layer* 1593) [PluginV2DynamicExt]_output",
    "Location": "Device",
    "Dimensions": [1,32,7680,1],
    "Format/Datatype": "Row major linear FP32"
  }],
  "PluginType": "InstanceNormalization_TRT",
  "PluginVersion": "1",
  "TacticValue": "0x0000000000000000",
  "StreamId": 0,
  "Metadata": "[ONNX Layer: InstanceNormalization_1383]"
},{
  "Name": "(Unnamed Layer* 1594) [Shuffle] + Reshape_1385",
  "LayerType": "NoOp",
  "Inputs": [
  {
    "Name": "(Unnamed Layer* 1593) [PluginV2DynamicExt]_output",
    "Location": "Device",
    "Dimensions": [1,32,7680,1],
    "Format/Datatype": "Row major linear FP32"
  }],
  "Outputs": [
  {
    "Name": "onnx::Mul_1994",
    "Location": "Device",
    "Dimensions": [1,640,16,24],
    "Format/Datatype": "Row major linear FP32"
  }],
  "TacticValue": "0x0000000000000000",
  "StreamId": 0,
  "Metadata": "[ONNX Layer: Reshape_1385]"
},{
  "Name": "onnx::Mul_4549 + (Unnamed Layer* 1598) [Shuffle] + Mul_1386 + onnx::Add_4550 + (Unnamed Layer* 1601) [Shuffle] + Add_1387",
  "LayerType": "Scale",
  "Inputs": [
  {
    "Name": "onnx::Mul_1994",
    "Location": "Device",
    "Dimensions": [1,640,16,24],
    "Format/Datatype": "Row major linear FP32"
  }],
  "Outputs": [
  {
    "Name": "onnx::Cast_2000",
    "Location": "Device",
    "Dimensions": [1,640,16,24],
    "Format/Datatype": "Row major linear FP32"
  }],
  "ParameterType": "Scale",
  "Mode": "CHANNEL",
  "Shift": {"Type": "Float", "Count": 640},
  "Scale": {"Type": "Float", "Count": 640},
  "Power": {"Type": "Float", "Count": 0},
  "Activation": "NONE",
  "ChannelAxis": 1,
  "TacticValue": "0x0000000000000000",
  "StreamId": 0,
  "Metadata": "[ONNX Layer: Mul_1386]\u001e[ONNX Layer: Add_1387]"
},{
  "Name": "Cast_1388",
  "LayerType": "NoOp",
  "Inputs": [
  {
    "Name": "onnx::Cast_2000",
    "Location": "Device",
    "Dimensions": [1,640,16,24],
    "Format/Datatype": "Row major linear FP32"
  }],
  "Outputs": [
  {
    "Name": "input.244",
    "Location": "Device",
    "Dimensions": [1,640,16,24],
    "Format/Datatype": "Row major linear FP32"
  }],
  "TacticValue": "0x0000000000000000",
  "StreamId": 0,
  "Metadata": ""
},{
  "Name": "PWN(PWN(Sigmoid_1389), Mul_1390)",
  "LayerType": "PointWiseV2",
  "Inputs": [
  {
    "Name": "input.244",
    "Location": "Device",
    "Dimensions": [1,640,16,24],
    "Format/Datatype": "Row major linear FP32"
  }],
  "Outputs": [
  {
    "Name": "input.248",
    "Location": "Device",
    "Dimensions": [1,640,16,24],
    "Format/Datatype": "Row major linear FP32"
  }],
  "ParameterType": "PointWise",
  "ParameterSubType": "PointWiseExpression",
  "NbInputArgs": 1,
  "InputArgs": ["arg0"],
  "NbOutputVars": 1,
  "OutputVars": ["var4"],
  "NbParams": 0,
  "Params": [],
  "NbLiterals": 5,
  "Literals": ["0.000000e+00f", "1.000000e+00f", "0.000000e+00f", "0.000000e+00f", "1.000000e+00f"],
  "NbOperations": 5,
  "Operations": ["auto const var0 = pwgen::iNeg(arg0);", "auto const var1 = pwgen::iExp(var0);", "auto const var2 = pwgen::iPlus(literal4, var1);", "auto const var3 = pwgen::iRcp(var2);", "auto const var4 = pwgen::iMul(arg0, var3);"],
  "TacticValue": "0x0000000000000005",
  "StreamId": 0,
  "Metadata": "[ONNX Layer: Sigmoid_1389]\u001e[ONNX Layer: Mul_1390]"
},{
  "Name": "Reformatting CopyNode for Input Tensor 0 to Conv_1391",
  "LayerType": "NoOp",
  "Inputs": [
  {
    "Name": "input.248",
    "Location": "Device",
    "Dimensions": [1,640,16,24],
    "Format/Datatype": "Row major linear FP32"
  }],
  "Outputs": [
  {
    "Name": "Reformatted Input Tensor 0 to Conv_1391",
    "Location": "Device",
    "Dimensions": [1,640,16,24],
    "Format/Datatype": "Row major linear FP32"
  }],
  "TacticValue": "0x0000000000000000",
  "StreamId": 0,
  "Metadata": ""
},{
  "Name": "Conv_1391",
  "LayerType": "CaskConvolution",
  "Inputs": [
  {
    "Name": "Reformatted Input Tensor 0 to Conv_1391",
    "Location": "Device",
    "Dimensions": [1,640,16,24],
    "Format/Datatype": "Row major linear FP32"
  }],
  "Outputs": [
  {
    "Name": "onnx::Add_2004",
    "Location": "Device",
    "Dimensions": [1,640,16,24],
    "Format/Datatype": "Row major linear FP32"
  }],
  "ParameterType": "Convolution",
  "Kernel": [3,3],
  "PaddingMode": "kEXPLICIT_ROUND_DOWN",
  "PrePadding": [1,1],
  "PostPadding": [1,1],
  "Stride": [1,1],
  "Dilation": [1,1],
  "OutMaps": 640,
  "Groups": 1,
  "Weights": {"Type": "Float", "Count": 3686400},
  "Bias": {"Type": "Float", "Count": 640},
  "HasSparseWeights": 0,
  "HasDynamicFilter": 0,
  "HasDynamicBias": 0,
  "HasResidual": 0,
  "ConvXAsActInputIdx": -1,
  "BiasAsActInputIdx": -1,
  "ResAsActInputIdx": -1,
  "Activation": "NONE",
  "HasBias": 1,
  "HasReLU": 0,
  "TacticName": "ampere_scudnn_winograd_128x128_ldg1_ldg4_relu_tile148t_nt_v1",
  "TacticValue": "0x94119b4c514b211a",
  "StreamId": 0,
  "Metadata": "[ONNX Layer: Conv_1391]"
},{
  "Name": "reshape_after_Gemm_1394_copy_input",
  "LayerType": "Reformat",
  "Inputs": [
  {
    "Name": "Gemm_1879 || Gemm_2363 || Gemm_2848 || Gemm_2887 || Gemm_2926 || Gemm_3408 || Gemm_910 || Gemm_1394 || Gemm_120 || Gemm_425",
    "Location": "Device",
    "Dimensions": [1,640,1,1],
    "Format/Datatype": "Row major linear FP32"
  }],
  "Outputs": [
  {
    "Name": "reshape_after_Gemm_1394_copy_input",
    "Location": "Device",
    "Dimensions": [1,640,1,1],
    "Format/Datatype": "Row major linear FP32"
  }],
  "ParameterType": "Reformat",
  "Origin": "SLICE",
  "TacticValue": "0x00000000000003e8",
  "StreamId": 0,
  "Metadata": "[ONNX Layer: Gemm_1394]"
},{
  "Name": "reshape_after_Gemm_1394",
  "LayerType": "NoOp",
  "Inputs": [
  {
    "Name": "reshape_after_Gemm_1394_copy_input",
    "Location": "Device",
    "Dimensions": [1,640,1,1],
    "Format/Datatype": "Row major linear FP32"
  }],
  "Outputs": [
  {
    "Name": "onnx::Cast_2007",
    "Location": "Device",
    "Dimensions": [1,640],
    "Format/Datatype": "Row major linear FP32"
  }],
  "TacticValue": "0x0000000000000000",
  "StreamId": 0,
  "Metadata": "[ONNX Layer: Gemm_1394]"
},{
  "Name": "Cast_1395",
  "LayerType": "NoOp",
  "Inputs": [
  {
    "Name": "onnx::Cast_2007",
    "Location": "Device",
    "Dimensions": [1,640],
    "Format/Datatype": "Row major linear FP32"
  }],
  "Outputs": [
  {
    "Name": "onnx::Unsqueeze_2008",
    "Location": "Device",
    "Dimensions": [1,640],
    "Format/Datatype": "Row major linear FP32"
  }],
  "TacticValue": "0x0000000000000000",
  "StreamId": 0,
  "Metadata": ""
},{
  "Name": "Unsqueeze_1397 + Unsqueeze_1399",
  "LayerType": "NoOp",
  "Inputs": [
  {
    "Name": "onnx::Unsqueeze_2008",
    "Location": "Device",
    "Dimensions": [1,640],
    "Format/Datatype": "Row major linear FP32"
  }],
  "Outputs": [
  {
    "Name": "onnx::Add_2012",
    "Location": "Device",
    "Dimensions": [1,640,1,1],
    "Format/Datatype": "Row major linear FP32"
  }],
  "TacticValue": "0x0000000000000000",
  "StreamId": 0,
  "Metadata": "[ONNX Layer: Unsqueeze_1397]\u001e[ONNX Layer: Unsqueeze_1399]"
},{
  "Name": "Add_1400",
  "LayerType": "ElementWise",
  "Inputs": [
  {
    "Name": "onnx::Add_2004",
    "Location": "Device",
    "Dimensions": [1,640,16,24],
    "Format/Datatype": "Row major linear FP32"
  },
  {
    "Name": "onnx::Add_2012",
    "Location": "Device",
    "Dimensions": [1,640,1,1],
    "Format/Datatype": "Row major linear FP32"
  }],
  "Outputs": [
  {
    "Name": "onnx::Cast_2013",
    "Location": "Device",
    "Dimensions": [1,640,16,24],
    "Format/Datatype": "Row major linear FP32"
  }],
  "ParameterType": "ElementWise",
  "ElementWiseOperation": "SUM",
  "Activation": "NONE",
  "TacticValue": "0x0000000000000001",
  "StreamId": 0,
  "Metadata": "[ONNX Layer: Add_1400]"
},{
  "Name": "Cast_1401",
  "LayerType": "NoOp",
  "Inputs": [
  {
    "Name": "onnx::Cast_2013",
    "Location": "Device",
    "Dimensions": [1,640,16,24],
    "Format/Datatype": "Row major linear FP32"
  }],
  "Outputs": [
  {
    "Name": "input.252",
    "Location": "Device",
    "Dimensions": [1,640,16,24],
    "Format/Datatype": "Row major linear FP32"
  }],
  "TacticValue": "0x0000000000000000",
  "StreamId": 0,
  "Metadata": ""
},{
  "Name": "Reshape_1403 + (Unnamed Layer* 1620) [Shuffle]",
  "LayerType": "NoOp",
  "Inputs": [
  {
    "Name": "input.252",
    "Location": "Device",
    "Dimensions": [1,640,16,24],
    "Format/Datatype": "Row major linear FP32"
  }],
  "Outputs": [
  {
    "Name": "(Unnamed Layer* 1620) [Shuffle]_output",
    "Location": "Device",
    "Dimensions": [1,32,7680,1],
    "Format/Datatype": "Row major linear FP32"
  }],
  "TacticValue": "0x0000000000000000",
  "StreamId": 0,
  "Metadata": "[ONNX Layer: Reshape_1403]\u001e"
},{
  "Name": "InstanceNormalization_1406",
  "LayerType": "PluginV2",
  "Inputs": [
  {
    "Name": "(Unnamed Layer* 1620) [Shuffle]_output",
    "Location": "Device",
    "Dimensions": [1,32,7680,1],
    "Format/Datatype": "Row major linear FP32"
  }],
  "Outputs": [
  {
    "Name": "(Unnamed Layer* 1621) [PluginV2DynamicExt]_output",
    "Location": "Device",
    "Dimensions": [1,32,7680,1],
    "Format/Datatype": "Row major linear FP32"
  }],
  "PluginType": "InstanceNormalization_TRT",
  "PluginVersion": "1",
  "TacticValue": "0x0000000000000000",
  "StreamId": 0,
  "Metadata": "[ONNX Layer: InstanceNormalization_1406]"
},{
  "Name": "(Unnamed Layer* 1622) [Shuffle] + Reshape_1408",
  "LayerType": "NoOp",
  "Inputs": [
  {
    "Name": "(Unnamed Layer* 1621) [PluginV2DynamicExt]_output",
    "Location": "Device",
    "Dimensions": [1,32,7680,1],
    "Format/Datatype": "Row major linear FP32"
  }],
  "Outputs": [
  {
    "Name": "onnx::Mul_2021",
    "Location": "Device",
    "Dimensions": [1,640,16,24],
    "Format/Datatype": "Row major linear FP32"
  }],
  "TacticValue": "0x0000000000000000",
  "StreamId": 0,
  "Metadata": "[ONNX Layer: Reshape_1408]"
},{
  "Name": "onnx::Mul_4551 + (Unnamed Layer* 1626) [Shuffle] + Mul_1409 + onnx::Add_4552 + (Unnamed Layer* 1629) [Shuffle] + Add_1410",
  "LayerType": "Scale",
  "Inputs": [
  {
    "Name": "onnx::Mul_2021",
    "Location": "Device",
    "Dimensions": [1,640,16,24],
    "Format/Datatype": "Row major linear FP32"
  }],
  "Outputs": [
  {
    "Name": "onnx::Cast_2027",
    "Location": "Device",
    "Dimensions": [1,640,16,24],
    "Format/Datatype": "Row major linear FP32"
  }],
  "ParameterType": "Scale",
  "Mode": "CHANNEL",
  "Shift": {"Type": "Float", "Count": 640},
  "Scale": {"Type": "Float", "Count": 640},
  "Power": {"Type": "Float", "Count": 0},
  "Activation": "NONE",
  "ChannelAxis": 1,
  "TacticValue": "0x0000000000000000",
  "StreamId": 0,
  "Metadata": "[ONNX Layer: Mul_1409]\u001e[ONNX Layer: Add_1410]"
},{
  "Name": "Cast_1411",
  "LayerType": "NoOp",
  "Inputs": [
  {
    "Name": "onnx::Cast_2027",
    "Location": "Device",
    "Dimensions": [1,640,16,24],
    "Format/Datatype": "Row major linear FP32"
  }],
  "Outputs": [
  {
    "Name": "input.256",
    "Location": "Device",
    "Dimensions": [1,640,16,24],
    "Format/Datatype": "Row major linear FP32"
  }],
  "TacticValue": "0x0000000000000000",
  "StreamId": 0,
  "Metadata": ""
},{
  "Name": "PWN(PWN(Sigmoid_1412), Mul_1413)",
  "LayerType": "PointWiseV2",
  "Inputs": [
  {
    "Name": "input.256",
    "Location": "Device",
    "Dimensions": [1,640,16,24],
    "Format/Datatype": "Row major linear FP32"
  }],
  "Outputs": [
  {
    "Name": "input.260",
    "Location": "Device",
    "Dimensions": [1,640,16,24],
    "Format/Datatype": "Row major linear FP32"
  }],
  "ParameterType": "PointWise",
  "ParameterSubType": "PointWiseExpression",
  "NbInputArgs": 1,
  "InputArgs": ["arg0"],
  "NbOutputVars": 1,
  "OutputVars": ["var4"],
  "NbParams": 0,
  "Params": [],
  "NbLiterals": 5,
  "Literals": ["0.000000e+00f", "1.000000e+00f", "0.000000e+00f", "0.000000e+00f", "1.000000e+00f"],
  "NbOperations": 5,
  "Operations": ["auto const var0 = pwgen::iNeg(arg0);", "auto const var1 = pwgen::iExp(var0);", "auto const var2 = pwgen::iPlus(literal4, var1);", "auto const var3 = pwgen::iRcp(var2);", "auto const var4 = pwgen::iMul(arg0, var3);"],
  "TacticValue": "0x0000000000000005",
  "StreamId": 0,
  "Metadata": "[ONNX Layer: Sigmoid_1412]\u001e[ONNX Layer: Mul_1413]"
},{
  "Name": "Reformatting CopyNode for Input Tensor 0 to Conv_1414 + Add_1415",
  "LayerType": "NoOp",
  "Inputs": [
  {
    "Name": "input.260",
    "Location": "Device",
    "Dimensions": [1,640,16,24],
    "Format/Datatype": "Row major linear FP32"
  }],
  "Outputs": [
  {
    "Name": "Reformatted Input Tensor 0 to Conv_1414 + Add_1415",
    "Location": "Device",
    "Dimensions": [1,640,16,24],
    "Format/Datatype": "Row major linear FP32"
  }],
  "TacticValue": "0x0000000000000000",
  "StreamId": 0,
  "Metadata": ""
},{
  "Name": "Conv_1414 + Add_1415",
  "LayerType": "CaskConvolution",
  "Inputs": [
  {
    "Name": "Reformatted Input Tensor 0 to Conv_1414 + Add_1415",
    "Location": "Device",
    "Dimensions": [1,640,16,24],
    "Format/Datatype": "Row major linear FP32"
  },
  {
    "Name": "input.240",
    "Location": "Device",
    "Dimensions": [1,640,16,24],
    "Format/Datatype": "Row major linear FP32"
  }],
  "Outputs": [
  {
    "Name": "input.264",
    "Location": "Device",
    "Dimensions": [1,640,16,24],
    "Format/Datatype": "Row major linear FP32"
  }],
  "ParameterType": "Convolution",
  "Kernel": [3,3],
  "PaddingMode": "kEXPLICIT_ROUND_DOWN",
  "PrePadding": [1,1],
  "PostPadding": [1,1],
  "Stride": [1,1],
  "Dilation": [1,1],
  "OutMaps": 640,
  "Groups": 1,
  "Weights": {"Type": "Float", "Count": 3686400},
  "Bias": {"Type": "Float", "Count": 640},
  "HasSparseWeights": 0,
  "HasDynamicFilter": 0,
  "HasDynamicBias": 0,
  "HasResidual": 1,
  "ConvXAsActInputIdx": -1,
  "BiasAsActInputIdx": -1,
  "ResAsActInputIdx": -1,
  "Activation": "NONE",
  "HasBias": 1,
  "HasReLU": 0,
  "TacticName": "ampere_scudnn_winograd_128x128_ldg1_ldg4_relu_tile148t_nt_v1",
  "TacticValue": "0x94119b4c514b211a",
  "StreamId": 0,
  "Metadata": "[ONNX Layer: Conv_1414]\u001e[ONNX Layer: Add_1415]"
},{
  "Name": "Reshape_1423 + (Unnamed Layer* 1643) [Shuffle]",
  "LayerType": "NoOp",
  "Inputs": [
  {
    "Name": "input.264",
    "Location": "Device",
    "Dimensions": [1,640,16,24],
    "Format/Datatype": "Row major linear FP32"
  }],
  "Outputs": [
  {
    "Name": "(Unnamed Layer* 1643) [Shuffle]_output",
    "Location": "Device",
    "Dimensions": [1,32,7680,1],
    "Format/Datatype": "Row major linear FP32"
  }],
  "TacticValue": "0x0000000000000000",
  "StreamId": 0,
  "Metadata": "[ONNX Layer: Reshape_1423]\u001e"
},{
  "Name": "InstanceNormalization_1426",
  "LayerType": "PluginV2",
  "Inputs": [
  {
    "Name": "(Unnamed Layer* 1643) [Shuffle]_output",
    "Location": "Device",
    "Dimensions": [1,32,7680,1],
    "Format/Datatype": "Row major linear FP32"
  }],
  "Outputs": [
  {
    "Name": "(Unnamed Layer* 1644) [PluginV2DynamicExt]_output",
    "Location": "Device",
    "Dimensions": [1,32,7680,1],
    "Format/Datatype": "Row major linear FP32"
  }],
  "PluginType": "InstanceNormalization_TRT",
  "PluginVersion": "1",
  "TacticValue": "0x0000000000000000",
  "StreamId": 0,
  "Metadata": "[ONNX Layer: InstanceNormalization_1426]"
},{
  "Name": "(Unnamed Layer* 1645) [Shuffle] + Reshape_1428",
  "LayerType": "NoOp",
  "Inputs": [
  {
    "Name": "(Unnamed Layer* 1644) [PluginV2DynamicExt]_output",
    "Location": "Device",
    "Dimensions": [1,32,7680,1],
    "Format/Datatype": "Row major linear FP32"
  }],
  "Outputs": [
  {
    "Name": "onnx::Mul_2045",
    "Location": "Device",
    "Dimensions": [1,640,16,24],
    "Format/Datatype": "Row major linear FP32"
  }],
  "TacticValue": "0x0000000000000000",
  "StreamId": 0,
  "Metadata": "[ONNX Layer: Reshape_1428]"
},{
  "Name": "onnx::Mul_4553 + (Unnamed Layer* 1649) [Shuffle] + Mul_1429 + onnx::Add_4554 + (Unnamed Layer* 1652) [Shuffle] + Add_1430",
  "LayerType": "Scale",
  "Inputs": [
  {
    "Name": "onnx::Mul_2045",
    "Location": "Device",
    "Dimensions": [1,640,16,24],
    "Format/Datatype": "Row major linear FP32"
  }],
  "Outputs": [
  {
    "Name": "input.268",
    "Location": "Device",
    "Dimensions": [1,640,16,24],
    "Format/Datatype": "Row major linear FP32"
  }],
  "ParameterType": "Scale",
  "Mode": "CHANNEL",
  "Shift": {"Type": "Float", "Count": 640},
  "Scale": {"Type": "Float", "Count": 640},
  "Power": {"Type": "Float", "Count": 0},
  "Activation": "NONE",
  "ChannelAxis": 1,
  "TacticValue": "0x0000000000000000",
  "StreamId": 0,
  "Metadata": "[ONNX Layer: Mul_1429]\u001e[ONNX Layer: Add_1430]"
},{
  "Name": "Reformatting CopyNode for Input Tensor 0 to Conv_1431",
  "LayerType": "Reformat",
  "Inputs": [
  {
    "Name": "input.268",
    "Location": "Device",
    "Dimensions": [1,640,16,24],
    "Format/Datatype": "Row major linear FP32"
  }],
  "Outputs": [
  {
    "Name": "Reformatted Input Tensor 0 to Conv_1431",
    "Location": "Device",
    "Dimensions": [1,640,16,24],
    "Format/Datatype": "Channel major FP32 format where channel % 4 == 0"
  }],
  "ParameterType": "Reformat",
  "Origin": "REFORMAT",
  "TacticValue": "0x0000000000000000",
  "StreamId": 0,
  "Metadata": ""
},{
  "Name": "Conv_1431",
  "LayerType": "CaskGemmConvolution",
  "Inputs": [
  {
    "Name": "Reformatted Input Tensor 0 to Conv_1431",
    "Location": "Device",
    "Dimensions": [1,640,16,24],
    "Format/Datatype": "Channel major FP32 format where channel % 4 == 0"
  }],
  "Outputs": [
  {
    "Name": "tensor.359",
    "Location": "Device",
    "Dimensions": [1,640,16,24],
    "Format/Datatype": "Channel major FP32 format where channel % 4 == 0"
  }],
  "ParameterType": "Convolution",
  "Kernel": [1,1],
  "PaddingMode": "kEXPLICIT_ROUND_DOWN",
  "PrePadding": [0,0],
  "PostPadding": [0,0],
  "Stride": [1,1],
  "Dilation": [1,1],
  "OutMaps": 640,
  "Groups": 1,
  "Weights": {"Type": "Float", "Count": 409600},
  "Bias": {"Type": "Float", "Count": 640},
  "HasSparseWeights": 0,
  "HasDynamicFilter": 0,
  "HasDynamicBias": 0,
  "HasResidual": 0,
  "ConvXAsActInputIdx": -1,
  "BiasAsActInputIdx": -1,
  "ResAsActInputIdx": -1,
  "Activation": "NONE",
  "TacticName": "sm86_xmma_gemm_f32f32_tf32f32_f32_tn_n_tilesize64x64x64_stage3_warpsize2x2x1_tensor16x8x8",
  "TacticValue": "0x0000000000020338",
  "StreamId": 0,
  "Metadata": "[ONNX Layer: Conv_1431]"
},{
  "Name": "Reformatting CopyNode for Input Tensor 0 to {ForeignNode[Reshape_1472 + Transpose_1473 + Reshape_1481...Reshape_1846 + Transpose_1847 + Reshape_1857]}",
  "LayerType": "Reformat",
  "Inputs": [
  {
    "Name": "tensor.359",
    "Location": "Device",
    "Dimensions": [1,640,16,24],
    "Format/Datatype": "Channel major FP32 format where channel % 4 == 0"
  }],
  "Outputs": [
  {
    "Name": "Reformatted Input Tensor 0 to {ForeignNode[Reshape_1472 + Transpose_1473 + Reshape_1481...Reshape_1846 + Transpose_1847 + Reshape_1857]}",
    "Location": "Device",
    "Dimensions": [1,640,16,24],
    "Format/Datatype": "Row major linear FP32"
  }],
  "ParameterType": "Reformat",
  "Origin": "REFORMAT",
  "TacticValue": "0x0000000000000000",
  "StreamId": 0,
  "Metadata": ""
},{
  "Name": "{ForeignNode[Reshape_1472 + Transpose_1473 + Reshape_1481...Reshape_1846 + Transpose_1847 + Reshape_1857]}",
  "LayerType": "Myelin",
  "Inputs": [
  {
    "Name": "Reformatted Input Tensor 0 to {ForeignNode[Reshape_1472 + Transpose_1473 + Reshape_1481...Reshape_1846 + Transpose_1847 + Reshape_1857]}",
    "Location": "Device",
    "Dimensions": [1,640,16,24],
    "Format/Datatype": "Row major linear FP32"
  },
  {
    "Name": "onnx::MatMul_3",
    "Location": "Device",
    "Dimensions": [1,77,768],
    "Format/Datatype": "Row major linear FP32"
  }],
  "Outputs": [
  {
    "Name": "onnx::Conv_2548",
    "Location": "Device",
    "Dimensions": [1,640,16,24],
    "Format/Datatype": "Row major linear FP32"
  }],
  "TacticValue": "0x0000000000000000",
  "StreamId": 0,
  "Metadata": ""
},{
  "Name": "Reformatting CopyNode for Input Tensor 0 to Conv_1858 + Add_1859",
  "LayerType": "Reformat",
  "Inputs": [
  {
    "Name": "onnx::Conv_2548",
    "Location": "Device",
    "Dimensions": [1,640,16,24],
    "Format/Datatype": "Row major linear FP32"
  }],
  "Outputs": [
  {
    "Name": "Reformatted Input Tensor 0 to Conv_1858 + Add_1859",
    "Location": "Device",
    "Dimensions": [1,640,16,24],
    "Format/Datatype": "Channel major FP32 format where channel % 4 == 0"
  }],
  "ParameterType": "Reformat",
  "Origin": "REFORMAT",
  "TacticValue": "0x0000000000000000",
  "StreamId": 0,
  "Metadata": ""
},{
  "Name": "Reformatting CopyNode for Input Tensor 1 to Conv_1858 + Add_1859",
  "LayerType": "Reformat",
  "Inputs": [
  {
    "Name": "input.264",
    "Location": "Device",
    "Dimensions": [1,640,16,24],
    "Format/Datatype": "Row major linear FP32"
  }],
  "Outputs": [
  {
    "Name": "Reformatted Input Tensor 1 to Conv_1858 + Add_1859",
    "Location": "Device",
    "Dimensions": [1,640,16,24],
    "Format/Datatype": "Channel major FP32 format where channel % 4 == 0"
  }],
  "ParameterType": "Reformat",
  "Origin": "REFORMAT",
  "TacticValue": "0x0000000000000000",
  "StreamId": 0,
  "Metadata": ""
},{
  "Name": "Conv_1858 + Add_1859",
  "LayerType": "CaskGemmConvolution",
  "Inputs": [
  {
    "Name": "Reformatted Input Tensor 0 to Conv_1858 + Add_1859",
    "Location": "Device",
    "Dimensions": [1,640,16,24],
    "Format/Datatype": "Channel major FP32 format where channel % 4 == 0"
  },
  {
    "Name": "Reformatted Input Tensor 1 to Conv_1858 + Add_1859",
    "Location": "Device",
    "Dimensions": [1,640,16,24],
    "Format/Datatype": "Channel major FP32 format where channel % 4 == 0"
  }],
  "Outputs": [
  {
    "Name": "input.292",
    "Location": "Device",
    "Dimensions": [1,640,16,24],
    "Format/Datatype": "Channel major FP32 format where channel % 4 == 0"
  }],
  "ParameterType": "Convolution",
  "Kernel": [1,1],
  "PaddingMode": "kEXPLICIT_ROUND_DOWN",
  "PrePadding": [0,0],
  "PostPadding": [0,0],
  "Stride": [1,1],
  "Dilation": [1,1],
  "OutMaps": 640,
  "Groups": 1,
  "Weights": {"Type": "Float", "Count": 409600},
  "Bias": {"Type": "Float", "Count": 640},
  "HasSparseWeights": 0,
  "HasDynamicFilter": 0,
  "HasDynamicBias": 0,
  "HasResidual": 1,
  "ConvXAsActInputIdx": -1,
  "BiasAsActInputIdx": -1,
  "ResAsActInputIdx": -1,
  "Activation": "NONE",
  "TacticName": "sm86_xmma_gemm_f32f32_tf32f32_f32_tn_n_tilesize64x64x64_stage3_warpsize2x2x1_tensor16x8x8",
  "TacticValue": "0x0000000000020338",
  "StreamId": 0,
  "Metadata": "[ONNX Layer: Conv_1858]\u001e[ONNX Layer: Add_1859]"
},{
  "Name": "Reformatting CopyNode for Input Tensor 0 to Conv_1861",
  "LayerType": "NoOp",
  "Inputs": [
  {
    "Name": "input.292",
    "Location": "Device",
    "Dimensions": [1,640,16,24],
    "Format/Datatype": "Channel major FP32 format where channel % 4 == 0"
  }],
  "Outputs": [
  {
    "Name": "Reformatted Input Tensor 0 to Conv_1861",
    "Location": "Device",
    "Dimensions": [1,640,16,24],
    "Format/Datatype": "Channel major FP32 format"
  }],
  "TacticValue": "0x0000000000000000",
  "StreamId": 0,
  "Metadata": ""
},{
  "Name": "Conv_1861",
  "LayerType": "CaskConvolution",
  "Inputs": [
  {
    "Name": "Reformatted Input Tensor 0 to Conv_1861",
    "Location": "Device",
    "Dimensions": [1,640,16,24],
    "Format/Datatype": "Channel major FP32 format"
  }],
  "Outputs": [
  {
    "Name": "input.296",
    "Location": "Device",
    "Dimensions": [1,640,8,12],
    "Format/Datatype": "Channel major FP32 format"
  }],
  "ParameterType": "Convolution",
  "Kernel": [3,3],
  "PaddingMode": "kEXPLICIT_ROUND_DOWN",
  "PrePadding": [1,1],
  "PostPadding": [1,1],
  "Stride": [2,2],
  "Dilation": [1,1],
  "OutMaps": 640,
  "Groups": 1,
  "Weights": {"Type": "Float", "Count": 3686400},
  "Bias": {"Type": "Float", "Count": 640},
  "HasSparseWeights": 0,
  "HasDynamicFilter": 0,
  "HasDynamicBias": 0,
  "HasResidual": 0,
  "ConvXAsActInputIdx": -1,
  "BiasAsActInputIdx": -1,
  "ResAsActInputIdx": -1,
  "Activation": "NONE",
  "HasBias": 1,
  "HasReLU": 0,
  "TacticName": "sm80_xmma_fprop_implicit_gemm_f32f32_f32f32_f32_nhwckrsc_nhwc_tilesize32x32x8_stage3_warpsize1x2x1_g1_ffma_t1r3s3_aligna4_alignc4",
  "TacticValue": "0x5953bec563d26434",
  "StreamId": 0,
  "Metadata": "[ONNX Layer: Conv_1861]"
},{
  "Name": "Cast_1863",
  "LayerType": "NoOp",
  "Inputs": [
  {
    "Name": "input.296",
    "Location": "Device",
    "Dimensions": [1,640,8,12],
    "Format/Datatype": "Channel major FP32 format"
  }],
  "Outputs": [
  {
    "Name": "input.300",
    "Location": "Device",
    "Dimensions": [1,640,8,12],
    "Format/Datatype": "Channel major FP32 format where channel % 4 == 0"
  }],
  "TacticValue": "0x0000000000000000",
  "StreamId": 0,
  "Metadata": ""
},{
  "Name": "Reformatting CopyNode for Input Tensor 0 to Reshape_1865 + (Unnamed Layer* 2132) [Shuffle]",
  "LayerType": "Reformat",
  "Inputs": [
  {
    "Name": "input.300",
    "Location": "Device",
    "Dimensions": [1,640,8,12],
    "Format/Datatype": "Channel major FP32 format where channel % 4 == 0"
  }],
  "Outputs": [
  {
    "Name": "Reformatted Input Tensor 0 to Reshape_1865 + (Unnamed Layer* 2132) [Shuffle]",
    "Location": "Device",
    "Dimensions": [1,640,8,12],
    "Format/Datatype": "Row major linear FP32"
  }],
  "ParameterType": "Reformat",
  "Origin": "REFORMAT",
  "TacticValue": "0x0000000000000000",
  "StreamId": 0,
  "Metadata": ""
},{
  "Name": "Reshape_1865 + (Unnamed Layer* 2132) [Shuffle]",
  "LayerType": "NoOp",
  "Inputs": [
  {
    "Name": "Reformatted Input Tensor 0 to Reshape_1865 + (Unnamed Layer* 2132) [Shuffle]",
    "Location": "Device",
    "Dimensions": [1,640,8,12],
    "Format/Datatype": "Row major linear FP32"
  }],
  "Outputs": [
  {
    "Name": "(Unnamed Layer* 2132) [Shuffle]_output",
    "Location": "Device",
    "Dimensions": [1,32,1920,1],
    "Format/Datatype": "Row major linear FP32"
  }],
  "TacticValue": "0x0000000000000000",
  "StreamId": 0,
  "Metadata": "[ONNX Layer: Reshape_1865]\u001e"
},{
  "Name": "InstanceNormalization_1868",
  "LayerType": "PluginV2",
  "Inputs": [
  {
    "Name": "(Unnamed Layer* 2132) [Shuffle]_output",
    "Location": "Device",
    "Dimensions": [1,32,1920,1],
    "Format/Datatype": "Row major linear FP32"
  }],
  "Outputs": [
  {
    "Name": "(Unnamed Layer* 2133) [PluginV2DynamicExt]_output",
    "Location": "Device",
    "Dimensions": [1,32,1920,1],
    "Format/Datatype": "Row major linear FP32"
  }],
  "PluginType": "InstanceNormalization_TRT",
  "PluginVersion": "1",
  "TacticValue": "0x0000000000000000",
  "StreamId": 0,
  "Metadata": "[ONNX Layer: InstanceNormalization_1868]"
},{
  "Name": "(Unnamed Layer* 2134) [Shuffle] + Reshape_1870",
  "LayerType": "NoOp",
  "Inputs": [
  {
    "Name": "(Unnamed Layer* 2133) [PluginV2DynamicExt]_output",
    "Location": "Device",
    "Dimensions": [1,32,1920,1],
    "Format/Datatype": "Row major linear FP32"
  }],
  "Outputs": [
  {
    "Name": "onnx::Mul_2561",
    "Location": "Device",
    "Dimensions": [1,640,8,12],
    "Format/Datatype": "Row major linear FP32"
  }],
  "TacticValue": "0x0000000000000000",
  "StreamId": 0,
  "Metadata": "[ONNX Layer: Reshape_1870]"
},{
  "Name": "onnx::Mul_4589 + (Unnamed Layer* 2138) [Shuffle] + Mul_1871 + onnx::Add_4590 + (Unnamed Layer* 2141) [Shuffle] + Add_1872",
  "LayerType": "Scale",
  "Inputs": [
  {
    "Name": "onnx::Mul_2561",
    "Location": "Device",
    "Dimensions": [1,640,8,12],
    "Format/Datatype": "Row major linear FP32"
  }],
  "Outputs": [
  {
    "Name": "onnx::Cast_2567",
    "Location": "Device",
    "Dimensions": [1,640,8,12],
    "Format/Datatype": "Row major linear FP32"
  }],
  "ParameterType": "Scale",
  "Mode": "CHANNEL",
  "Shift": {"Type": "Float", "Count": 640},
  "Scale": {"Type": "Float", "Count": 640},
  "Power": {"Type": "Float", "Count": 0},
  "Activation": "NONE",
  "ChannelAxis": 1,
  "TacticValue": "0x0000000000000000",
  "StreamId": 0,
  "Metadata": "[ONNX Layer: Mul_1871]\u001e[ONNX Layer: Add_1872]"
},{
  "Name": "Cast_1873",
  "LayerType": "NoOp",
  "Inputs": [
  {
    "Name": "onnx::Cast_2567",
    "Location": "Device",
    "Dimensions": [1,640,8,12],
    "Format/Datatype": "Row major linear FP32"
  }],
  "Outputs": [
  {
    "Name": "input.304",
    "Location": "Device",
    "Dimensions": [1,640,8,12],
    "Format/Datatype": "Row major linear FP32"
  }],
  "TacticValue": "0x0000000000000000",
  "StreamId": 0,
  "Metadata": ""
},{
  "Name": "PWN(PWN(Sigmoid_1874), Mul_1875)",
  "LayerType": "PointWiseV2",
  "Inputs": [
  {
    "Name": "input.304",
    "Location": "Device",
    "Dimensions": [1,640,8,12],
    "Format/Datatype": "Row major linear FP32"
  }],
  "Outputs": [
  {
    "Name": "input.308",
    "Location": "Device",
    "Dimensions": [1,640,8,12],
    "Format/Datatype": "Row major linear FP32"
  }],
  "ParameterType": "PointWise",
  "ParameterSubType": "PointWiseExpression",
  "NbInputArgs": 1,
  "InputArgs": ["arg0"],
  "NbOutputVars": 1,
  "OutputVars": ["var4"],
  "NbParams": 0,
  "Params": [],
  "NbLiterals": 5,
  "Literals": ["0.000000e+00f", "1.000000e+00f", "0.000000e+00f", "0.000000e+00f", "1.000000e+00f"],
  "NbOperations": 5,
  "Operations": ["auto const var0 = pwgen::iNeg(arg0);", "auto const var1 = pwgen::iExp(var0);", "auto const var2 = pwgen::iPlus(literal4, var1);", "auto const var3 = pwgen::iRcp(var2);", "auto const var4 = pwgen::iMul(arg0, var3);"],
  "TacticValue": "0x0000000000000002",
  "StreamId": 0,
  "Metadata": "[ONNX Layer: Sigmoid_1874]\u001e[ONNX Layer: Mul_1875]"
},{
  "Name": "Reformatting CopyNode for Input Tensor 0 to Conv_1876",
  "LayerType": "NoOp",
  "Inputs": [
  {
    "Name": "input.308",
    "Location": "Device",
    "Dimensions": [1,640,8,12],
    "Format/Datatype": "Row major linear FP32"
  }],
  "Outputs": [
  {
    "Name": "Reformatted Input Tensor 0 to Conv_1876",
    "Location": "Device",
    "Dimensions": [1,640,8,12],
    "Format/Datatype": "Row major linear FP32"
  }],
  "TacticValue": "0x0000000000000000",
  "StreamId": 0,
  "Metadata": ""
},{
  "Name": "Conv_1876",
  "LayerType": "CaskConvolution",
  "Inputs": [
  {
    "Name": "Reformatted Input Tensor 0 to Conv_1876",
    "Location": "Device",
    "Dimensions": [1,640,8,12],
    "Format/Datatype": "Row major linear FP32"
  }],
  "Outputs": [
  {
    "Name": "onnx::Add_2571",
    "Location": "Device",
    "Dimensions": [1,1280,8,12],
    "Format/Datatype": "Row major linear FP32"
  }],
  "ParameterType": "Convolution",
  "Kernel": [3,3],
  "PaddingMode": "kEXPLICIT_ROUND_DOWN",
  "PrePadding": [1,1],
  "PostPadding": [1,1],
  "Stride": [1,1],
  "Dilation": [1,1],
  "OutMaps": 1280,
  "Groups": 1,
  "Weights": {"Type": "Float", "Count": 7372800},
  "Bias": {"Type": "Float", "Count": 1280},
  "HasSparseWeights": 0,
  "HasDynamicFilter": 0,
  "HasDynamicBias": 0,
  "HasResidual": 0,
  "ConvXAsActInputIdx": -1,
  "BiasAsActInputIdx": -1,
  "ResAsActInputIdx": -1,
  "Activation": "NONE",
  "HasBias": 1,
  "HasReLU": 0,
  "TacticName": "sm80_xmma_fprop_wngd_f32f32_f32_f32_nchwkcrs_nchw_tilesize8x16x16x8_warpsize8x1x1_wngd2x2",
  "TacticValue": "0xe38e9dfd56c33779",
  "StreamId": 0,
  "Metadata": "[ONNX Layer: Conv_1876]"
},{
  "Name": "reshape_after_Gemm_1879_copy_input",
  "LayerType": "Reformat",
  "Inputs": [
  {
    "Name": "Gemm_1879 || Gemm_2363 || Gemm_2848 || Gemm_2887 || Gemm_2926 || Gemm_3408 || Gemm_910 || Gemm_1394 || Gemm_120 || Gemm_425",
    "Location": "Device",
    "Dimensions": [1,1280,1,1],
    "Format/Datatype": "Row major linear FP32"
  }],
  "Outputs": [
  {
    "Name": "reshape_after_Gemm_1879_copy_input",
    "Location": "Device",
    "Dimensions": [1,1280,1,1],
    "Format/Datatype": "Row major linear FP32"
  }],
  "ParameterType": "Reformat",
  "Origin": "SLICE",
  "TacticValue": "0x00000000000003e8",
  "StreamId": 0,
  "Metadata": "[ONNX Layer: Gemm_1879]"
},{
  "Name": "reshape_after_Gemm_1879",
  "LayerType": "NoOp",
  "Inputs": [
  {
    "Name": "reshape_after_Gemm_1879_copy_input",
    "Location": "Device",
    "Dimensions": [1,1280,1,1],
    "Format/Datatype": "Row major linear FP32"
  }],
  "Outputs": [
  {
    "Name": "onnx::Cast_2574",
    "Location": "Device",
    "Dimensions": [1,1280],
    "Format/Datatype": "Row major linear FP32"
  }],
  "TacticValue": "0x0000000000000000",
  "StreamId": 0,
  "Metadata": "[ONNX Layer: Gemm_1879]"
},{
  "Name": "Cast_1880",
  "LayerType": "NoOp",
  "Inputs": [
  {
    "Name": "onnx::Cast_2574",
    "Location": "Device",
    "Dimensions": [1,1280],
    "Format/Datatype": "Row major linear FP32"
  }],
  "Outputs": [
  {
    "Name": "onnx::Unsqueeze_2575",
    "Location": "Device",
    "Dimensions": [1,1280],
    "Format/Datatype": "Row major linear FP32"
  }],
  "TacticValue": "0x0000000000000000",
  "StreamId": 0,
  "Metadata": ""
},{
  "Name": "Unsqueeze_1882 + Unsqueeze_1884",
  "LayerType": "NoOp",
  "Inputs": [
  {
    "Name": "onnx::Unsqueeze_2575",
    "Location": "Device",
    "Dimensions": [1,1280],
    "Format/Datatype": "Row major linear FP32"
  }],
  "Outputs": [
  {
    "Name": "onnx::Add_2579",
    "Location": "Device",
    "Dimensions": [1,1280,1,1],
    "Format/Datatype": "Row major linear FP32"
  }],
  "TacticValue": "0x0000000000000000",
  "StreamId": 0,
  "Metadata": "[ONNX Layer: Unsqueeze_1882]\u001e[ONNX Layer: Unsqueeze_1884]"
},{
  "Name": "Add_1885",
  "LayerType": "ElementWise",
  "Inputs": [
  {
    "Name": "onnx::Add_2571",
    "Location": "Device",
    "Dimensions": [1,1280,8,12],
    "Format/Datatype": "Row major linear FP32"
  },
  {
    "Name": "onnx::Add_2579",
    "Location": "Device",
    "Dimensions": [1,1280,1,1],
    "Format/Datatype": "Row major linear FP32"
  }],
  "Outputs": [
  {
    "Name": "onnx::Cast_2580",
    "Location": "Device",
    "Dimensions": [1,1280,8,12],
    "Format/Datatype": "Row major linear FP32"
  }],
  "ParameterType": "ElementWise",
  "ElementWiseOperation": "SUM",
  "Activation": "NONE",
  "TacticValue": "0x0000000000000001",
  "StreamId": 0,
  "Metadata": "[ONNX Layer: Add_1885]"
},{
  "Name": "Cast_1886",
  "LayerType": "NoOp",
  "Inputs": [
  {
    "Name": "onnx::Cast_2580",
    "Location": "Device",
    "Dimensions": [1,1280,8,12],
    "Format/Datatype": "Row major linear FP32"
  }],
  "Outputs": [
  {
    "Name": "input.312",
    "Location": "Device",
    "Dimensions": [1,1280,8,12],
    "Format/Datatype": "Row major linear FP32"
  }],
  "TacticValue": "0x0000000000000000",
  "StreamId": 0,
  "Metadata": ""
},{
  "Name": "Reshape_1888 + (Unnamed Layer* 2160) [Shuffle]",
  "LayerType": "NoOp",
  "Inputs": [
  {
    "Name": "input.312",
    "Location": "Device",
    "Dimensions": [1,1280,8,12],
    "Format/Datatype": "Row major linear FP32"
  }],
  "Outputs": [
  {
    "Name": "(Unnamed Layer* 2160) [Shuffle]_output",
    "Location": "Device",
    "Dimensions": [1,32,3840,1],
    "Format/Datatype": "Row major linear FP32"
  }],
  "TacticValue": "0x0000000000000000",
  "StreamId": 0,
  "Metadata": "[ONNX Layer: Reshape_1888]\u001e"
},{
  "Name": "InstanceNormalization_1891",
  "LayerType": "PluginV2",
  "Inputs": [
  {
    "Name": "(Unnamed Layer* 2160) [Shuffle]_output",
    "Location": "Device",
    "Dimensions": [1,32,3840,1],
    "Format/Datatype": "Row major linear FP32"
  }],
  "Outputs": [
  {
    "Name": "(Unnamed Layer* 2161) [PluginV2DynamicExt]_output",
    "Location": "Device",
    "Dimensions": [1,32,3840,1],
    "Format/Datatype": "Row major linear FP32"
  }],
  "PluginType": "InstanceNormalization_TRT",
  "PluginVersion": "1",
  "TacticValue": "0x0000000000000000",
  "StreamId": 0,
  "Metadata": "[ONNX Layer: InstanceNormalization_1891]"
},{
  "Name": "(Unnamed Layer* 2162) [Shuffle] + Reshape_1893",
  "LayerType": "NoOp",
  "Inputs": [
  {
    "Name": "(Unnamed Layer* 2161) [PluginV2DynamicExt]_output",
    "Location": "Device",
    "Dimensions": [1,32,3840,1],
    "Format/Datatype": "Row major linear FP32"
  }],
  "Outputs": [
  {
    "Name": "onnx::Mul_2588",
    "Location": "Device",
    "Dimensions": [1,1280,8,12],
    "Format/Datatype": "Row major linear FP32"
  }],
  "TacticValue": "0x0000000000000000",
  "StreamId": 0,
  "Metadata": "[ONNX Layer: Reshape_1893]"
},{
  "Name": "onnx::Mul_4591 + (Unnamed Layer* 2166) [Shuffle] + Mul_1894 + onnx::Add_4592 + (Unnamed Layer* 2169) [Shuffle] + Add_1895",
  "LayerType": "Scale",
  "Inputs": [
  {
    "Name": "onnx::Mul_2588",
    "Location": "Device",
    "Dimensions": [1,1280,8,12],
    "Format/Datatype": "Row major linear FP32"
  }],
  "Outputs": [
  {
    "Name": "onnx::Cast_2594",
    "Location": "Device",
    "Dimensions": [1,1280,8,12],
    "Format/Datatype": "Row major linear FP32"
  }],
  "ParameterType": "Scale",
  "Mode": "CHANNEL",
  "Shift": {"Type": "Float", "Count": 1280},
  "Scale": {"Type": "Float", "Count": 1280},
  "Power": {"Type": "Float", "Count": 0},
  "Activation": "NONE",
  "ChannelAxis": 1,
  "TacticValue": "0x0000000000000000",
  "StreamId": 0,
  "Metadata": "[ONNX Layer: Mul_1894]\u001e[ONNX Layer: Add_1895]"
},{
  "Name": "Cast_1896",
  "LayerType": "NoOp",
  "Inputs": [
  {
    "Name": "onnx::Cast_2594",
    "Location": "Device",
    "Dimensions": [1,1280,8,12],
    "Format/Datatype": "Row major linear FP32"
  }],
  "Outputs": [
  {
    "Name": "input.316",
    "Location": "Device",
    "Dimensions": [1,1280,8,12],
    "Format/Datatype": "Row major linear FP32"
  }],
  "TacticValue": "0x0000000000000000",
  "StreamId": 0,
  "Metadata": ""
},{
  "Name": "PWN(PWN(Sigmoid_1897), Mul_1898)",
  "LayerType": "PointWiseV2",
  "Inputs": [
  {
    "Name": "input.316",
    "Location": "Device",
    "Dimensions": [1,1280,8,12],
    "Format/Datatype": "Row major linear FP32"
  }],
  "Outputs": [
  {
    "Name": "input.320",
    "Location": "Device",
    "Dimensions": [1,1280,8,12],
    "Format/Datatype": "Row major linear FP32"
  }],
  "ParameterType": "PointWise",
  "ParameterSubType": "PointWiseExpression",
  "NbInputArgs": 1,
  "InputArgs": ["arg0"],
  "NbOutputVars": 1,
  "OutputVars": ["var4"],
  "NbParams": 0,
  "Params": [],
  "NbLiterals": 5,
  "Literals": ["0.000000e+00f", "1.000000e+00f", "0.000000e+00f", "0.000000e+00f", "1.000000e+00f"],
  "NbOperations": 5,
  "Operations": ["auto const var0 = pwgen::iNeg(arg0);", "auto const var1 = pwgen::iExp(var0);", "auto const var2 = pwgen::iPlus(literal4, var1);", "auto const var3 = pwgen::iRcp(var2);", "auto const var4 = pwgen::iMul(arg0, var3);"],
  "TacticValue": "0x0000000000000005",
  "StreamId": 0,
  "Metadata": "[ONNX Layer: Sigmoid_1897]\u001e[ONNX Layer: Mul_1898]"
},{
  "Name": "Reformatting CopyNode for Input Tensor 0 to Conv_1899",
  "LayerType": "NoOp",
  "Inputs": [
  {
    "Name": "input.320",
    "Location": "Device",
    "Dimensions": [1,1280,8,12],
    "Format/Datatype": "Row major linear FP32"
  }],
  "Outputs": [
  {
    "Name": "Reformatted Input Tensor 0 to Conv_1899",
    "Location": "Device",
    "Dimensions": [1,1280,8,12],
    "Format/Datatype": "Row major linear FP32"
  }],
  "TacticValue": "0x0000000000000000",
  "StreamId": 0,
  "Metadata": ""
},{
  "Name": "Conv_1899",
  "LayerType": "CaskConvolution",
  "Inputs": [
  {
    "Name": "Reformatted Input Tensor 0 to Conv_1899",
    "Location": "Device",
    "Dimensions": [1,1280,8,12],
    "Format/Datatype": "Row major linear FP32"
  }],
  "Outputs": [
  {
    "Name": "onnx::Add_2598",
    "Location": "Device",
    "Dimensions": [1,1280,8,12],
    "Format/Datatype": "Row major linear FP32"
  }],
  "ParameterType": "Convolution",
  "Kernel": [3,3],
  "PaddingMode": "kEXPLICIT_ROUND_DOWN",
  "PrePadding": [1,1],
  "PostPadding": [1,1],
  "Stride": [1,1],
  "Dilation": [1,1],
  "OutMaps": 1280,
  "Groups": 1,
  "Weights": {"Type": "Float", "Count": 14745600},
  "Bias": {"Type": "Float", "Count": 1280},
  "HasSparseWeights": 0,
  "HasDynamicFilter": 0,
  "HasDynamicBias": 0,
  "HasResidual": 0,
  "ConvXAsActInputIdx": -1,
  "BiasAsActInputIdx": -1,
  "ResAsActInputIdx": -1,
  "Activation": "NONE",
  "HasBias": 1,
  "HasReLU": 0,
  "TacticName": "sm80_xmma_fprop_wngd_f32f32_f32_f32_nchwkcrs_nchw_tilesize8x16x16x8_warpsize8x1x1_wngd2x2",
  "TacticValue": "0xe38e9dfd56c33779",
  "StreamId": 0,
  "Metadata": "[ONNX Layer: Conv_1899]"
},{
  "Name": "Reformatting CopyNode for Input Tensor 1 to Conv_1900 + Add_1901",
  "LayerType": "Reformat",
  "Inputs": [
  {
    "Name": "onnx::Add_2598",
    "Location": "Device",
    "Dimensions": [1,1280,8,12],
    "Format/Datatype": "Row major linear FP32"
  }],
  "Outputs": [
  {
    "Name": "Reformatted Input Tensor 1 to Conv_1900 + Add_1901",
    "Location": "Device",
    "Dimensions": [1,1280,8,12],
    "Format/Datatype": "Channel major FP32 format where channel % 4 == 0"
  }],
  "ParameterType": "Reformat",
  "Origin": "REFORMAT",
  "TacticValue": "0x0000000000000000",
  "StreamId": 0,
  "Metadata": ""
},{
  "Name": "Conv_1900 + Add_1901",
  "LayerType": "CaskGemmConvolution",
  "Inputs": [
  {
    "Name": "input.300",
    "Location": "Device",
    "Dimensions": [1,640,8,12],
    "Format/Datatype": "Channel major FP32 format where channel % 4 == 0"
  },
  {
    "Name": "Reformatted Input Tensor 1 to Conv_1900 + Add_1901",
    "Location": "Device",
    "Dimensions": [1,1280,8,12],
    "Format/Datatype": "Channel major FP32 format where channel % 4 == 0"
  }],
  "Outputs": [
  {
    "Name": "input.324",
    "Location": "Device",
    "Dimensions": [1,1280,8,12],
…
    "Name": "(Unnamed Layer* 3356) [Shuffle]_output",
    "Location": "Device",
    "Dimensions": [1,32,960,1],
    "Format/Datatype": "Row major linear FP32"
  }],
  "TacticValue": "0x0000000000000000",
  "StreamId": 0,
  "Metadata": "[ONNX Layer: Reshape_2955]\u001e"
},{
  "Name": "InstanceNormalization_2958",
  "LayerType": "PluginV2",
  "Inputs": [
  {
    "Name": "(Unnamed Layer* 3356) [Shuffle]_output",
    "Location": "Device",
    "Dimensions": [1,32,960,1],
    "Format/Datatype": "Row major linear FP32"
  }],
  "Outputs": [
  {
    "Name": "(Unnamed Layer* 3357) [PluginV2DynamicExt]_output",
    "Location": "Device",
    "Dimensions": [1,32,960,1],
    "Format/Datatype": "Row major linear FP32"
  }],
  "PluginType": "InstanceNormalization_TRT",
  "PluginVersion": "1",
  "TacticValue": "0x0000000000000000",
  "StreamId": 0,
  "Metadata": "[ONNX Layer: InstanceNormalization_2958]"
},{
  "Name": "(Unnamed Layer* 3358) [Shuffle] + Reshape_2960",
  "LayerType": "NoOp",
  "Inputs": [
  {
    "Name": "(Unnamed Layer* 3357) [PluginV2DynamicExt]_output",
    "Location": "Device",
    "Dimensions": [1,32,960,1],
    "Format/Datatype": "Row major linear FP32"
  }],
  "Outputs": [
  {
    "Name": "onnx::Mul_3839",
    "Location": "Device",
    "Dimensions": [1,1280,4,6],
    "Format/Datatype": "Row major linear FP32"
  }],
  "TacticValue": "0x0000000000000000",
  "StreamId": 0,
  "Metadata": "[ONNX Layer: Reshape_2960]"
},{
  "Name": "onnx::Mul_4681 + (Unnamed Layer* 3362) [Shuffle] + Mul_2961 + onnx::Add_4682 + (Unnamed Layer* 3365) [Shuffle] + Add_2962",
  "LayerType": "Scale",
  "Inputs": [
  {
    "Name": "onnx::Mul_3839",
    "Location": "Device",
    "Dimensions": [1,1280,4,6],
    "Format/Datatype": "Row major linear FP32"
  }],
  "Outputs": [
  {
    "Name": "input.500",
    "Location": "Device",
    "Dimensions": [1,1280,4,6],
    "Format/Datatype": "Row major linear FP32"
  }],
  "ParameterType": "Scale",
  "Mode": "CHANNEL",
  "Shift": {"Type": "Float", "Count": 1280},
  "Scale": {"Type": "Float", "Count": 1280},
  "Power": {"Type": "Float", "Count": 0},
  "Activation": "NONE",
  "ChannelAxis": 1,
  "TacticValue": "0x0000000000000000",
  "StreamId": 0,
  "Metadata": "[ONNX Layer: Mul_2961]\u001e[ONNX Layer: Add_2962]"
},{
  "Name": "Reformatting CopyNode for Input Tensor 0 to Conv_2963",
  "LayerType": "Reformat",
  "Inputs": [
  {
    "Name": "input.500",
    "Location": "Device",
    "Dimensions": [1,1280,4,6],
    "Format/Datatype": "Row major linear FP32"
  }],
  "Outputs": [
  {
    "Name": "Reformatted Input Tensor 0 to Conv_2963",
    "Location": "Device",
    "Dimensions": [1,1280,4,6],
    "Format/Datatype": "Channel major FP32 format where channel % 4 == 0"
  }],
  "ParameterType": "Reformat",
  "Origin": "REFORMAT",
  "TacticValue": "0x0000000000000000",
  "StreamId": 0,
  "Metadata": ""
},{
  "Name": "Conv_2963",
  "LayerType": "CaskGemmConvolution",
  "Inputs": [
  {
    "Name": "Reformatted Input Tensor 0 to Conv_2963",
    "Location": "Device",
    "Dimensions": [1,1280,4,6],
    "Format/Datatype": "Channel major FP32 format where channel % 4 == 0"
  }],
  "Outputs": [
  {
    "Name": "tensor.719",
    "Location": "Device",
    "Dimensions": [1,1280,4,6],
    "Format/Datatype": "Channel major FP32 format where channel % 4 == 0"
  }],
  "ParameterType": "Convolution",
  "Kernel": [1,1],
  "PaddingMode": "kEXPLICIT_ROUND_DOWN",
  "PrePadding": [0,0],
  "PostPadding": [0,0],
  "Stride": [1,1],
  "Dilation": [1,1],
  "OutMaps": 1280,
  "Groups": 1,
  "Weights": {"Type": "Float", "Count": 1638400},
  "Bias": {"Type": "Float", "Count": 1280},
  "HasSparseWeights": 0,
  "HasDynamicFilter": 0,
  "HasDynamicBias": 0,
  "HasResidual": 0,
  "ConvXAsActInputIdx": -1,
  "BiasAsActInputIdx": -1,
  "ResAsActInputIdx": -1,
  "Activation": "NONE",
  "TacticName": "sm86_xmma_gemm_f32f32_tf32f32_f32_tn_n_tilesize32x32x64_stage6_warpsize2x2x1_tensor16x8x8",
  "TacticValue": "0x000000000002038c",
  "StreamId": 0,
  "Metadata": "[ONNX Layer: Conv_2963]"
},{
  "Name": "Reformatting CopyNode for Input Tensor 0 to {ForeignNode[Reshape_3004 + Transpose_3005 + Reshape_3013...Reshape_3378 + Transpose_3379 + Reshape_3389]}",
  "LayerType": "Reformat",
  "Inputs": [
  {
    "Name": "tensor.719",
    "Location": "Device",
    "Dimensions": [1,1280,4,6],
    "Format/Datatype": "Channel major FP32 format where channel % 4 == 0"
  }],
  "Outputs": [
  {
    "Name": "Reformatted Input Tensor 0 to {ForeignNode[Reshape_3004 + Transpose_3005 + Reshape_3013...Reshape_3378 + Transpose_3379 + Reshape_3389]}",
    "Location": "Device",
    "Dimensions": [1,1280,4,6],
    "Format/Datatype": "Row major linear FP32"
  }],
  "ParameterType": "Reformat",
  "Origin": "REFORMAT",
  "TacticValue": "0x0000000000000000",
  "StreamId": 0,
  "Metadata": ""
},{
  "Name": "{ForeignNode[Reshape_3004 + Transpose_3005 + Reshape_3013...Reshape_3378 + Transpose_3379 + Reshape_3389]}",
  "LayerType": "Myelin",
  "Inputs": [
  {
    "Name": "Reformatted Input Tensor 0 to {ForeignNode[Reshape_3004 + Transpose_3005 + Reshape_3013...Reshape_3378 + Transpose_3379 + Reshape_3389]}",
    "Location": "Device",
    "Dimensions": [1,1280,4,6],
    "Format/Datatype": "Row major linear FP32"
  },
  {
    "Name": "onnx::MatMul_3",
    "Location": "Device",
    "Dimensions": [1,77,768],
    "Format/Datatype": "Row major linear FP32"
  }],
  "Outputs": [
  {
    "Name": "Reformatted Output Tensor 0 to {ForeignNode[Reshape_3004 + Transpose_3005 + Reshape_3013...Reshape_3378 + Transpose_3379 + Reshape_3389]}",
    "Location": "Device",
    "Dimensions": [1,1280,4,6],
    "Format/Datatype": "Row major linear FP32"
  }],
  "TacticValue": "0x0000000000000000",
  "StreamId": 0,
  "Metadata": ""
},{
  "Name": "Reformatting CopyNode for Output Tensor 0 to {ForeignNode[Reshape_3004 + Transpose_3005 + Reshape_3013...Reshape_3378 + Transpose_3379 + Reshape_3389]}",
  "LayerType": "Reformat",
  "Inputs": [
  {
    "Name": "Reformatted Output Tensor 0 to {ForeignNode[Reshape_3004 + Transpose_3005 + Reshape_3013...Reshape_3378 + Transpose_3379 + Reshape_3389]}",
    "Location": "Device",
    "Dimensions": [1,1280,4,6],
    "Format/Datatype": "Row major linear FP32"
  }],
  "Outputs": [
  {
    "Name": "onnx::Conv_4342",
    "Location": "Device",
    "Dimensions": [1,1280,4,6],
    "Format/Datatype": "Channel major FP32 format"
  }],
  "ParameterType": "Reformat",
  "Origin": "REFORMAT",
  "TacticValue": "0x0000000000000000",
  "StreamId": 0,
  "Metadata": ""
},{
  "Name": "Conv_103",
  "LayerType": "CaskConvolution",
  "Inputs": [
  {
    "Name": "onnx::Conv_380",
    "Location": "Device",
    "Dimensions": [1,320,32,48],
    "Format/Datatype": "Row major linear FP32"
  }],
  "Outputs": [
  {
    "Name": "381",
    "Location": "Device",
    "Dimensions": [1,320,32,48],
    "Format/Datatype": "Row major linear FP32"
  }],
  "ParameterType": "Convolution",
  "Kernel": [1,1],
  "PaddingMode": "kEXPLICIT_ROUND_DOWN",
  "PrePadding": [0,0],
  "PostPadding": [0,0],
  "Stride": [1,1],
  "Dilation": [1,1],
  "OutMaps": 320,
  "Groups": 1,
  "Weights": {"Type": "Float", "Count": 102400},
  "Bias": {"Type": "Float", "Count": 320},
  "HasSparseWeights": 0,
  "HasDynamicFilter": 0,
  "HasDynamicBias": 0,
  "HasResidual": 0,
  "ConvXAsActInputIdx": -1,
  "BiasAsActInputIdx": -1,
  "ResAsActInputIdx": -1,
  "Activation": "NONE",
  "HasBias": 1,
  "HasReLU": 0,
  "TacticName": "sm80_xmma_fprop_implicit_gemm_f32f32_tf32f32_f32_nchwkrsc_nchw_tilesize128x64x16_stage2_warpsize2x2x1_g1_tensor16x8x8_simple_t1r1s1_aligna4_alignc4",
  "TacticValue": "0xe52b0ddb126aa135",
  "StreamId": 0,
  "Metadata": "[ONNX Layer: Conv_103]"
},{
  "Name": "Conv_408",
  "LayerType": "CaskConvolution",
  "Inputs": [
  {
    "Name": "input.120",
    "Location": "Device",
    "Dimensions": [1,320,32,48],
    "Format/Datatype": "Row major linear FP32"
  }],
  "Outputs": [
  {
    "Name": "853",
    "Location": "Device",
    "Dimensions": [1,320,32,48],
    "Format/Datatype": "Row major linear FP32"
  }],
  "ParameterType": "Convolution",
  "Kernel": [1,1],
  "PaddingMode": "kEXPLICIT_ROUND_DOWN",
  "PrePadding": [0,0],
  "PostPadding": [0,0],
  "Stride": [1,1],
  "Dilation": [1,1],
  "OutMaps": 320,
  "Groups": 1,
  "Weights": {"Type": "Float", "Count": 102400},
  "Bias": {"Type": "Float", "Count": 320},
  "HasSparseWeights": 0,
  "HasDynamicFilter": 0,
  "HasDynamicBias": 0,
  "HasResidual": 0,
  "ConvXAsActInputIdx": -1,
  "BiasAsActInputIdx": -1,
  "ResAsActInputIdx": -1,
  "Activation": "NONE",
  "HasBias": 1,
  "HasReLU": 0,
  "TacticName": "sm80_xmma_fprop_implicit_gemm_f32f32_tf32f32_f32_nchwkrsc_nchw_tilesize128x64x16_stage2_warpsize2x2x1_g1_tensor16x8x8_simple_t1r1s1_aligna4_alignc4",
  "TacticValue": "0xe52b0ddb126aa135",
  "StreamId": 0,
  "Metadata": "[ONNX Layer: Conv_408]"
},{
  "Name": "Reformatting CopyNode for Input Tensor 0 to Conv_893",
  "LayerType": "NoOp",
  "Inputs": [
  {
    "Name": "input.180",
    "Location": "Device",
    "Dimensions": [1,320,16,24],
    "Format/Datatype": "Channel major FP32 format"
  }],
  "Outputs": [
  {
    "Name": "Reformatted Input Tensor 0 to Conv_893",
    "Location": "Device",
    "Dimensions": [1,320,16,24],
    "Format/Datatype": "Channel major FP32 format where channel % 4 == 0"
  }],
  "TacticValue": "0x0000000000000000",
  "StreamId": 0,
  "Metadata": ""
},{
  "Name": "Conv_893",
  "LayerType": "CaskGemmConvolution",
  "Inputs": [
  {
    "Name": "Reformatted Input Tensor 0 to Conv_893",
    "Location": "Device",
    "Dimensions": [1,320,16,24],
    "Format/Datatype": "Channel major FP32 format where channel % 4 == 0"
  }],
  "Outputs": [
  {
    "Name": "Reformatted Output Tensor 0 to Conv_893",
    "Location": "Device",
    "Dimensions": [1,320,16,24],
    "Format/Datatype": "Channel major FP32 format where channel % 4 == 0"
  }],
  "ParameterType": "Convolution",
  "Kernel": [1,1],
  "PaddingMode": "kEXPLICIT_ROUND_DOWN",
  "PrePadding": [0,0],
  "PostPadding": [0,0],
  "Stride": [1,1],
  "Dilation": [1,1],
  "OutMaps": 320,
  "Groups": 1,
  "Weights": {"Type": "Float", "Count": 102400},
  "Bias": {"Type": "Float", "Count": 320},
  "HasSparseWeights": 0,
  "HasDynamicFilter": 0,
  "HasDynamicBias": 0,
  "HasResidual": 0,
  "ConvXAsActInputIdx": -1,
  "BiasAsActInputIdx": -1,
  "ResAsActInputIdx": -1,
  "Activation": "NONE",
  "TacticName": "sm80_xmma_gemm_f32f32_tf32f32_f32_tn_n_tilesize64x32x64_stage4_warpsize2x1x2_tensor16x8x8",
  "TacticValue": "0x00000000000202ca",
  "StreamId": 0,
  "Metadata": "[ONNX Layer: Conv_893]"
},{
  "Name": "Reformatting CopyNode for Output Tensor 0 to Conv_893",
  "LayerType": "Reformat",
  "Inputs": [
  {
    "Name": "Reformatted Output Tensor 0 to Conv_893",
    "Location": "Device",
    "Dimensions": [1,320,16,24],
    "Format/Datatype": "Channel major FP32 format where channel % 4 == 0"
  }],
  "Outputs": [
  {
    "Name": "1420",
    "Location": "Device",
    "Dimensions": [1,320,16,24],
    "Format/Datatype": "Row major linear FP32"
  }],
  "ParameterType": "Reformat",
  "Origin": "REFORMAT",
  "TacticValue": "0x0000000000000000",
  "StreamId": 0,
  "Metadata": ""
},{
  "Name": "Conv_891",
  "LayerType": "CaskGemmConvolution",
  "Inputs": [
  {
    "Name": "input.176",
    "Location": "Device",
    "Dimensions": [1,320,32,48],
    "Format/Datatype": "Channel major FP32 format where channel % 4 == 0"
  }],
  "Outputs": [
  {
    "Name": "Reformatted Output Tensor 0 to Conv_891",
    "Location": "Device",
    "Dimensions": [1,320,32,48],
    "Format/Datatype": "Channel major FP32 format where channel % 4 == 0"
  }],
  "ParameterType": "Convolution",
  "Kernel": [1,1],
  "PaddingMode": "kEXPLICIT_ROUND_DOWN",
  "PrePadding": [0,0],
  "PostPadding": [0,0],
  "Stride": [1,1],
  "Dilation": [1,1],
  "OutMaps": 320,
  "Groups": 1,
  "Weights": {"Type": "Float", "Count": 102400},
  "Bias": {"Type": "Float", "Count": 320},
  "HasSparseWeights": 0,
  "HasDynamicFilter": 0,
  "HasDynamicBias": 0,
  "HasResidual": 0,
  "ConvXAsActInputIdx": -1,
  "BiasAsActInputIdx": -1,
  "ResAsActInputIdx": -1,
  "Activation": "NONE",
  "TacticName": "sm86_xmma_gemm_f32f32_tf32f32_f32_tn_n_tilesize128x64x32_stage4_warpsize2x2x1_tensor16x8x8",
  "TacticValue": "0x000000000002030c",
  "StreamId": 0,
  "Metadata": "[ONNX Layer: Conv_891]"
},{
  "Name": "Reformatting CopyNode for Output Tensor 0 to Conv_891",
  "LayerType": "Reformat",
  "Inputs": [
  {
    "Name": "Reformatted Output Tensor 0 to Conv_891",
    "Location": "Device",
    "Dimensions": [1,320,32,48],
    "Format/Datatype": "Channel major FP32 format where channel % 4 == 0"
  }],
  "Outputs": [
  {
    "Name": "1418",
    "Location": "Device",
    "Dimensions": [1,320,32,48],
    "Format/Datatype": "Row major linear FP32"
  }],
  "ParameterType": "Reformat",
  "Origin": "REFORMAT",
  "TacticValue": "0x0000000000000000",
  "StreamId": 0,
  "Metadata": ""
},{
  "Name": "Conv_1377",
  "LayerType": "CaskGemmConvolution",
  "Inputs": [
  {
    "Name": "input.236",
    "Location": "Device",
    "Dimensions": [1,640,16,24],
    "Format/Datatype": "Channel major FP32 format where channel % 4 == 0"
  }],
  "Outputs": [
  {
    "Name": "Reformatted Output Tensor 0 to Conv_1377",
    "Location": "Device",
    "Dimensions": [1,640,16,24],
    "Format/Datatype": "Channel major FP32 format where channel % 4 == 0"
  }],
  "ParameterType": "Convolution",
  "Kernel": [1,1],
  "PaddingMode": "kEXPLICIT_ROUND_DOWN",
  "PrePadding": [0,0],
  "PostPadding": [0,0],
  "Stride": [1,1],
  "Dilation": [1,1],
  "OutMaps": 640,
  "Groups": 1,
  "Weights": {"Type": "Float", "Count": 409600},
  "Bias": {"Type": "Float", "Count": 640},
  "HasSparseWeights": 0,
  "HasDynamicFilter": 0,
  "HasDynamicBias": 0,
  "HasResidual": 0,
  "ConvXAsActInputIdx": -1,
  "BiasAsActInputIdx": -1,
  "ResAsActInputIdx": -1,
  "Activation": "NONE",
  "TacticName": "sm86_xmma_gemm_f32f32_tf32f32_f32_tn_n_tilesize64x64x64_stage3_warpsize2x2x1_tensor16x8x8",
  "TacticValue": "0x0000000000020338",
  "StreamId": 0,
  "Metadata": "[ONNX Layer: Conv_1377]"
},{
  "Name": "Reformatting CopyNode for Output Tensor 0 to Conv_1377",
  "LayerType": "Reformat",
  "Inputs": [
  {
    "Name": "Reformatted Output Tensor 0 to Conv_1377",
    "Location": "Device",
    "Dimensions": [1,640,16,24],
    "Format/Datatype": "Channel major FP32 format where channel % 4 == 0"
  }],
  "Outputs": [
  {
    "Name": "1986",
    "Location": "Device",
    "Dimensions": [1,640,16,24],
    "Format/Datatype": "Row major linear FP32"
  }],
  "ParameterType": "Reformat",
  "Origin": "REFORMAT",
  "TacticValue": "0x0000000000000000",
  "StreamId": 0,
  "Metadata": ""
},{
  "Name": "Reformatting CopyNode for Input Tensor 0 to Conv_1862",
  "LayerType": "NoOp",
  "Inputs": [
  {
    "Name": "input.296",
    "Location": "Device",
    "Dimensions": [1,640,8,12],
    "Format/Datatype": "Channel major FP32 format"
  }],
  "Outputs": [
  {
    "Name": "Reformatted Input Tensor 0 to Conv_1862",
    "Location": "Device",
    "Dimensions": [1,640,8,12],
    "Format/Datatype": "Channel major FP32 format where channel % 4 == 0"
  }],
  "TacticValue": "0x0000000000000000",
  "StreamId": 0,
  "Metadata": ""
},{
  "Name": "Conv_1862",
  "LayerType": "CaskGemmConvolution",
  "Inputs": [
  {
    "Name": "Reformatted Input Tensor 0 to Conv_1862",
    "Location": "Device",
    "Dimensions": [1,640,8,12],
    "Format/Datatype": "Channel major FP32 format where channel % 4 == 0"
  }],
  "Outputs": [
  {
    "Name": "Reformatted Output Tensor 0 to Conv_1862",
    "Location": "Device",
    "Dimensions": [1,640,8,12],
    "Format/Datatype": "Channel major FP32 format where channel % 4 == 0"
  }],
  "ParameterType": "Convolution",
  "Kernel": [1,1],
  "PaddingMode": "kEXPLICIT_ROUND_DOWN",
  "PrePadding": [0,0],
  "PostPadding": [0,0],
  "Stride": [1,1],
  "Dilation": [1,1],
  "OutMaps": 640,
  "Groups": 1,
  "Weights": {"Type": "Float", "Count": 409600},
  "Bias": {"Type": "Float", "Count": 640},
  "HasSparseWeights": 0,
  "HasDynamicFilter": 0,
  "HasDynamicBias": 0,
  "HasResidual": 0,
  "ConvXAsActInputIdx": -1,
  "BiasAsActInputIdx": -1,
  "ResAsActInputIdx": -1,
  "Activation": "NONE",
  "TacticName": "sm86_xmma_gemm_f32f32_tf32f32_f32_tn_n_tilesize32x32x64_stage6_warpsize2x2x1_tensor16x8x8",
  "TacticValue": "0x000000000002038c",
  "StreamId": 0,
  "Metadata": "[ONNX Layer: Conv_1862]"
},{
  "Name": "Reformatting CopyNode for Output Tensor 0 to Conv_1862",
  "LayerType": "Reformat",
  "Inputs": [
  {
    "Name": "Reformatted Output Tensor 0 to Conv_1862",
    "Location": "Device",
    "Dimensions": [1,640,8,12],
    "Format/Datatype": "Channel major FP32 format where channel % 4 == 0"
  }],
  "Outputs": [
  {
    "Name": "2553",
    "Location": "Device",
    "Dimensions": [1,640,8,12],
    "Format/Datatype": "Row major linear FP32"
  }],
  "ParameterType": "Reformat",
  "Origin": "REFORMAT",
  "TacticValue": "0x0000000000000000",
  "StreamId": 0,
  "Metadata": ""
},{
  "Name": "Conv_1860",
  "LayerType": "CaskGemmConvolution",
  "Inputs": [
  {
    "Name": "input.292",
    "Location": "Device",
    "Dimensions": [1,640,16,24],
    "Format/Datatype": "Channel major FP32 format where channel % 4 == 0"
  }],
  "Outputs": [
  {
    "Name": "Reformatted Output Tensor 0 to Conv_1860",
    "Location": "Device",
    "Dimensions": [1,640,16,24],
    "Format/Datatype": "Channel major FP32 format where channel % 4 == 0"
  }],
  "ParameterType": "Convolution",
  "Kernel": [1,1],
  "PaddingMode": "kEXPLICIT_ROUND_DOWN",
  "PrePadding": [0,0],
  "PostPadding": [0,0],
  "Stride": [1,1],
  "Dilation": [1,1],
  "OutMaps": 640,
  "Groups": 1,
  "Weights": {"Type": "Float", "Count": 409600},
  "Bias": {"Type": "Float", "Count": 640},
  "HasSparseWeights": 0,
  "HasDynamicFilter": 0,
  "HasDynamicBias": 0,
  "HasResidual": 0,
  "ConvXAsActInputIdx": -1,
  "BiasAsActInputIdx": -1,
  "ResAsActInputIdx": -1,
  "Activation": "NONE",
  "TacticName": "sm86_xmma_gemm_f32f32_tf32f32_f32_tn_n_tilesize64x64x64_stage3_warpsize2x2x1_tensor16x8x8",
  "TacticValue": "0x0000000000020338",
  "StreamId": 0,
  "Metadata": "[ONNX Layer: Conv_1860]"
},{
  "Name": "Reformatting CopyNode for Output Tensor 0 to Conv_1860",
  "LayerType": "Reformat",
  "Inputs": [
  {
    "Name": "Reformatted Output Tensor 0 to Conv_1860",
    "Location": "Device",
    "Dimensions": [1,640,16,24],
    "Format/Datatype": "Channel major FP32 format where channel % 4 == 0"
  }],
  "Outputs": [
  {
    "Name": "2551",
    "Location": "Device",
    "Dimensions": [1,640,16,24],
    "Format/Datatype": "Row major linear FP32"
  }],
  "ParameterType": "Reformat",
  "Origin": "REFORMAT",
  "TacticValue": "0x0000000000000000",
  "StreamId": 0,
  "Metadata": ""
},{
  "Name": "Conv_2346",
  "LayerType": "CaskGemmConvolution",
  "Inputs": [
  {
    "Name": "input.352",
    "Location": "Device",
    "Dimensions": [1,1280,8,12],
    "Format/Datatype": "Channel major FP32 format where channel % 4 == 0"
  }],
  "Outputs": [
  {
    "Name": "Reformatted Output Tensor 0 to Conv_2346",
    "Location": "Device",
    "Dimensions": [1,1280,8,12],
    "Format/Datatype": "Channel major FP32 format where channel % 4 == 0"
  }],
  "ParameterType": "Convolution",
  "Kernel": [1,1],
  "PaddingMode": "kEXPLICIT_ROUND_DOWN",
  "PrePadding": [0,0],
  "PostPadding": [0,0],
  "Stride": [1,1],
  "Dilation": [1,1],
  "OutMaps": 1280,
  "Groups": 1,
  "Weights": {"Type": "Float", "Count": 1638400},
  "Bias": {"Type": "Float", "Count": 1280},
  "HasSparseWeights": 0,
  "HasDynamicFilter": 0,
  "HasDynamicBias": 0,
  "HasResidual": 0,
  "ConvXAsActInputIdx": -1,
  "BiasAsActInputIdx": -1,
  "ResAsActInputIdx": -1,
  "Activation": "NONE",
  "TacticName": "sm86_xmma_gemm_f32f32_tf32f32_f32_tn_n_tilesize64x64x64_stage3_warpsize2x2x1_tensor16x8x8",
  "TacticValue": "0x0000000002040338",
  "StreamId": 0,
  "Metadata": "[ONNX Layer: Conv_2346]"
},{
  "Name": "Reformatting CopyNode for Output Tensor 0 to Conv_2346",
  "LayerType": "Reformat",
  "Inputs": [
  {
    "Name": "Reformatted Output Tensor 0 to Conv_2346",
    "Location": "Device",
    "Dimensions": [1,1280,8,12],
    "Format/Datatype": "Channel major FP32 format where channel % 4 == 0"
  }],
  "Outputs": [
  {
    "Name": "3119",
    "Location": "Device",
    "Dimensions": [1,1280,8,12],
    "Format/Datatype": "Row major linear FP32"
  }],
  "ParameterType": "Reformat",
  "Origin": "REFORMAT",
  "TacticValue": "0x0000000000000000",
  "StreamId": 0,
  "Metadata": ""
},{
  "Name": "Reformatting CopyNode for Input Tensor 0 to Conv_2831",
  "LayerType": "NoOp",
  "Inputs": [
  {
    "Name": "input.412",
    "Location": "Device",
    "Dimensions": [1,1280,4,6],
    "Format/Datatype": "Channel major FP32 format"
  }],
  "Outputs": [
  {
    "Name": "Reformatted Input Tensor 0 to Conv_2831",
    "Location": "Device",
    "Dimensions": [1,1280,4,6],
    "Format/Datatype": "Channel major FP32 format where channel % 4 == 0"
  }],
  "TacticValue": "0x0000000000000000",
  "StreamId": 0,
  "Metadata": ""
},{
  "Name": "Conv_2831",
  "LayerType": "CaskGemmConvolution",
  "Inputs": [
  {
    "Name": "Reformatted Input Tensor 0 to Conv_2831",
    "Location": "Device",
    "Dimensions": [1,1280,4,6],
    "Format/Datatype": "Channel major FP32 format where channel % 4 == 0"
  }],
  "Outputs": [
  {
    "Name": "Reformatted Output Tensor 0 to Conv_2831",
    "Location": "Device",
    "Dimensions": [1,1280,4,6],
    "Format/Datatype": "Channel major FP32 format where channel % 4 == 0"
  }],
  "ParameterType": "Convolution",
  "Kernel": [1,1],
  "PaddingMode": "kEXPLICIT_ROUND_DOWN",
  "PrePadding": [0,0],
  "PostPadding": [0,0],
  "Stride": [1,1],
  "Dilation": [1,1],
  "OutMaps": 1280,
  "Groups": 1,
  "Weights": {"Type": "Float", "Count": 1638400},
  "Bias": {"Type": "Float", "Count": 1280},
  "HasSparseWeights": 0,
  "HasDynamicFilter": 0,
  "HasDynamicBias": 0,
  "HasResidual": 0,
  "ConvXAsActInputIdx": -1,
  "BiasAsActInputIdx": -1,
  "ResAsActInputIdx": -1,
  "Activation": "NONE",
  "TacticName": "sm86_xmma_gemm_f32f32_tf32f32_f32_tn_n_tilesize32x32x64_stage6_warpsize2x2x1_tensor16x8x8",
  "TacticValue": "0x000000000002038c",
  "StreamId": 0,
  "Metadata": "[ONNX Layer: Conv_2831]"
},{
  "Name": "Reformatting CopyNode for Output Tensor 0 to Conv_2831",
  "LayerType": "Reformat",
  "Inputs": [
  {
    "Name": "Reformatted Output Tensor 0 to Conv_2831",
    "Location": "Device",
    "Dimensions": [1,1280,4,6],
    "Format/Datatype": "Channel major FP32 format where channel % 4 == 0"
  }],
  "Outputs": [
  {
    "Name": "3686",
    "Location": "Device",
    "Dimensions": [1,1280,4,6],
    "Format/Datatype": "Row major linear FP32"
  }],
  "ParameterType": "Reformat",
  "Origin": "REFORMAT",
  "TacticValue": "0x0000000000000000",
  "StreamId": 0,
  "Metadata": ""
},{
  "Name": "Conv_2829",
  "LayerType": "CaskGemmConvolution",
  "Inputs": [
  {
    "Name": "input.408",
    "Location": "Device",
    "Dimensions": [1,1280,8,12],
    "Format/Datatype": "Channel major FP32 format where channel % 4 == 0"
  }],
  "Outputs": [
  {
    "Name": "Reformatted Output Tensor 0 to Conv_2829",
    "Location": "Device",
    "Dimensions": [1,1280,8,12],
    "Format/Datatype": "Channel major FP32 format where channel % 4 == 0"
  }],
  "ParameterType": "Convolution",
  "Kernel": [1,1],
  "PaddingMode": "kEXPLICIT_ROUND_DOWN",
  "PrePadding": [0,0],
  "PostPadding": [0,0],
  "Stride": [1,1],
  "Dilation": [1,1],
  "OutMaps": 1280,
  "Groups": 1,
  "Weights": {"Type": "Float", "Count": 1638400},
  "Bias": {"Type": "Float", "Count": 1280},
  "HasSparseWeights": 0,
  "HasDynamicFilter": 0,
  "HasDynamicBias": 0,
  "HasResidual": 0,
  "ConvXAsActInputIdx": -1,
  "BiasAsActInputIdx": -1,
  "ResAsActInputIdx": -1,
  "Activation": "NONE",
  "TacticName": "sm86_xmma_gemm_f32f32_tf32f32_f32_tn_n_tilesize64x64x64_stage3_warpsize2x2x1_tensor16x8x8",
  "TacticValue": "0x0000000002040338",
  "StreamId": 0,
  "Metadata": "[ONNX Layer: Conv_2829]"
},{
  "Name": "Reformatting CopyNode for Output Tensor 0 to Conv_2829",
  "LayerType": "Reformat",
  "Inputs": [
  {
    "Name": "Reformatted Output Tensor 0 to Conv_2829",
    "Location": "Device",
    "Dimensions": [1,1280,8,12],
    "Format/Datatype": "Channel major FP32 format where channel % 4 == 0"
  }],
  "Outputs": [
  {
    "Name": "3684",
    "Location": "Device",
    "Dimensions": [1,1280,8,12],
    "Format/Datatype": "Row major linear FP32"
  }],
  "ParameterType": "Reformat",
  "Origin": "REFORMAT",
  "TacticValue": "0x0000000000000000",
  "StreamId": 0,
  "Metadata": ""
},{
  "Name": "Reformatting CopyNode for Input Tensor 0 to Conv_2870",
  "LayerType": "Reformat",
  "Inputs": [
  {
    "Name": "input.440",
    "Location": "Device",
    "Dimensions": [1,1280,4,6],
    "Format/Datatype": "Row major linear FP32"
  }],
  "Outputs": [
  {
    "Name": "Reformatted Input Tensor 0 to Conv_2870",
    "Location": "Device",
    "Dimensions": [1,1280,4,6],
    "Format/Datatype": "Channel major FP32 format where channel % 4 == 0"
  }],
  "ParameterType": "Reformat",
  "Origin": "REFORMAT",
  "TacticValue": "0x0000000000000000",
  "StreamId": 0,
  "Metadata": ""
},{
  "Name": "Conv_2870",
  "LayerType": "CaskGemmConvolution",
  "Inputs": [
  {
    "Name": "Reformatted Input Tensor 0 to Conv_2870",
    "Location": "Device",
    "Dimensions": [1,1280,4,6],
    "Format/Datatype": "Channel major FP32 format where channel % 4 == 0"
  }],
  "Outputs": [
  {
    "Name": "Reformatted Output Tensor 0 to Conv_2870",
    "Location": "Device",
    "Dimensions": [1,1280,4,6],
    "Format/Datatype": "Channel major FP32 format where channel % 4 == 0"
  }],
  "ParameterType": "Convolution",
  "Kernel": [1,1],
  "PaddingMode": "kEXPLICIT_ROUND_DOWN",
  "PrePadding": [0,0],
  "PostPadding": [0,0],
  "Stride": [1,1],
  "Dilation": [1,1],
  "OutMaps": 1280,
  "Groups": 1,
  "Weights": {"Type": "Float", "Count": 1638400},
  "Bias": {"Type": "Float", "Count": 1280},
  "HasSparseWeights": 0,
  "HasDynamicFilter": 0,
  "HasDynamicBias": 0,
  "HasResidual": 0,
  "ConvXAsActInputIdx": -1,
  "BiasAsActInputIdx": -1,
  "ResAsActInputIdx": -1,
  "Activation": "NONE",
  "TacticName": "sm86_xmma_gemm_f32f32_tf32f32_f32_tn_n_tilesize32x32x64_stage6_warpsize2x2x1_tensor16x8x8",
  "TacticValue": "0x000000000002038c",
  "StreamId": 0,
  "Metadata": "[ONNX Layer: Conv_2870]"
},{
  "Name": "Reformatting CopyNode for Output Tensor 0 to Conv_2870",
  "LayerType": "Reformat",
  "Inputs": [
  {
    "Name": "Reformatted Output Tensor 0 to Conv_2870",
    "Location": "Device",
    "Dimensions": [1,1280,4,6],
    "Format/Datatype": "Channel major FP32 format where channel % 4 == 0"
  }],
  "Outputs": [
  {
    "Name": "3733",
    "Location": "Device",
    "Dimensions": [1,1280,4,6],
    "Format/Datatype": "Row major linear FP32"
  }],
  "ParameterType": "Reformat",
  "Origin": "REFORMAT",
  "TacticValue": "0x0000000000000000",
  "StreamId": 0,
  "Metadata": ""
},{
  "Name": "Reformatting CopyNode for Input Tensor 0 to Conv_2909",
  "LayerType": "Reformat",
  "Inputs": [
  {
    "Name": "input.468",
    "Location": "Device",
    "Dimensions": [1,1280,4,6],
    "Format/Datatype": "Row major linear FP32"
  }],
  "Outputs": [
  {
    "Name": "Reformatted Input Tensor 0 to Conv_2909",
    "Location": "Device",
    "Dimensions": [1,1280,4,6],
    "Format/Datatype": "Channel major FP32 format where channel % 4 == 0"
  }],
  "ParameterType": "Reformat",
  "Origin": "REFORMAT",
  "TacticValue": "0x0000000000000000",
  "StreamId": 0,
  "Metadata": ""
},{
  "Name": "Conv_2909",
  "LayerType": "CaskGemmConvolution",
  "Inputs": [
  {
    "Name": "Reformatted Input Tensor 0 to Conv_2909",
    "Location": "Device",
    "Dimensions": [1,1280,4,6],
    "Format/Datatype": "Channel major FP32 format where channel % 4 == 0"
  }],
  "Outputs": [
  {
    "Name": "Reformatted Output Tensor 0 to Conv_2909",
    "Location": "Device",
    "Dimensions": [1,1280,4,6],
    "Format/Datatype": "Channel major FP32 format where channel % 4 == 0"
  }],
  "ParameterType": "Convolution",
  "Kernel": [1,1],
  "PaddingMode": "kEXPLICIT_ROUND_DOWN",
  "PrePadding": [0,0],
  "PostPadding": [0,0],
  "Stride": [1,1],
  "Dilation": [1,1],
  "OutMaps": 1280,
  "Groups": 1,
  "Weights": {"Type": "Float", "Count": 1638400},
  "Bias": {"Type": "Float", "Count": 1280},
  "HasSparseWeights": 0,
  "HasDynamicFilter": 0,
  "HasDynamicBias": 0,
  "HasResidual": 0,
  "ConvXAsActInputIdx": -1,
  "BiasAsActInputIdx": -1,
  "ResAsActInputIdx": -1,
  "Activation": "NONE",
  "TacticName": "sm86_xmma_gemm_f32f32_tf32f32_f32_tn_n_tilesize32x32x64_stage6_warpsize2x2x1_tensor16x8x8",
  "TacticValue": "0x000000000002038c",
  "StreamId": 0,
  "Metadata": "[ONNX Layer: Conv_2909]"
},{
  "Name": "Reformatting CopyNode for Output Tensor 0 to Conv_2909",
  "LayerType": "Reformat",
  "Inputs": [
  {
    "Name": "Reformatted Output Tensor 0 to Conv_2909",
    "Location": "Device",
    "Dimensions": [1,1280,4,6],
    "Format/Datatype": "Channel major FP32 format where channel % 4 == 0"
  }],
  "Outputs": [
  {
    "Name": "3780",
    "Location": "Device",
    "Dimensions": [1,1280,4,6],
    "Format/Datatype": "Row major linear FP32"
  }],
  "ParameterType": "Reformat",
  "Origin": "REFORMAT",
  "TacticValue": "0x0000000000000000",
  "StreamId": 0,
  "Metadata": ""
},{
  "Name": "Reformatting CopyNode for Input Tensor 0 to Conv_3390 + Add_3391",
  "LayerType": "NoOp",
  "Inputs": [
  {
    "Name": "onnx::Conv_4342",
    "Location": "Device",
    "Dimensions": [1,1280,4,6],
    "Format/Datatype": "Channel major FP32 format"
  }],
  "Outputs": [
  {
    "Name": "Reformatted Input Tensor 0 to Conv_3390 + Add_3391",
    "Location": "Device",
    "Dimensions": [1,1280,4,6],
    "Format/Datatype": "Channel major FP32 format where channel % 4 == 0"
  }],
  "TacticValue": "0x0000000000000000",
  "StreamId": 0,
  "Metadata": ""
},{
  "Name": "Reformatting CopyNode for Input Tensor 1 to Conv_3390 + Add_3391",
  "LayerType": "Reformat",
  "Inputs": [
  {
    "Name": "input.496",
    "Location": "Device",
    "Dimensions": [1,1280,4,6],
    "Format/Datatype": "Row major linear FP32"
  }],
  "Outputs": [
  {
    "Name": "Reformatted Input Tensor 1 to Conv_3390 + Add_3391",
    "Location": "Device",
    "Dimensions": [1,1280,4,6],
    "Format/Datatype": "Channel major FP32 format where channel % 4 == 0"
  }],
  "ParameterType": "Reformat",
  "Origin": "REFORMAT",
  "TacticValue": "0x0000000000000000",
  "StreamId": 0,
  "Metadata": ""
},{
  "Name": "Conv_3390 + Add_3391",
  "LayerType": "CaskGemmConvolution",
  "Inputs": [
  {
    "Name": "Reformatted Input Tensor 0 to Conv_3390 + Add_3391",
    "Location": "Device",
    "Dimensions": [1,1280,4,6],
    "Format/Datatype": "Channel major FP32 format where channel % 4 == 0"
  },
  {
    "Name": "Reformatted Input Tensor 1 to Conv_3390 + Add_3391",
    "Location": "Device",
    "Dimensions": [1,1280,4,6],
    "Format/Datatype": "Channel major FP32 format where channel % 4 == 0"
  }],
  "Outputs": [
  {
    "Name": "onnx::Cast_4344",
    "Location": "Device",
    "Dimensions": [1,1280,4,6],
    "Format/Datatype": "Channel major FP32 format where channel % 4 == 0"
  }],
  "ParameterType": "Convolution",
  "Kernel": [1,1],
  "PaddingMode": "kEXPLICIT_ROUND_DOWN",
  "PrePadding": [0,0],
  "PostPadding": [0,0],
  "Stride": [1,1],
  "Dilation": [1,1],
  "OutMaps": 1280,
  "Groups": 1,
  "Weights": {"Type": "Float", "Count": 1638400},
  "Bias": {"Type": "Float", "Count": 1280},
  "HasSparseWeights": 0,
  "HasDynamicFilter": 0,
  "HasDynamicBias": 0,
  "HasResidual": 1,
  "ConvXAsActInputIdx": -1,
  "BiasAsActInputIdx": -1,
  "ResAsActInputIdx": -1,
  "Activation": "NONE",
  "TacticName": "sm86_xmma_gemm_f32f32_tf32f32_f32_tn_n_tilesize32x32x64_stage6_warpsize2x2x1_tensor16x8x8",
  "TacticValue": "0x000000000002038c",
  "StreamId": 0,
  "Metadata": "[ONNX Layer: Conv_3390]\u001e[ONNX Layer: Add_3391]"
},{
  "Name": "Cast_3392",
  "LayerType": "Reformat",
  "Inputs": [
  {
    "Name": "onnx::Cast_4344",
    "Location": "Device",
    "Dimensions": [1,1280,4,6],
    "Format/Datatype": "Channel major FP32 format where channel % 4 == 0"
  }],
  "Outputs": [
  {
    "Name": "input.524",
    "Location": "Device",
    "Dimensions": [1,1280,4,6],
    "Format/Datatype": "Row major linear FP32"
  }],
  "ParameterType": "Reformat",
  "Origin": "CAST",
  "TacticValue": "0x0000000000000000",
  "StreamId": 0,
  "Metadata": ""
},{
  "Name": "Reshape_3394 + (Unnamed Layer* 3842) [Shuffle]",
  "LayerType": "NoOp",
  "Inputs": [
  {
    "Name": "input.524",
    "Location": "Device",
    "Dimensions": [1,1280,4,6],
    "Format/Datatype": "Row major linear FP32"
  }],
  "Outputs": [
  {
    "Name": "(Unnamed Layer* 3842) [Shuffle]_output",
    "Location": "Device",
    "Dimensions": [1,32,960,1],
    "Format/Datatype": "Row major linear FP32"
  }],
  "TacticValue": "0x0000000000000000",
  "StreamId": 0,
  "Metadata": "[ONNX Layer: Reshape_3394]\u001e"
},{
  "Name": "InstanceNormalization_3397",
  "LayerType": "PluginV2",
  "Inputs": [
  {
    "Name": "(Unnamed Layer* 3842) [Shuffle]_output",
    "Location": "Device",
    "Dimensions": [1,32,960,1],
    "Format/Datatype": "Row major linear FP32"
  }],
  "Outputs": [
  {
    "Name": "(Unnamed Layer* 3843) [PluginV2DynamicExt]_output",
    "Location": "Device",
    "Dimensions": [1,32,960,1],
    "Format/Datatype": "Row major linear FP32"
  }],
  "PluginType": "InstanceNormalization_TRT",
  "PluginVersion": "1",
  "TacticValue": "0x0000000000000000",
  "StreamId": 0,
  "Metadata": "[ONNX Layer: InstanceNormalization_3397]"
},{
  "Name": "(Unnamed Layer* 3844) [Shuffle] + Reshape_3399",
  "LayerType": "NoOp",
  "Inputs": [
  {
    "Name": "(Unnamed Layer* 3843) [PluginV2DynamicExt]_output",
    "Location": "Device",
    "Dimensions": [1,32,960,1],
    "Format/Datatype": "Row major linear FP32"
  }],
  "Outputs": [
  {
    "Name": "onnx::Mul_4352",
    "Location": "Device",
    "Dimensions": [1,1280,4,6],
    "Format/Datatype": "Row major linear FP32"
  }],
  "TacticValue": "0x0000000000000000",
  "StreamId": 0,
  "Metadata": "[ONNX Layer: Reshape_3399]"
},{
  "Name": "onnx::Mul_4717 + (Unnamed Layer* 3848) [Shuffle] + Mul_3400 + onnx::Add_4718 + (Unnamed Layer* 3851) [Shuffle] + Add_3401",
  "LayerType": "Scale",
  "Inputs": [
  {
    "Name": "onnx::Mul_4352",
    "Location": "Device",
    "Dimensions": [1,1280,4,6],
    "Format/Datatype": "Row major linear FP32"
  }],
  "Outputs": [
  {
    "Name": "onnx::Cast_4358",
    "Location": "Device",
    "Dimensions": [1,1280,4,6],
    "Format/Datatype": "Row major linear FP32"
  }],
  "ParameterType": "Scale",
  "Mode": "CHANNEL",
  "Shift": {"Type": "Float", "Count": 1280},
  "Scale": {"Type": "Float", "Count": 1280},
  "Power": {"Type": "Float", "Count": 0},
  "Activation": "NONE",
  "ChannelAxis": 1,
  "TacticValue": "0x0000000000000000",
  "StreamId": 0,
  "Metadata": "[ONNX Layer: Mul_3400]\u001e[ONNX Layer: Add_3401]"
},{
  "Name": "Cast_3402",
  "LayerType": "NoOp",
  "Inputs": [
  {
    "Name": "onnx::Cast_4358",
    "Location": "Device",
    "Dimensions": [1,1280,4,6],
    "Format/Datatype": "Row major linear FP32"
  }],
  "Outputs": [
  {
    "Name": "input.528",
    "Location": "Device",
    "Dimensions": [1,1280,4,6],
    "Format/Datatype": "Row major linear FP32"
  }],
  "TacticValue": "0x0000000000000000",
  "StreamId": 0,
  "Metadata": ""
},{
  "Name": "PWN(PWN(Sigmoid_3403), Mul_3404)",
  "LayerType": "PointWiseV2",
  "Inputs": [
  {
    "Name": "input.528",
    "Location": "Device",
    "Dimensions": [1,1280,4,6],
    "Format/Datatype": "Row major linear FP32"
  }],
  "Outputs": [
  {
    "Name": "input.532",
    "Location": "Device",
    "Dimensions": [1,1280,4,6],
    "Format/Datatype": "Row major linear FP32"
  }],
  "ParameterType": "PointWise",
  "ParameterSubType": "PointWiseExpression",
  "NbInputArgs": 1,
  "InputArgs": ["arg0"],
  "NbOutputVars": 1,
  "OutputVars": ["var4"],
  "NbParams": 0,
  "Params": [],
  "NbLiterals": 5,
  "Literals": ["0.000000e+00f", "1.000000e+00f", "0.000000e+00f", "0.000000e+00f", "1.000000e+00f"],
  "NbOperations": 5,
  "Operations": ["auto const var0 = pwgen::iNeg(arg0);", "auto const var1 = pwgen::iExp(var0);", "auto const var2 = pwgen::iPlus(literal4, var1);", "auto const var3 = pwgen::iRcp(var2);", "auto const var4 = pwgen::iMul(arg0, var3);"],
  "TacticValue": "0x000000000000001c",
  "StreamId": 0,
  "Metadata": "[ONNX Layer: Sigmoid_3403]\u001e[ONNX Layer: Mul_3404]"
},{
  "Name": "Reformatting CopyNode for Input Tensor 0 to Conv_3405",
  "LayerType": "NoOp",
  "Inputs": [
  {
    "Name": "input.532",
    "Location": "Device",
    "Dimensions": [1,1280,4,6],
    "Format/Datatype": "Row major linear FP32"
  }],
  "Outputs": [
  {
    "Name": "Reformatted Input Tensor 0 to Conv_3405",
    "Location": "Device",
    "Dimensions": [1,1280,4,6],
    "Format/Datatype": "Row major linear FP32"
  }],
  "TacticValue": "0x0000000000000000",
  "StreamId": 0,
  "Metadata": ""
},{
  "Name": "Conv_3405",
  "LayerType": "CaskConvolution",
  "Inputs": [
  {
    "Name": "Reformatted Input Tensor 0 to Conv_3405",
    "Location": "Device",
    "Dimensions": [1,1280,4,6],
    "Format/Datatype": "Row major linear FP32"
  }],
  "Outputs": [
  {
    "Name": "onnx::Add_4362",
    "Location": "Device",
    "Dimensions": [1,1280,4,6],
    "Format/Datatype": "Row major linear FP32"
  }],
  "ParameterType": "Convolution",
  "Kernel": [3,3],
  "PaddingMode": "kEXPLICIT_ROUND_DOWN",
  "PrePadding": [1,1],
  "PostPadding": [1,1],
  "Stride": [1,1],
  "Dilation": [1,1],
  "OutMaps": 1280,
  "Groups": 1,
  "Weights": {"Type": "Float", "Count": 14745600},
  "Bias": {"Type": "Float", "Count": 1280},
  "HasSparseWeights": 0,
  "HasDynamicFilter": 0,
  "HasDynamicBias": 0,
  "HasResidual": 0,
  "ConvXAsActInputIdx": -1,
  "BiasAsActInputIdx": -1,
  "ResAsActInputIdx": -1,
  "Activation": "NONE",
  "HasBias": 1,
  "HasReLU": 0,
  "TacticName": "sm50_xmma_conv_fprop_fused_conv_act_fp32_NCHW_fp32_NCHW_KCRS_fp32_fp32_fp32_Accfloat_1_1_cC1_dC1_srcVec2_fltVec1_1_TP6_TQ8_C8_R3_S3_U1_V1",
  "TacticValue": "0xee473898b5318f6e",
  "StreamId": 0,
  "Metadata": "[ONNX Layer: Conv_3405]"
},{
  "Name": "reshape_after_Gemm_3408_copy_input",
  "LayerType": "Reformat",
  "Inputs": [
  {
    "Name": "Gemm_1879 || Gemm_2363 || Gemm_2848 || Gemm_2887 || Gemm_2926 || Gemm_3408 || Gemm_910 || Gemm_1394 || Gemm_120 || Gemm_425",
    "Location": "Device",
    "Dimensions": [1,1280,1,1],
    "Format/Datatype": "Row major linear FP32"
  }],
  "Outputs": [
  {
    "Name": "reshape_after_Gemm_3408_copy_input",
    "Location": "Device",
    "Dimensions": [1,1280,1,1],
    "Format/Datatype": "Row major linear FP32"
  }],
  "ParameterType": "Reformat",
  "Origin": "SLICE",
  "TacticValue": "0x0000000000000000",
  "StreamId": 0,
  "Metadata": "[ONNX Layer: Gemm_3408]"
},{
  "Name": "reshape_after_Gemm_3408",
  "LayerType": "NoOp",
  "Inputs": [
  {
    "Name": "reshape_after_Gemm_3408_copy_input",
    "Location": "Device",
    "Dimensions": [1,1280,1,1],
    "Format/Datatype": "Row major linear FP32"
  }],
  "Outputs": [
  {
    "Name": "onnx::Cast_4365",
    "Location": "Device",
    "Dimensions": [1,1280],
    "Format/Datatype": "Row major linear FP32"
  }],
  "TacticValue": "0x0000000000000000",
  "StreamId": 0,
  "Metadata": "[ONNX Layer: Gemm_3408]"
},{
  "Name": "Cast_3409",
  "LayerType": "NoOp",
  "Inputs": [
  {
    "Name": "onnx::Cast_4365",
    "Location": "Device",
    "Dimensions": [1,1280],
    "Format/Datatype": "Row major linear FP32"
  }],
  "Outputs": [
  {
    "Name": "onnx::Unsqueeze_4366",
    "Location": "Device",
    "Dimensions": [1,1280],
    "Format/Datatype": "Row major linear FP32"
  }],
  "TacticValue": "0x0000000000000000",
  "StreamId": 0,
  "Metadata": ""
},{
  "Name": "Unsqueeze_3411 + Unsqueeze_3413",
  "LayerType": "NoOp",
  "Inputs": [
  {
    "Name": "onnx::Unsqueeze_4366",
    "Location": "Device",
    "Dimensions": [1,1280],
    "Format/Datatype": "Row major linear FP32"
  }],
  "Outputs": [
  {
    "Name": "onnx::Add_4370",
    "Location": "Device",
    "Dimensions": [1,1280,1,1],
    "Format/Datatype": "Row major linear FP32"
  }],
  "TacticValue": "0x0000000000000000",
  "StreamId": 0,
  "Metadata": "[ONNX Layer: Unsqueeze_3411]\u001e[ONNX Layer: Unsqueeze_3413]"
},{
  "Name": "Add_3414",
  "LayerType": "ElementWise",
  "Inputs": [
  {
    "Name": "onnx::Add_4362",
    "Location": "Device",
    "Dimensions": [1,1280,4,6],
    "Format/Datatype": "Row major linear FP32"
  },
  {
    "Name": "onnx::Add_4370",
    "Location": "Device",
    "Dimensions": [1,1280,1,1],
    "Format/Datatype": "Row major linear FP32"
  }],
  "Outputs": [
  {
    "Name": "onnx::Cast_4371",
    "Location": "Device",
    "Dimensions": [1,1280,4,6],
    "Format/Datatype": "Row major linear FP32"
  }],
  "ParameterType": "ElementWise",
  "ElementWiseOperation": "SUM",
  "Activation": "NONE",
  "TacticValue": "0x0000000000000001",
  "StreamId": 0,
  "Metadata": "[ONNX Layer: Add_3414]"
},{
  "Name": "Cast_3415",
  "LayerType": "NoOp",
  "Inputs": [
  {
    "Name": "onnx::Cast_4371",
    "Location": "Device",
    "Dimensions": [1,1280,4,6],
    "Format/Datatype": "Row major linear FP32"
  }],
  "Outputs": [
  {
    "Name": "input.536",
    "Location": "Device",
    "Dimensions": [1,1280,4,6],
    "Format/Datatype": "Row major linear FP32"
  }],
  "TacticValue": "0x0000000000000000",
  "StreamId": 0,
  "Metadata": ""
},{
  "Name": "Reshape_3417 + (Unnamed Layer* 3870) [Shuffle]",
  "LayerType": "NoOp",
  "Inputs": [
  {
    "Name": "input.536",
    "Location": "Device",
    "Dimensions": [1,1280,4,6],
    "Format/Datatype": "Row major linear FP32"
  }],
  "Outputs": [
  {
    "Name": "(Unnamed Layer* 3870) [Shuffle]_output",
    "Location": "Device",
    "Dimensions": [1,32,960,1],
    "Format/Datatype": "Row major linear FP32"
  }],
  "TacticValue": "0x0000000000000000",
  "StreamId": 0,
  "Metadata": "[ONNX Layer: Reshape_3417]\u001e"
},{
  "Name": "InstanceNormalization_3420",
  "LayerType": "PluginV2",
  "Inputs": [
  {
    "Name": "(Unnamed Layer* 3870) [Shuffle]_output",
    "Location": "Device",
    "Dimensions": [1,32,960,1],
    "Format/Datatype": "Row major linear FP32"
  }],
  "Outputs": [
  {
    "Name": "(Unnamed Layer* 3871) [PluginV2DynamicExt]_output",
    "Location": "Device",
    "Dimensions": [1,32,960,1],
    "Format/Datatype": "Row major linear FP32"
  }],
  "PluginType": "InstanceNormalization_TRT",
  "PluginVersion": "1",
  "TacticValue": "0x0000000000000000",
  "StreamId": 0,
  "Metadata": "[ONNX Layer: InstanceNormalization_3420]"
},{
  "Name": "(Unnamed Layer* 3872) [Shuffle] + Reshape_3422",
  "LayerType": "NoOp",
  "Inputs": [
  {
    "Name": "(Unnamed Layer* 3871) [PluginV2DynamicExt]_output",
    "Location": "Device",
    "Dimensions": [1,32,960,1],
    "Format/Datatype": "Row major linear FP32"
  }],
  "Outputs": [
  {
    "Name": "onnx::Mul_4379",
    "Location": "Device",
    "Dimensions": [1,1280,4,6],
    "Format/Datatype": "Row major linear FP32"
  }],
  "TacticValue": "0x0000000000000000",
  "StreamId": 0,
  "Metadata": "[ONNX Layer: Reshape_3422]"
},{
  "Name": "onnx::Mul_4719 + (Unnamed Layer* 3876) [Shuffle] + Mul_3423 + onnx::Add_4720 + (Unnamed Layer* 3879) [Shuffle] + Add_3424",
  "LayerType": "Scale",
  "Inputs": [
  {
    "Name": "onnx::Mul_4379",
    "Location": "Device",
    "Dimensions": [1,1280,4,6],
    "Format/Datatype": "Row major linear FP32"
  }],
  "Outputs": [
  {
    "Name": "onnx::Cast_4385",
    "Location": "Device",
    "Dimensions": [1,1280,4,6],
    "Format/Datatype": "Row major linear FP32"
  }],
  "ParameterType": "Scale",
  "Mode": "CHANNEL",
  "Shift": {"Type": "Float", "Count": 1280},
  "Scale": {"Type": "Float", "Count": 1280},
  "Power": {"Type": "Float", "Count": 0},
  "Activation": "NONE",
  "ChannelAxis": 1,
  "TacticValue": "0x0000000000000000",
  "StreamId": 0,
  "Metadata": "[ONNX Layer: Mul_3423]\u001e[ONNX Layer: Add_3424]"
},{
  "Name": "Cast_3425",
  "LayerType": "NoOp",
  "Inputs": [
  {
    "Name": "onnx::Cast_4385",
    "Location": "Device",
    "Dimensions": [1,1280,4,6],
    "Format/Datatype": "Row major linear FP32"
  }],
  "Outputs": [
  {
    "Name": "input.540",
    "Location": "Device",
    "Dimensions": [1,1280,4,6],
    "Format/Datatype": "Row major linear FP32"
  }],
  "TacticValue": "0x0000000000000000",
  "StreamId": 0,
  "Metadata": ""
},{
  "Name": "PWN(PWN(Sigmoid_3426), Mul_3427)",
  "LayerType": "PointWiseV2",
  "Inputs": [
  {
    "Name": "input.540",
    "Location": "Device",
    "Dimensions": [1,1280,4,6],
    "Format/Datatype": "Row major linear FP32"
  }],
  "Outputs": [
  {
    "Name": "input.544",
    "Location": "Device",
    "Dimensions": [1,1280,4,6],
    "Format/Datatype": "Row major linear FP32"
  }],
  "ParameterType": "PointWise",
  "ParameterSubType": "PointWiseExpression",
  "NbInputArgs": 1,
  "InputArgs": ["arg0"],
  "NbOutputVars": 1,
  "OutputVars": ["var4"],
  "NbParams": 0,
  "Params": [],
  "NbLiterals": 5,
  "Literals": ["0.000000e+00f", "1.000000e+00f", "0.000000e+00f", "0.000000e+00f", "1.000000e+00f"],
  "NbOperations": 5,
  "Operations": ["auto const var0 = pwgen::iNeg(arg0);", "auto const var1 = pwgen::iExp(var0);", "auto const var2 = pwgen::iPlus(literal4, var1);", "auto const var3 = pwgen::iRcp(var2);", "auto const var4 = pwgen::iMul(arg0, var3);"],
  "TacticValue": "0x000000000000001c",
  "StreamId": 0,
  "Metadata": "[ONNX Layer: Sigmoid_3426]\u001e[ONNX Layer: Mul_3427]"
},{
  "Name": "Reformatting CopyNode for Input Tensor 0 to Conv_3428 + Add_3429",
  "LayerType": "NoOp",
  "Inputs": [
  {
    "Name": "input.544",
    "Location": "Device",
    "Dimensions": [1,1280,4,6],
    "Format/Datatype": "Row major linear FP32"
  }],
  "Outputs": [
  {
    "Name": "Reformatted Input Tensor 0 to Conv_3428 + Add_3429",
    "Location": "Device",
    "Dimensions": [1,1280,4,6],
    "Format/Datatype": "Row major linear FP32"
  }],
  "TacticValue": "0x0000000000000000",
  "StreamId": 0,
  "Metadata": ""
},{
  "Name": "Conv_3428 + Add_3429",
  "LayerType": "CaskConvolution",
  "Inputs": [
  {
    "Name": "Reformatted Input Tensor 0 to Conv_3428 + Add_3429",
    "Location": "Device",
    "Dimensions": [1,1280,4,6],
    "Format/Datatype": "Row major linear FP32"
  },
  {
    "Name": "input.524",
    "Location": "Device",
    "Dimensions": [1,1280,4,6],
    "Format/Datatype": "Row major linear FP32"
  }],
  "Outputs": [
  {
    "Name": "input.548",
    "Location": "Device",
    "Dimensions": [1,1280,4,6],
    "Format/Datatype": "Row major linear FP32"
  }],
  "ParameterType": "Convolution",
  "Kernel": [3,3],
  "PaddingMode": "kEXPLICIT_ROUND_DOWN",
  "PrePadding": [1,1],
  "PostPadding": [1,1],
  "Stride": [1,1],
  "Dilation": [1,1],
  "OutMaps": 1280,
  "Groups": 1,
  "Weights": {"Type": "Float", "Count": 14745600},
  "Bias": {"Type": "Float", "Count": 1280},
  "HasSparseWeights": 0,
  "HasDynamicFilter": 0,
  "HasDynamicBias": 0,
  "HasResidual": 1,
  "ConvXAsActInputIdx": -1,
  "BiasAsActInputIdx": -1,
  "ResAsActInputIdx": -1,
  "Activation": "NONE",
  "HasBias": 1,
  "HasReLU": 0,
  "TacticName": "ampere_scudnn_winograd_128x128_ldg1_ldg4_relu_tile148t_nt_v1",
  "TacticValue": "0x94119b4c514b211a",
  "StreamId": 0,
  "Metadata": "[ONNX Layer: Conv_3428]\u001e[ONNX Layer: Add_3429]"
},{
  "Name": "Reformatting CopyNode for Input Tensor 0 to Conv_3430",
  "LayerType": "Reformat",
  "Inputs": [
  {
    "Name": "input.548",
    "Location": "Device",
    "Dimensions": [1,1280,4,6],
    "Format/Datatype": "Row major linear FP32"
  }],
  "Outputs": [
  {
    "Name": "Reformatted Input Tensor 0 to Conv_3430",
    "Location": "Device",
    "Dimensions": [1,1280,4,6],
    "Format/Datatype": "Channel major FP32 format where channel % 4 == 0"
  }],
  "ParameterType": "Reformat",
  "Origin": "REFORMAT",
  "TacticValue": "0x0000000000000000",
  "StreamId": 0,
  "Metadata": ""
},{
  "Name": "Conv_3430",
  "LayerType": "CaskGemmConvolution",
  "Inputs": [
  {
    "Name": "Reformatted Input Tensor 0 to Conv_3430",
    "Location": "Device",
    "Dimensions": [1,1280,4,6],
    "Format/Datatype": "Channel major FP32 format where channel % 4 == 0"
  }],
  "Outputs": [
  {
    "Name": "Reformatted Output Tensor 0 to Conv_3430",
    "Location": "Device",
    "Dimensions": [1,1280,4,6],
    "Format/Datatype": "Channel major FP32 format where channel % 4 == 0"
  }],
  "ParameterType": "Convolution",
  "Kernel": [1,1],
  "PaddingMode": "kEXPLICIT_ROUND_DOWN",
  "PrePadding": [0,0],
  "PostPadding": [0,0],
  "Stride": [1,1],
  "Dilation": [1,1],
  "OutMaps": 1280,
  "Groups": 1,
  "Weights": {"Type": "Float", "Count": 1638400},
  "Bias": {"Type": "Float", "Count": 1280},
  "HasSparseWeights": 0,
  "HasDynamicFilter": 0,
  "HasDynamicBias": 0,
  "HasResidual": 0,
  "ConvXAsActInputIdx": -1,
  "BiasAsActInputIdx": -1,
  "ResAsActInputIdx": -1,
  "Activation": "NONE",
  "TacticName": "sm86_xmma_gemm_f32f32_tf32f32_f32_tn_n_tilesize32x32x64_stage6_warpsize2x2x1_tensor16x8x8",
  "TacticValue": "0x000000000002038c",
  "StreamId": 0,
  "Metadata": "[ONNX Layer: Conv_3430]"
},{
  "Name": "Reformatting CopyNode for Output Tensor 0 to Conv_3430",
  "LayerType": "Reformat",
  "Inputs": [
  {
    "Name": "Reformatted Output Tensor 0 to Conv_3430",
    "Location": "Device",
    "Dimensions": [1,1280,4,6],
    "Format/Datatype": "Channel major FP32 format where channel % 4 == 0"
  }],
  "Outputs": [
  {
    "Name": "4391",
    "Location": "Device",
    "Dimensions": [1,1280,4,6],
    "Format/Datatype": "Row major linear FP32"
  }],
  "ParameterType": "Reformat",
  "Origin": "REFORMAT",
  "TacticValue": "0x0000000000000000",
  "StreamId": 0,
  "Metadata": ""
}],
"Bindings": ["onnx::Cast_0"
,"input.3"
,"timesteps"
,"onnx::MatMul_3"
,"381"
,"853"
,"1418"
,"1420"
,"1986"
,"2551"
,"2553"
,"3119"
,"3684"
,"3686"
,"3733"
,"3780"
,"4391"
]}
