{"Layers": [{
  "Name": "/Constant_1_output_0",
  "LayerType": "Constant",
  "Inputs": [],
  "Outputs": [
  {
    "Name": "(Unnamed Layer* 2) [Constant]_output",
    "Location": "Device",
    "Dimensions": [1,160],
    "Format/Datatype": "Row major linear FP16 format"
  }],
  "ParameterType": "Constant",
  "weights": {"Type": "Float", "Count": 160},
  "dimensions": [1,160],
  "TacticValue": "0x0000000000000000",
  "StreamId": 0,
  "Metadata": ""
},{
  "Name": "/Unsqueeze",
  "LayerType": "NoOp",
  "Inputs": [
  {
    "Name": "timesteps",
    "Location": "Device",
    "Dimensions": [1],
    "Format/Datatype": "Row major linear Int32"
  }],
  "Outputs": [
  {
    "Name": "/Unsqueeze_output_0",
    "Location": "Device",
    "Dimensions": [1,1],
    "Format/Datatype": "Row major linear Int32"
  }],
  "TacticValue": "0x0000000000000000",
  "StreamId": 0,
  "Metadata": "[ONNX Layer: /Unsqueeze]"
},{
  "Name": "/Cast",
  "LayerType": "MyelinReformat",
  "Inputs": [
  {
    "Name": "/Unsqueeze_output_0",
    "Location": "Device",
    "Dimensions": [1,1],
    "Format/Datatype": "Row major linear Int32"
  }],
  "Outputs": [
  {
    "Name": "/Cast_output_0",
    "Location": "Device",
    "Dimensions": [1,1],
    "Format/Datatype": "Row major linear FP16 format"
  }],
  "TacticValue": "0x0000000000000000",
  "StreamId": 0,
  "Metadata": ""
},{
  "Name": "/Mul",
  "LayerType": "ElementWise",
  "Inputs": [
  {
    "Name": "/Cast_output_0",
    "Location": "Device",
    "Dimensions": [1,1],
    "Format/Datatype": "Row major linear FP16 format"
  },
  {
    "Name": "(Unnamed Layer* 2) [Constant]_output",
    "Location": "Device",
    "Dimensions": [1,160],
    "Format/Datatype": "Row major linear FP16 format"
  }],
  "Outputs": [
  {
    "Name": "/Mul_output_0",
    "Location": "Device",
    "Dimensions": [1,160],
    "Format/Datatype": "Row major linear FP16 format"
  }],
  "ParameterType": "ElementWise",
  "ElementWiseOperation": "PROD",
  "Activation": "NONE",
  "TacticValue": "0x0000000000000001",
  "StreamId": 0,
  "Metadata": "[ONNX Layer: /Mul]"
},{
  "Name": "/Cast_1",
  "LayerType": "MyelinReformat",
  "Inputs": [
  {
    "Name": "onnx::Cast_0",
    "Location": "Device",
    "Dimensions": [1,4,32,48],
    "Format/Datatype": "Row major linear FP32"
  }],
  "Outputs": [
  {
    "Name": "/Cast_1_output_0",
    "Location": "Device",
    "Dimensions": [1,4,32,48],
    "Format/Datatype": "Channel major FP16 format where channel % 4 == 0"
  }],
  "TacticValue": "0x0000000000000000",
  "StreamId": 0,
  "Metadata": ""
},{
  "Name": "PWN(/Sin)",
  "LayerType": "PointWiseV2",
  "Inputs": [
  {
    "Name": "/Mul_output_0",
    "Location": "Device",
    "Dimensions": [1,160],
    "Format/Datatype": "Row major linear FP16 format"
  }],
  "Outputs": [
  {
    "Name": "/Concat_output_0",
    "Location": "Device",
    "Dimensions": [1,160],
    "Format/Datatype": "Row major linear FP16 format"
  }],
  "ParameterType": "PointWise",
  "ParameterSubType": "PointWiseExpression",
  "NbInputArgs": 1,
  "InputArgs": ["arg0"],
  "NbOutputVars": 1,
  "OutputVars": ["var0"],
  "NbParams": 0,
  "Params": [],
  "NbLiterals": 0,
  "Literals": [],
  "NbOperations": 1,
  "Operations": ["auto const var0 = pwgen::iSin(arg0);"],
  "TacticValue": "0x000000000000001c",
  "StreamId": 0,
  "Metadata": "[ONNX Layer: /Sin]"
},{
  "Name": "PWN(/Cos)",
  "LayerType": "PointWiseV2",
  "Inputs": [
  {
    "Name": "/Mul_output_0",
    "Location": "Device",
    "Dimensions": [1,160],
    "Format/Datatype": "Row major linear FP16 format"
  }],
  "Outputs": [
  {
    "Name": "/Concat_output_0",
    "Location": "Device",
    "Dimensions": [1,160],
    "Format/Datatype": "Row major linear FP16 format"
  }],
  "ParameterType": "PointWise",
  "ParameterSubType": "PointWiseExpression",
  "NbInputArgs": 1,
  "InputArgs": ["arg0"],
  "NbOutputVars": 1,
  "OutputVars": ["var0"],
  "NbParams": 0,
  "Params": [],
  "NbLiterals": 0,
  "Literals": [],
  "NbOperations": 1,
  "Operations": ["auto const var0 = pwgen::iCos(arg0);"],
  "TacticValue": "0x000000000000001c",
  "StreamId": 0,
  "Metadata": "[ONNX Layer: /Cos]"
},{
  "Name": "Reformatting CopyNode for Input Tensor 0 to /input_hint_block/input_hint_block.0/Conv",
  "LayerType": "Reformat",
  "Inputs": [
  {
    "Name": "input.3",
    "Location": "Device",
    "Dimensions": [1,3,256,384],
    "Format/Datatype": "Row major linear FP32"
  }],
  "Outputs": [
  {
    "Name": "Reformatted Input Tensor 0 to /input_hint_block/input_hint_block.0/Conv",
    "Location": "Device",
    "Dimensions": [1,3,256,384],
    "Format/Datatype": "Channel major FP16 format where channel % 4 == 0"
  }],
  "ParameterType": "Reformat",
  "Origin": "REFORMAT",
  "TacticValue": "0x0000000000000000",
  "StreamId": 0,
  "Metadata": ""
},{
  "Name": "/input_hint_block/input_hint_block.0/Conv",
  "LayerType": "CaskConvolution",
  "Inputs": [
  {
    "Name": "Reformatted Input Tensor 0 to /input_hint_block/input_hint_block.0/Conv",
    "Location": "Device",
    "Dimensions": [1,3,256,384],
    "Format/Datatype": "Channel major FP16 format where channel % 4 == 0"
  }],
  "Outputs": [
  {
    "Name": "/input_hint_block/input_hint_block.0/Conv_output_0",
    "Location": "Device",
    "Dimensions": [1,16,256,384],
    "Format/Datatype": "Channel major FP16 format where channel % 8 == 0"
  }],
  "ParameterType": "Convolution",
  "Kernel": [3,3],
  "PaddingMode": "kEXPLICIT_ROUND_DOWN",
  "PrePadding": [1,1],
  "PostPadding": [1,1],
  "Stride": [1,1],
  "Dilation": [1,1],
  "OutMaps": 16,
  "Groups": 1,
  "Weights": {"Type": "Half", "Count": 432},
  "Bias": {"Type": "Half", "Count": 16},
  "HasSparseWeights": 0,
  "HasDynamicFilter": 0,
  "HasDynamicBias": 0,
  "HasResidual": 0,
  "ConvXAsActInputIdx": -1,
  "BiasAsActInputIdx": -1,
  "ResAsActInputIdx": -1,
  "Activation": "NONE",
  "HasBias": 1,
  "HasReLU": 0,
  "TacticName": "sm80_xmma_fprop_implicit_gemm_indexed_wo_smem_f16f16_f16f16_f16_nhwckrsc_nhwc_tilesize128x16x64_stage1_warpsize4x1x1_g1_tensor16x8x16_aligna8_alignc8",
  "TacticValue": "0x112767cf498572ea",
  "StreamId": 0,
  "Metadata": "[ONNX Layer: /input_hint_block/input_hint_block.0/Conv]"
},{
  "Name": "Reformatting CopyNode for Input Tensor 0 to PWN(PWN(/input_hint_block/input_hint_block.1/Sigmoid), /input_hint_block/input_hint_block.1/Mul)",
  "LayerType": "NoOp",
  "Inputs": [
  {
    "Name": "/input_hint_block/input_hint_block.0/Conv_output_0",
    "Location": "Device",
    "Dimensions": [1,16,256,384],
    "Format/Datatype": "Channel major FP16 format where channel % 8 == 0"
  }],
  "Outputs": [
  {
    "Name": "Reformatted Input Tensor 0 to PWN(PWN(/input_hint_block/input_hint_block.1/Sigmoid), /input_hint_block/input_hint_block.1/Mul)",
    "Location": "Device",
    "Dimensions": [1,16,256,384],
    "Format/Datatype": "Channel major FP16 format where channel % 2 == 0"
  }],
  "TacticValue": "0x0000000000000000",
  "StreamId": 0,
  "Metadata": ""
},{
  "Name": "PWN(PWN(/input_hint_block/input_hint_block.1/Sigmoid), /input_hint_block/input_hint_block.1/Mul)",
  "LayerType": "PointWiseV2",
  "Inputs": [
  {
    "Name": "Reformatted Input Tensor 0 to PWN(PWN(/input_hint_block/input_hint_block.1/Sigmoid), /input_hint_block/input_hint_block.1/Mul)",
    "Location": "Device",
    "Dimensions": [1,16,256,384],
    "Format/Datatype": "Channel major FP16 format where channel % 2 == 0"
  }],
  "Outputs": [
  {
    "Name": "/input_hint_block/input_hint_block.1/Mul_output_0",
    "Location": "Device",
    "Dimensions": [1,16,256,384],
    "Format/Datatype": "Channel major FP16 format where channel % 2 == 0"
  }],
  "ParameterType": "PointWise",
  "ParameterSubType": "PointWiseExpression",
  "NbInputArgs": 1,
  "InputArgs": ["arg0"],
  "NbOutputVars": 1,
  "OutputVars": ["var4"],
  "NbParams": 0,
  "Params": [],
  "NbLiterals": 5,
  "Literals": ["0.000000e+00f", "1.000000e+00f", "0.000000e+00f", "0.000000e+00f", "5.000000e-01f"],
  "NbOperations": 5,
  "Operations": ["auto const var0 = pwgen::iMul(literal4, arg0);", "auto const var1 = pwgen::iTanh(var0);", "auto const var2 = pwgen::iMul(var1, literal4);", "auto const var3 = pwgen::iPlus(var2, literal4);", "auto const var4 = pwgen::iMul(arg0, var3);"],
  "TacticValue": "0x0000000000000013",
  "StreamId": 0,
  "Metadata": "[ONNX Layer: /input_hint_block/input_hint_block.1/Sigmoid]\u001e[ONNX Layer: /input_hint_block/input_hint_block.1/Mul]"
},{
  "Name": "Reformatting CopyNode for Input Tensor 0 to /input_hint_block/input_hint_block.2/Conv + PWN(PWN(/input_hint_block/input_hint_block.3/Sigmoid), /input_hint_block/input_hint_block.3/Mul)",
  "LayerType": "NoOp",
  "Inputs": [
  {
    "Name": "/input_hint_block/input_hint_block.1/Mul_output_0",
    "Location": "Device",
    "Dimensions": [1,16,256,384],
    "Format/Datatype": "Channel major FP16 format where channel % 2 == 0"
  }],
  "Outputs": [
  {
    "Name": "Reformatted Input Tensor 0 to /input_hint_block/input_hint_block.2/Conv + PWN(PWN(/input_hint_block/input_hint_block.3/Sigmoid), /input_hint_block/input_hint_block.3/Mul)",
    "Location": "Device",
    "Dimensions": [1,16,256,384],
    "Format/Datatype": "Channel major FP16 format where channel % 8 == 0"
  }],
  "TacticValue": "0x0000000000000000",
  "StreamId": 0,
  "Metadata": ""
},{
  "Name": "/input_hint_block/input_hint_block.2/Conv + PWN(PWN(/input_hint_block/input_hint_block.3/Sigmoid), /input_hint_block/input_hint_block.3/Mul)",
  "LayerType": "CaskConvolution",
  "Inputs": [
  {
    "Name": "Reformatted Input Tensor 0 to /input_hint_block/input_hint_block.2/Conv + PWN(PWN(/input_hint_block/input_hint_block.3/Sigmoid), /input_hint_block/input_hint_block.3/Mul)",
    "Location": "Device",
    "Dimensions": [1,16,256,384],
    "Format/Datatype": "Channel major FP16 format where channel % 8 == 0"
  }],
  "Outputs": [
  {
    "Name": "/input_hint_block/input_hint_block.3/Mul_output_0",
    "Location": "Device",
    "Dimensions": [1,16,256,384],
    "Format/Datatype": "Channel major FP16 format where channel % 8 == 0"
  }],
  "ParameterType": "Convolution",
  "Kernel": [3,3],
  "PaddingMode": "kEXPLICIT_ROUND_DOWN",
  "PrePadding": [1,1],
  "PostPadding": [1,1],
  "Stride": [1,1],
  "Dilation": [1,1],
  "OutMaps": 16,
  "Groups": 1,
  "Weights": {"Type": "Half", "Count": 2304},
  "Bias": {"Type": "Half", "Count": 16},
  "HasSparseWeights": 0,
  "HasDynamicFilter": 0,
  "HasDynamicBias": 0,
  "HasResidual": 0,
  "ConvXAsActInputIdx": -1,
  "BiasAsActInputIdx": -1,
  "ResAsActInputIdx": -1,
  "Activation": "GENERIC",
  "ParameterSubType": "PointWiseExpression",
  "NbPointWiseExpressionInputArgs": 1,
  "PointWiseExpressionInputArgs": ["arg0"],
  "NbPointWiseExpressionOutputVars": 1,
  "PointWiseExpressionOutputVars": ["var4"],
  "NbPointWiseExpressionParams": 0,
  "PointWiseExpressionParams": [],
  "NbPointWiseExpressionLiterals": 5,
  "PointWiseExpressionLiterals": ["0.000000e+00f", "1.000000e+00f", "0.000000e+00f", "0.000000e+00f", "5.000000e-01f"],
  "NbPointWiseExpressionOperations": 5,
  "PointWiseExpressionOperations": ["auto const var0 = pwgen::iMul(literal4, arg0);", "auto const var1 = pwgen::iTanh(var0);", "auto const var2 = pwgen::iMul(var1, literal4);", "auto const var3 = pwgen::iPlus(var2, literal4);", "auto const var4 = pwgen::iMul(arg0, var3);"],
  "HasBias": 1,
  "HasReLU": 0,
  "TacticName": "sm80_xmma_fprop_implicit_gemm_indexed_wo_smem_f16f16_f16f16_f16_nhwckrsc_nhwc_tilesize128x16x64_stage1_warpsize4x1x1_g1_tensor16x8x16_alignc4",
  "TacticValue": "0xa5a46bfbd719d757",
  "StreamId": 0,
  "Metadata": "[ONNX Layer: /input_hint_block/input_hint_block.2/Conv]\u001e[ONNX Layer: /input_hint_block/input_hint_block.3/Sigmoid]\u001e[ONNX Layer: /input_hint_block/input_hint_block.3/Mul]"
},{
  "Name": "/input_hint_block/input_hint_block.4/Conv + PWN(PWN(/input_hint_block/input_hint_block.5/Sigmoid), /input_hint_block/input_hint_block.5/Mul)",
  "LayerType": "CaskConvolution",
  "Inputs": [
  {
    "Name": "/input_hint_block/input_hint_block.3/Mul_output_0",
    "Location": "Device",
    "Dimensions": [1,16,256,384],
    "Format/Datatype": "Channel major FP16 format where channel % 8 == 0"
  }],
  "Outputs": [
  {
    "Name": "/input_hint_block/input_hint_block.5/Mul_output_0",
    "Location": "Device",
    "Dimensions": [1,32,128,192],
    "Format/Datatype": "Channel major FP16 format where channel % 8 == 0"
  }],
  "ParameterType": "Convolution",
  "Kernel": [3,3],
  "PaddingMode": "kEXPLICIT_ROUND_DOWN",
  "PrePadding": [1,1],
  "PostPadding": [1,1],
  "Stride": [2,2],
  "Dilation": [1,1],
  "OutMaps": 32,
  "Groups": 1,
  "Weights": {"Type": "Half", "Count": 4608},
  "Bias": {"Type": "Half", "Count": 32},
  "HasSparseWeights": 0,
  "HasDynamicFilter": 0,
  "HasDynamicBias": 0,
  "HasResidual": 0,
  "ConvXAsActInputIdx": -1,
  "BiasAsActInputIdx": -1,
  "ResAsActInputIdx": -1,
  "Activation": "GENERIC",
  "ParameterSubType": "PointWiseExpression",
  "NbPointWiseExpressionInputArgs": 1,
  "PointWiseExpressionInputArgs": ["arg0"],
  "NbPointWiseExpressionOutputVars": 1,
  "PointWiseExpressionOutputVars": ["var4"],
  "NbPointWiseExpressionParams": 0,
  "PointWiseExpressionParams": [],
  "NbPointWiseExpressionLiterals": 5,
  "PointWiseExpressionLiterals": ["0.000000e+00f", "1.000000e+00f", "0.000000e+00f", "0.000000e+00f", "5.000000e-01f"],
  "NbPointWiseExpressionOperations": 5,
  "PointWiseExpressionOperations": ["auto const var0 = pwgen::iMul(literal4, arg0);", "auto const var1 = pwgen::iTanh(var0);", "auto const var2 = pwgen::iMul(var1, literal4);", "auto const var3 = pwgen::iPlus(var2, literal4);", "auto const var4 = pwgen::iMul(arg0, var3);"],
  "HasBias": 1,
  "HasReLU": 0,
  "TacticName": "sm80_xmma_fprop_implicit_gemm_indexed_wo_smem_f16f16_f16f16_f16_nhwckrsc_nhwc_tilesize128x32x64_stage1_warpsize4x1x1_g1_tensor16x8x16_alignc4",
  "TacticValue": "0x9785ceb86b4122d6",
  "StreamId": 0,
  "Metadata": "[ONNX Layer: /input_hint_block/input_hint_block.4/Conv]\u001e[ONNX Layer: /input_hint_block/input_hint_block.5/Sigmoid]\u001e[ONNX Layer: /input_hint_block/input_hint_block.5/Mul]"
},{
  "Name": "/input_hint_block/input_hint_block.6/Conv + PWN(PWN(/input_hint_block/input_hint_block.7/Sigmoid), /input_hint_block/input_hint_block.7/Mul)",
  "LayerType": "CaskConvolution",
  "Inputs": [
  {
    "Name": "/input_hint_block/input_hint_block.5/Mul_output_0",
    "Location": "Device",
    "Dimensions": [1,32,128,192],
    "Format/Datatype": "Channel major FP16 format where channel % 8 == 0"
  }],
  "Outputs": [
  {
    "Name": "/input_hint_block/input_hint_block.7/Mul_output_0",
    "Location": "Device",
    "Dimensions": [1,32,128,192],
    "Format/Datatype": "Channel major FP16 format where channel % 8 == 0"
  }],
  "ParameterType": "Convolution",
  "Kernel": [3,3],
  "PaddingMode": "kEXPLICIT_ROUND_DOWN",
  "PrePadding": [1,1],
  "PostPadding": [1,1],
  "Stride": [1,1],
  "Dilation": [1,1],
  "OutMaps": 32,
  "Groups": 1,
  "Weights": {"Type": "Half", "Count": 9216},
  "Bias": {"Type": "Half", "Count": 32},
  "HasSparseWeights": 0,
  "HasDynamicFilter": 0,
  "HasDynamicBias": 0,
  "HasResidual": 0,
  "ConvXAsActInputIdx": -1,
  "BiasAsActInputIdx": -1,
  "ResAsActInputIdx": -1,
  "Activation": "GENERIC",
  "ParameterSubType": "PointWiseExpression",
  "NbPointWiseExpressionInputArgs": 1,
  "PointWiseExpressionInputArgs": ["arg0"],
  "NbPointWiseExpressionOutputVars": 1,
  "PointWiseExpressionOutputVars": ["var4"],
  "NbPointWiseExpressionParams": 0,
  "PointWiseExpressionParams": [],
  "NbPointWiseExpressionLiterals": 5,
  "PointWiseExpressionLiterals": ["0.000000e+00f", "1.000000e+00f", "0.000000e+00f", "0.000000e+00f", "5.000000e-01f"],
  "NbPointWiseExpressionOperations": 5,
  "PointWiseExpressionOperations": ["auto const var0 = pwgen::iMul(literal4, arg0);", "auto const var1 = pwgen::iTanh(var0);", "auto const var2 = pwgen::iMul(var1, literal4);", "auto const var3 = pwgen::iPlus(var2, literal4);", "auto const var4 = pwgen::iMul(arg0, var3);"],
  "HasBias": 1,
  "HasReLU": 0,
  "TacticName": "sm80_xmma_fprop_implicit_gemm_indexed_wo_smem_f16f16_f16f16_f16_nhwckrsc_nhwc_tilesize128x32x64_stage1_warpsize4x1x1_g1_tensor16x8x16_alignc8",
  "TacticValue": "0x1bf48a356bd0c083",
  "StreamId": 0,
  "Metadata": "[ONNX Layer: /input_hint_block/input_hint_block.6/Conv]\u001e[ONNX Layer: /input_hint_block/input_hint_block.7/Sigmoid]\u001e[ONNX Layer: /input_hint_block/input_hint_block.7/Mul]"
},{
  "Name": "/input_hint_block/input_hint_block.8/Conv + PWN(PWN(/input_hint_block/input_hint_block.9/Sigmoid), /input_hint_block/input_hint_block.9/Mul)",
  "LayerType": "CaskConvolution",
  "Inputs": [
  {
    "Name": "/input_hint_block/input_hint_block.7/Mul_output_0",
    "Location": "Device",
    "Dimensions": [1,32,128,192],
    "Format/Datatype": "Channel major FP16 format where channel % 8 == 0"
  }],
  "Outputs": [
  {
    "Name": "/input_hint_block/input_hint_block.9/Mul_output_0",
    "Location": "Device",
    "Dimensions": [1,96,64,96],
    "Format/Datatype": "Channel major FP16 format where channel % 8 == 0"
  }],
  "ParameterType": "Convolution",
  "Kernel": [3,3],
  "PaddingMode": "kEXPLICIT_ROUND_DOWN",
  "PrePadding": [1,1],
  "PostPadding": [1,1],
  "Stride": [2,2],
  "Dilation": [1,1],
  "OutMaps": 96,
  "Groups": 1,
  "Weights": {"Type": "Half", "Count": 27648},
  "Bias": {"Type": "Half", "Count": 96},
  "HasSparseWeights": 0,
  "HasDynamicFilter": 0,
  "HasDynamicBias": 0,
  "HasResidual": 0,
  "ConvXAsActInputIdx": -1,
  "BiasAsActInputIdx": -1,
  "ResAsActInputIdx": -1,
  "Activation": "GENERIC",
  "ParameterSubType": "PointWiseExpression",
  "NbPointWiseExpressionInputArgs": 1,
  "PointWiseExpressionInputArgs": ["arg0"],
  "NbPointWiseExpressionOutputVars": 1,
  "PointWiseExpressionOutputVars": ["var4"],
  "NbPointWiseExpressionParams": 0,
  "PointWiseExpressionParams": [],
  "NbPointWiseExpressionLiterals": 5,
  "PointWiseExpressionLiterals": ["0.000000e+00f", "1.000000e+00f", "0.000000e+00f", "0.000000e+00f", "5.000000e-01f"],
  "NbPointWiseExpressionOperations": 5,
  "PointWiseExpressionOperations": ["auto const var0 = pwgen::iMul(literal4, arg0);", "auto const var1 = pwgen::iTanh(var0);", "auto const var2 = pwgen::iMul(var1, literal4);", "auto const var3 = pwgen::iPlus(var2, literal4);", "auto const var4 = pwgen::iMul(arg0, var3);"],
  "HasBias": 1,
  "HasReLU": 0,
  "TacticName": "sm80_xmma_fprop_implicit_gemm_f16f16_f16f16_f16_nhwckrsc_nhwc_tilesize128x32x32_stage4_warpsize4x1x1_g1_tensor16x8x16_t1r3s3_linkable",
  "TacticValue": "0xecff17b04e8a0aaf",
  "StreamId": 0,
  "Metadata": "[ONNX Layer: /input_hint_block/input_hint_block.8/Conv]\u001e[ONNX Layer: /input_hint_block/input_hint_block.9/Sigmoid]\u001e[ONNX Layer: /input_hint_block/input_hint_block.9/Mul]"
},{
  "Name": "/input_hint_block/input_hint_block.10/Conv + PWN(PWN(/input_hint_block/input_hint_block.11/Sigmoid), /input_hint_block/input_hint_block.11/Mul)",
  "LayerType": "CaskConvolution",
  "Inputs": [
  {
    "Name": "/input_hint_block/input_hint_block.9/Mul_output_0",
    "Location": "Device",
    "Dimensions": [1,96,64,96],
    "Format/Datatype": "Channel major FP16 format where channel % 8 == 0"
  }],
  "Outputs": [
  {
    "Name": "/input_hint_block/input_hint_block.11/Mul_output_0",
    "Location": "Device",
    "Dimensions": [1,96,64,96],
    "Format/Datatype": "Channel major FP16 format where channel % 8 == 0"
  }],
  "ParameterType": "Convolution",
  "Kernel": [3,3],
  "PaddingMode": "kEXPLICIT_ROUND_DOWN",
  "PrePadding": [1,1],
  "PostPadding": [1,1],
  "Stride": [1,1],
  "Dilation": [1,1],
  "OutMaps": 96,
  "Groups": 1,
  "Weights": {"Type": "Half", "Count": 82944},
  "Bias": {"Type": "Half", "Count": 96},
  "HasSparseWeights": 0,
  "HasDynamicFilter": 0,
  "HasDynamicBias": 0,
  "HasResidual": 0,
  "ConvXAsActInputIdx": -1,
  "BiasAsActInputIdx": -1,
  "ResAsActInputIdx": -1,
  "Activation": "GENERIC",
  "ParameterSubType": "PointWiseExpression",
  "NbPointWiseExpressionInputArgs": 1,
  "PointWiseExpressionInputArgs": ["arg0"],
  "NbPointWiseExpressionOutputVars": 1,
  "PointWiseExpressionOutputVars": ["var4"],
  "NbPointWiseExpressionParams": 0,
  "PointWiseExpressionParams": [],
  "NbPointWiseExpressionLiterals": 5,
  "PointWiseExpressionLiterals": ["0.000000e+00f", "1.000000e+00f", "0.000000e+00f", "0.000000e+00f", "5.000000e-01f"],
  "NbPointWiseExpressionOperations": 5,
  "PointWiseExpressionOperations": ["auto const var0 = pwgen::iMul(literal4, arg0);", "auto const var1 = pwgen::iTanh(var0);", "auto const var2 = pwgen::iMul(var1, literal4);", "auto const var3 = pwgen::iPlus(var2, literal4);", "auto const var4 = pwgen::iMul(arg0, var3);"],
  "HasBias": 1,
  "HasReLU": 0,
  "TacticName": "sm80_xmma_fprop_implicit_gemm_f16f16_f16f16_f16_nhwckrsc_nhwc_tilesize256x32x32_stage4_warpsize4x1x1_g1_tensor16x8x16_t1r3s3_linkable",
  "TacticValue": "0x49ccdb0be666d52a",
  "StreamId": 0,
  "Metadata": "[ONNX Layer: /input_hint_block/input_hint_block.10/Conv]\u001e[ONNX Layer: /input_hint_block/input_hint_block.11/Sigmoid]\u001e[ONNX Layer: /input_hint_block/input_hint_block.11/Mul]"
},{
  "Name": "/input_hint_block/input_hint_block.12/Conv + PWN(PWN(/input_hint_block/input_hint_block.13/Sigmoid), /input_hint_block/input_hint_block.13/Mul)",
  "LayerType": "CaskConvolution",
  "Inputs": [
  {
    "Name": "/input_hint_block/input_hint_block.11/Mul_output_0",
    "Location": "Device",
    "Dimensions": [1,96,64,96],
    "Format/Datatype": "Channel major FP16 format where channel % 8 == 0"
  }],
  "Outputs": [
  {
    "Name": "/input_hint_block/input_hint_block.13/Mul_output_0",
    "Location": "Device",
    "Dimensions": [1,256,32,48],
    "Format/Datatype": "Channel major FP16 format where channel % 8 == 0"
  }],
  "ParameterType": "Convolution",
  "Kernel": [3,3],
  "PaddingMode": "kEXPLICIT_ROUND_DOWN",
  "PrePadding": [1,1],
  "PostPadding": [1,1],
  "Stride": [2,2],
  "Dilation": [1,1],
  "OutMaps": 256,
  "Groups": 1,
  "Weights": {"Type": "Half", "Count": 221184},
  "Bias": {"Type": "Half", "Count": 256},
  "HasSparseWeights": 0,
  "HasDynamicFilter": 0,
  "HasDynamicBias": 0,
  "HasResidual": 0,
  "ConvXAsActInputIdx": -1,
  "BiasAsActInputIdx": -1,
  "ResAsActInputIdx": -1,
  "Activation": "GENERIC",
  "ParameterSubType": "PointWiseExpression",
  "NbPointWiseExpressionInputArgs": 1,
  "PointWiseExpressionInputArgs": ["arg0"],
  "NbPointWiseExpressionOutputVars": 1,
  "PointWiseExpressionOutputVars": ["var4"],
  "NbPointWiseExpressionParams": 0,
  "PointWiseExpressionParams": [],
  "NbPointWiseExpressionLiterals": 5,
  "PointWiseExpressionLiterals": ["0.000000e+00f", "1.000000e+00f", "0.000000e+00f", "0.000000e+00f", "5.000000e-01f"],
  "NbPointWiseExpressionOperations": 5,
  "PointWiseExpressionOperations": ["auto const var0 = pwgen::iMul(literal4, arg0);", "auto const var1 = pwgen::iTanh(var0);", "auto const var2 = pwgen::iMul(var1, literal4);", "auto const var3 = pwgen::iPlus(var2, literal4);", "auto const var4 = pwgen::iMul(arg0, var3);"],
  "HasBias": 1,
  "HasReLU": 0,
  "TacticName": "sm80_xmma_fprop_implicit_gemm_f16f16_f16f16_f16_nhwckrsc_nhwc_tilesize64x128x32_stage5_warpsize2x2x1_g1_tensor16x8x16_t1r3s3_linkable",
  "TacticValue": "0x1171249e97d91786",
  "StreamId": 0,
  "Metadata": "[ONNX Layer: /input_hint_block/input_hint_block.12/Conv]\u001e[ONNX Layer: /input_hint_block/input_hint_block.13/Sigmoid]\u001e[ONNX Layer: /input_hint_block/input_hint_block.13/Mul]"
},{
  "Name": "/input_hint_block/input_hint_block.14/Conv",
  "LayerType": "CaskConvolution",
  "Inputs": [
  {
    "Name": "/input_hint_block/input_hint_block.13/Mul_output_0",
    "Location": "Device",
    "Dimensions": [1,256,32,48],
    "Format/Datatype": "Channel major FP16 format where channel % 8 == 0"
  }],
  "Outputs": [
  {
    "Name": "/input_hint_block/input_hint_block.14/Conv_output_0",
    "Location": "Device",
    "Dimensions": [1,320,32,48],
    "Format/Datatype": "Channel major FP16 format where channel % 8 == 0"
  }],
  "ParameterType": "Convolution",
  "Kernel": [3,3],
  "PaddingMode": "kEXPLICIT_ROUND_DOWN",
  "PrePadding": [1,1],
  "PostPadding": [1,1],
  "Stride": [1,1],
  "Dilation": [1,1],
  "OutMaps": 320,
  "Groups": 1,
  "Weights": {"Type": "Half", "Count": 737280},
  "Bias": {"Type": "Half", "Count": 320},
  "HasSparseWeights": 0,
  "HasDynamicFilter": 0,
  "HasDynamicBias": 0,
  "HasResidual": 0,
  "ConvXAsActInputIdx": -1,
  "BiasAsActInputIdx": -1,
  "ResAsActInputIdx": -1,
  "Activation": "NONE",
  "HasBias": 1,
  "HasReLU": 0,
  "TacticName": "sm80_xmma_fprop_implicit_gemm_f16f16_f16f16_f16_nhwckrsc_nhwc_tilesize128x64x64_stage3_warpsize2x2x1_g1_tensor16x8x16_t1r3s3_aACCESS",
  "TacticValue": "0x263a38afd75e3a43",
  "StreamId": 0,
  "Metadata": "[ONNX Layer: /input_hint_block/input_hint_block.14/Conv]"
},{
  "Name": "Reformatting CopyNode for Input Tensor 0 to /input_blocks.0/input_blocks.0.0/Conv + /Add",
  "LayerType": "NoOp",
  "Inputs": [
  {
    "Name": "/Cast_1_output_0",
    "Location": "Device",
    "Dimensions": [1,4,32,48],
    "Format/Datatype": "Channel major FP16 format where channel % 4 == 0"
  }],
  "Outputs": [
  {
    "Name": "Reformatted Input Tensor 0 to /input_blocks.0/input_blocks.0.0/Conv + /Add",
    "Location": "Device",
    "Dimensions": [1,4,32,48],
    "Format/Datatype": "Channel major FP16 format where channel % 2 == 0"
  }],
  "TacticValue": "0x0000000000000000",
  "StreamId": 0,
  "Metadata": ""
},{
  "Name": "Reformatting CopyNode for Input Tensor 1 to /input_blocks.0/input_blocks.0.0/Conv + /Add",
  "LayerType": "NoOp",
  "Inputs": [
  {
    "Name": "/input_hint_block/input_hint_block.14/Conv_output_0",
    "Location": "Device",
    "Dimensions": [1,320,32,48],
    "Format/Datatype": "Channel major FP16 format where channel % 8 == 0"
  }],
  "Outputs": [
  {
    "Name": "Reformatted Input Tensor 1 to /input_blocks.0/input_blocks.0.0/Conv + /Add",
    "Location": "Device",
    "Dimensions": [1,320,32,48],
    "Format/Datatype": "Channel major FP16 format where channel % 2 == 0"
  }],
  "TacticValue": "0x0000000000000000",
  "StreamId": 0,
  "Metadata": ""
},{
  "Name": "/input_blocks.0/input_blocks.0.0/Conv + /Add",
  "LayerType": "CaskConvolution",
  "Inputs": [
  {
    "Name": "Reformatted Input Tensor 0 to /input_blocks.0/input_blocks.0.0/Conv + /Add",
    "Location": "Device",
    "Dimensions": [1,4,32,48],
    "Format/Datatype": "Channel major FP16 format where channel % 2 == 0"
  },
  {
    "Name": "Reformatted Input Tensor 1 to /input_blocks.0/input_blocks.0.0/Conv + /Add",
    "Location": "Device",
    "Dimensions": [1,320,32,48],
    "Format/Datatype": "Channel major FP16 format where channel % 2 == 0"
  }],
  "Outputs": [
  {
    "Name": "/Add_output_0",
    "Location": "Device",
    "Dimensions": [1,320,32,48],
    "Format/Datatype": "Channel major FP16 format where channel % 2 == 0"
  }],
  "ParameterType": "Convolution",
  "Kernel": [3,3],
  "PaddingMode": "kEXPLICIT_ROUND_DOWN",
  "PrePadding": [1,1],
  "PostPadding": [1,1],
  "Stride": [1,1],
  "Dilation": [1,1],
  "OutMaps": 320,
  "Groups": 1,
  "Weights": {"Type": "Half", "Count": 11520},
  "Bias": {"Type": "Half", "Count": 320},
  "HasSparseWeights": 0,
  "HasDynamicFilter": 0,
  "HasDynamicBias": 0,
  "HasResidual": 1,
  "ConvXAsActInputIdx": -1,
  "BiasAsActInputIdx": -1,
  "ResAsActInputIdx": -1,
  "Activation": "NONE",
  "HasBias": 1,
  "HasReLU": 0,
  "TacticName": "sm80_xmma_fprop_implicit_gemm_indexed_wo_smem_f16f16_f16f16_f16_nhwckrsc_nhwc_tilesize128x16x64_stage1_warpsize4x1x1_g1_tensor16x8x16_aligna4_alignc4",
  "TacticValue": "0x98e92db98836b738",
  "StreamId": 0,
  "Metadata": "[ONNX Layer: /input_blocks.0/input_blocks.0.0/Conv]\u001e[ONNX Layer: /Add]"
},{
  "Name": "/input_blocks.1/input_blocks.1.0/in_layers/in_layers.0/Cast",
  "LayerType": "NoOp",
  "Inputs": [
  {
    "Name": "/Add_output_0",
    "Location": "Device",
    "Dimensions": [1,320,32,48],
    "Format/Datatype": "Channel major FP16 format where channel % 2 == 0"
  }],
  "Outputs": [
  {
    "Name": "/input_blocks.1/input_blocks.1.0/in_layers/in_layers.0/Cast_output_0",
    "Location": "Device",
    "Dimensions": [1,320,32,48],
    "Format/Datatype": "Channel major FP16 format where channel % 8 == 0"
  }],
  "TacticValue": "0x0000000000000000",
  "StreamId": 0,
  "Metadata": ""
},{
  "Name": "Reformatting CopyNode for Input Tensor 0 to /input_blocks.1/input_blocks.1.0/in_layers/in_layers.0/Reshape + (Unnamed Layer* 47) [Shuffle]",
  "LayerType": "Reformat",
  "Inputs": [
  {
    "Name": "/input_blocks.1/input_blocks.1.0/in_layers/in_layers.0/Cast_output_0",
    "Location": "Device",
    "Dimensions": [1,320,32,48],
    "Format/Datatype": "Channel major FP16 format where channel % 8 == 0"
  }],
  "Outputs": [
  {
    "Name": "Reformatted Input Tensor 0 to /input_blocks.1/input_blocks.1.0/in_layers/in_layers.0/Reshape + (Unnamed Layer* 47) [Shuffle]",
    "Location": "Device",
    "Dimensions": [1,320,32,48],
    "Format/Datatype": "Row major linear FP16 format"
  }],
  "ParameterType": "Reformat",
  "Origin": "REFORMAT",
  "TacticValue": "0x0000000000000000",
  "StreamId": 0,
  "Metadata": ""
},{
  "Name": "/input_blocks.1/input_blocks.1.0/in_layers/in_layers.0/Reshape + (Unnamed Layer* 47) [Shuffle]",
  "LayerType": "NoOp",
  "Inputs": [
  {
    "Name": "Reformatted Input Tensor 0 to /input_blocks.1/input_blocks.1.0/in_layers/in_layers.0/Reshape + (Unnamed Layer* 47) [Shuffle]",
    "Location": "Device",
    "Dimensions": [1,320,32,48],
    "Format/Datatype": "Row major linear FP16 format"
  }],
  "Outputs": [
  {
    "Name": "(Unnamed Layer* 47) [Shuffle]_output",
    "Location": "Device",
    "Dimensions": [1,32,15360,1],
    "Format/Datatype": "Row major linear FP16 format"
  }],
  "TacticValue": "0x0000000000000000",
  "StreamId": 0,
  "Metadata": "[ONNX Layer: /input_blocks.1/input_blocks.1.0/in_layers/in_layers.0/Reshape]\u001e"
},{
  "Name": "/input_blocks.1/input_blocks.1.0/in_layers/in_layers.0/InstanceNormalization",
  "LayerType": "PluginV2",
  "Inputs": [
  {
    "Name": "(Unnamed Layer* 47) [Shuffle]_output",
    "Location": "Device",
    "Dimensions": [1,32,15360,1],
    "Format/Datatype": "Row major linear FP16 format"
  }],
  "Outputs": [
  {
    "Name": "(Unnamed Layer* 48) [PluginV2DynamicExt]_output",
    "Location": "Device",
    "Dimensions": [1,32,15360,1],
    "Format/Datatype": "Row major linear FP16 format"
  }],
  "PluginType": "InstanceNormalization_TRT",
  "PluginVersion": "1",
  "TacticValue": "0x0000000000000000",
  "StreamId": 0,
  "Metadata": "[ONNX Layer: /input_blocks.1/input_blocks.1.0/in_layers/in_layers.0/InstanceNormalization]"
},{
  "Name": "(Unnamed Layer* 49) [Shuffle] + /input_blocks.1/input_blocks.1.0/in_layers/in_layers.0/Reshape_1",
  "LayerType": "NoOp",
  "Inputs": [
  {
    "Name": "(Unnamed Layer* 48) [PluginV2DynamicExt]_output",
    "Location": "Device",
    "Dimensions": [1,32,15360,1],
    "Format/Datatype": "Row major linear FP16 format"
  }],
  "Outputs": [
  {
    "Name": "/input_blocks.1/input_blocks.1.0/in_layers/in_layers.0/Reshape_1_output_0",
    "Location": "Device",
    "Dimensions": [1,320,32,48],
    "Format/Datatype": "Row major linear FP16 format"
  }],
  "TacticValue": "0x0000000000000000",
  "StreamId": 0,
  "Metadata": "[ONNX Layer: /input_blocks.1/input_blocks.1.0/in_layers/in_layers.0/Reshape_1]"
},{
  "Name": "onnx::Mul_4109 + (Unnamed Layer* 53) [Shuffle] + /input_blocks.1/input_blocks.1.0/in_layers/in_layers.0/Mul + onnx::Add_4110 + (Unnamed Layer* 56) [Shuffle] + /input_blocks.1/input_blocks.1.0/in_layers/in_layers.0/Add",
  "LayerType": "Scale",
  "Inputs": [
  {
    "Name": "/input_blocks.1/input_blocks.1.0/in_layers/in_layers.0/Reshape_1_output_0",
    "Location": "Device",
    "Dimensions": [1,320,32,48],
    "Format/Datatype": "Row major linear FP16 format"
  }],
  "Outputs": [
  {
    "Name": "/input_blocks.1/input_blocks.1.0/in_layers/in_layers.0/Add_output_0",
    "Location": "Device",
    "Dimensions": [1,320,32,48],
    "Format/Datatype": "Row major linear FP16 format"
  }],
  "ParameterType": "Scale",
  "Mode": "CHANNEL",
  "Shift": {"Type": "Half", "Count": 320},
  "Scale": {"Type": "Half", "Count": 320},
  "Power": {"Type": "Half", "Count": 0},
  "Activation": "NONE",
  "ChannelAxis": 1,
  "TacticValue": "0x0000000000000000",
  "StreamId": 0,
  "Metadata": "[ONNX Layer: /input_blocks.1/input_blocks.1.0/in_layers/in_layers.0/Mul]\u001e[ONNX Layer: /input_blocks.1/input_blocks.1.0/in_layers/in_layers.0/Add]"
},{
  "Name": "/input_blocks.1/input_blocks.1.0/in_layers/in_layers.0/Cast_1",
  "LayerType": "MyelinReformat",
  "Inputs": [
  {
    "Name": "/input_blocks.1/input_blocks.1.0/in_layers/in_layers.0/Add_output_0",
    "Location": "Device",
    "Dimensions": [1,320,32,48],
    "Format/Datatype": "Row major linear FP16 format"
  }],
  "Outputs": [
  {
    "Name": "/input_blocks.1/input_blocks.1.0/in_layers/in_layers.0/Cast_1_output_0",
    "Location": "Device",
    "Dimensions": [1,320,32,48],
    "Format/Datatype": "Channel major FP16 format where channel % 8 == 0"
  }],
  "TacticValue": "0x0000000000000000",
  "StreamId": 0,
  "Metadata": ""
},{
  "Name": "Reformatting CopyNode for Input Tensor 0 to PWN(PWN(/input_blocks.1/input_blocks.1.0/in_layers/in_layers.1/Sigmoid), /input_blocks.1/input_blocks.1.0/in_layers/in_layers.1/Mul)",
  "LayerType": "NoOp",
  "Inputs": [
  {
    "Name": "/input_blocks.1/input_blocks.1.0/in_layers/in_layers.0/Cast_1_output_0",
    "Location": "Device",
    "Dimensions": [1,320,32,48],
    "Format/Datatype": "Channel major FP16 format where channel % 8 == 0"
  }],
  "Outputs": [
  {
    "Name": "Reformatted Input Tensor 0 to PWN(PWN(/input_blocks.1/input_blocks.1.0/in_layers/in_layers.1/Sigmoid), /input_blocks.1/input_blocks.1.0/in_layers/in_layers.1/Mul)",
    "Location": "Device",
    "Dimensions": [1,320,32,48],
    "Format/Datatype": "Channel major FP16 format where channel % 2 == 0"
  }],
  "TacticValue": "0x0000000000000000",
  "StreamId": 0,
  "Metadata": ""
},{
  "Name": "PWN(PWN(/input_blocks.1/input_blocks.1.0/in_layers/in_layers.1/Sigmoid), /input_blocks.1/input_blocks.1.0/in_layers/in_layers.1/Mul)",
  "LayerType": "PointWiseV2",
  "Inputs": [
  {
    "Name": "Reformatted Input Tensor 0 to PWN(PWN(/input_blocks.1/input_blocks.1.0/in_layers/in_layers.1/Sigmoid), /input_blocks.1/input_blocks.1.0/in_layers/in_layers.1/Mul)",
    "Location": "Device",
    "Dimensions": [1,320,32,48],
    "Format/Datatype": "Channel major FP16 format where channel % 2 == 0"
  }],
  "Outputs": [
  {
    "Name": "/input_blocks.1/input_blocks.1.0/in_layers/in_layers.1/Mul_output_0",
    "Location": "Device",
    "Dimensions": [1,320,32,48],
    "Format/Datatype": "Channel major FP16 format where channel % 2 == 0"
  }],
  "ParameterType": "PointWise",
  "ParameterSubType": "PointWiseExpression",
  "NbInputArgs": 1,
  "InputArgs": ["arg0"],
  "NbOutputVars": 1,
  "OutputVars": ["var4"],
  "NbParams": 0,
  "Params": [],
  "NbLiterals": 5,
  "Literals": ["0.000000e+00f", "1.000000e+00f", "0.000000e+00f", "0.000000e+00f", "5.000000e-01f"],
  "NbOperations": 5,
  "Operations": ["auto const var0 = pwgen::iMul(literal4, arg0);", "auto const var1 = pwgen::iTanh(var0);", "auto const var2 = pwgen::iMul(var1, literal4);", "auto const var3 = pwgen::iPlus(var2, literal4);", "auto const var4 = pwgen::iMul(arg0, var3);"],
  "TacticValue": "0x0000000000000013",
  "StreamId": 0,
  "Metadata": "[ONNX Layer: /input_blocks.1/input_blocks.1.0/in_layers/in_layers.1/Sigmoid]\u001e[ONNX Layer: /input_blocks.1/input_blocks.1.0/in_layers/in_layers.1/Mul]"
},{
  "Name": "Reformatting CopyNode for Input Tensor 0 to /input_blocks.1/input_blocks.1.0/in_layers/in_layers.2/Conv",
  "LayerType": "NoOp",
  "Inputs": [
  {
    "Name": "/input_blocks.1/input_blocks.1.0/in_layers/in_layers.1/Mul_output_0",
    "Location": "Device",
    "Dimensions": [1,320,32,48],
    "Format/Datatype": "Channel major FP16 format where channel % 2 == 0"
  }],
  "Outputs": [
  {
    "Name": "Reformatted Input Tensor 0 to /input_blocks.1/input_blocks.1.0/in_layers/in_layers.2/Conv",
    "Location": "Device",
    "Dimensions": [1,320,32,48],
    "Format/Datatype": "Channel major FP16 format where channel % 8 == 0"
  }],
  "TacticValue": "0x0000000000000000",
  "StreamId": 0,
  "Metadata": ""
},{
  "Name": "/input_blocks.1/input_blocks.1.0/in_layers/in_layers.2/Conv",
  "LayerType": "CaskConvolution",
  "Inputs": [
  {
    "Name": "Reformatted Input Tensor 0 to /input_blocks.1/input_blocks.1.0/in_layers/in_layers.2/Conv",
    "Location": "Device",
    "Dimensions": [1,320,32,48],
    "Format/Datatype": "Channel major FP16 format where channel % 8 == 0"
  }],
  "Outputs": [
  {
    "Name": "/input_blocks.1/input_blocks.1.0/in_layers/in_layers.2/Conv_output_0",
    "Location": "Device",
    "Dimensions": [1,320,32,48],
    "Format/Datatype": "Channel major FP16 format where channel % 8 == 0"
  }],
  "ParameterType": "Convolution",
  "Kernel": [3,3],
  "PaddingMode": "kEXPLICIT_ROUND_DOWN",
  "PrePadding": [1,1],
  "PostPadding": [1,1],
  "Stride": [1,1],
  "Dilation": [1,1],
  "OutMaps": 320,
  "Groups": 1,
  "Weights": {"Type": "Half", "Count": 921600},
  "Bias": {"Type": "Half", "Count": 320},
  "HasSparseWeights": 0,
  "HasDynamicFilter": 0,
  "HasDynamicBias": 0,
  "HasResidual": 0,
  "ConvXAsActInputIdx": -1,
  "BiasAsActInputIdx": -1,
  "ResAsActInputIdx": -1,
  "Activation": "NONE",
  "HasBias": 1,
  "HasReLU": 0,
  "TacticName": "sm80_xmma_fprop_implicit_gemm_f16f16_f16f16_f16_nhwckrsc_nhwc_tilesize128x64x64_stage3_warpsize2x2x1_g1_tensor16x8x16_t1r3s3_aACCESS",
  "TacticValue": "0x263a38afd75e3a43",
  "StreamId": 0,
  "Metadata": "[ONNX Layer: /input_blocks.1/input_blocks.1.0/in_layers/in_layers.2/Conv]"
},{
  "Name": "reshape_before_/time_embed/time_embed.0/Gemm",
  "LayerType": "NoOp",
  "Inputs": [
  {
    "Name": "/Concat_output_0",
    "Location": "Device",
    "Dimensions": [1,320],
    "Format/Datatype": "Row major linear FP16 format"
  }],
  "Outputs": [
  {
    "Name": "reshape_before_/time_embed/time_embed.0/Gemm_out_tensor",
    "Location": "Device",
    "Dimensions": [1,320,1,1],
    "Format/Datatype": "Row major linear FP16 format"
  }],
  "TacticValue": "0x0000000000000000",
  "StreamId": 0,
  "Metadata": "[ONNX Layer: /time_embed/time_embed.0/Gemm]"
},{
  "Name": "Reformatting CopyNode for Input Tensor 0 to /time_embed/time_embed.0/Gemm",
  "LayerType": "NoOp",
  "Inputs": [
  {
    "Name": "reshape_before_/time_embed/time_embed.0/Gemm_out_tensor",
    "Location": "Device",
    "Dimensions": [1,320,1,1],
    "Format/Datatype": "Row major linear FP16 format"
  }],
  "Outputs": [
  {
    "Name": "Reformatted Input Tensor 0 to /time_embed/time_embed.0/Gemm",
    "Location": "Device",
    "Dimensions": [1,320,1,1],
    "Format/Datatype": "Channel major FP16 format where channel % 8 == 0"
  }],
  "TacticValue": "0x0000000000000000",
  "StreamId": 0,
  "Metadata": ""
},{
  "Name": "/time_embed/time_embed.0/Gemm",
  "LayerType": "CaskGemmConvolution",
  "Inputs": [
  {
    "Name": "Reformatted Input Tensor 0 to /time_embed/time_embed.0/Gemm",
    "Location": "Device",
    "Dimensions": [1,320,1,1],
    "Format/Datatype": "Channel major FP16 format where channel % 8 == 0"
  }],
  "Outputs": [
  {
    "Name": "/time_embed/time_embed.0/Gemm_out_tensor",
    "Location": "Device",
    "Dimensions": [1,1280,1,1],
    "Format/Datatype": "Channel major FP16 format where channel % 8 == 0"
  }],
  "ParameterType": "Convolution",
  "Kernel": [1,1],
  "PaddingMode": "kEXPLICIT_ROUND_DOWN",
  "PrePadding": [0,0],
  "PostPadding": [0,0],
  "Stride": [1,1],
  "Dilation": [1,1],
  "OutMaps": 1280,
  "Groups": 1,
  "Weights": {"Type": "Half", "Count": 409600},
  "Bias": {"Type": "Half", "Count": 1280},
  "HasSparseWeights": 0,
  "HasDynamicFilter": 0,
  "HasDynamicBias": 0,
  "HasResidual": 0,
  "ConvXAsActInputIdx": -1,
  "BiasAsActInputIdx": -1,
  "ResAsActInputIdx": -1,
  "Activation": "NONE",
  "TacticName": "sm70_xmma_gemm_as_conv1x1_f16f16_f16_f16_tn_n_simt_small_batch_bias_relu",
  "TacticValue": "0x00000000000202d4",
  "StreamId": 0,
  "Metadata": "[ONNX Layer: /time_embed/time_embed.0/Gemm]"
},{
  "Name": "Reformatting CopyNode for Input Tensor 0 to reshape_after_/time_embed/time_embed.0/Gemm",
  "LayerType": "NoOp",
  "Inputs": [
  {
    "Name": "/time_embed/time_embed.0/Gemm_out_tensor",
    "Location": "Device",
    "Dimensions": [1,1280,1,1],
    "Format/Datatype": "Channel major FP16 format where channel % 8 == 0"
  }],
  "Outputs": [
  {
    "Name": "Reformatted Input Tensor 0 to reshape_after_/time_embed/time_embed.0/Gemm",
    "Location": "Device",
    "Dimensions": [1,1280,1,1],
    "Format/Datatype": "Row major linear FP16 format"
  }],
  "TacticValue": "0x0000000000000000",
  "StreamId": 0,
  "Metadata": ""
},{
  "Name": "reshape_after_/time_embed/time_embed.0/Gemm",
  "LayerType": "NoOp",
  "Inputs": [
  {
    "Name": "Reformatted Input Tensor 0 to reshape_after_/time_embed/time_embed.0/Gemm",
    "Location": "Device",
    "Dimensions": [1,1280,1,1],
    "Format/Datatype": "Row major linear FP16 format"
  }],
  "Outputs": [
  {
    "Name": "/time_embed/time_embed.0/Gemm_output_0",
    "Location": "Device",
    "Dimensions": [1,1280],
    "Format/Datatype": "Row major linear FP16 format"
  }],
  "TacticValue": "0x0000000000000000",
  "StreamId": 0,
  "Metadata": "[ONNX Layer: /time_embed/time_embed.0/Gemm]"
},{
  "Name": "PWN(PWN(/time_embed/time_embed.1/Sigmoid), /time_embed/time_embed.1/Mul)",
  "LayerType": "PointWiseV2",
  "Inputs": [
  {
    "Name": "/time_embed/time_embed.0/Gemm_output_0",
    "Location": "Device",
    "Dimensions": [1,1280],
    "Format/Datatype": "Row major linear FP16 format"
  }],
  "Outputs": [
  {
    "Name": "/time_embed/time_embed.1/Mul_output_0",
    "Location": "Device",
    "Dimensions": [1,1280],
    "Format/Datatype": "Row major linear FP16 format"
  }],
  "ParameterType": "PointWise",
  "ParameterSubType": "PointWiseExpression",
  "NbInputArgs": 1,
  "InputArgs": ["arg0"],
  "NbOutputVars": 1,
  "OutputVars": ["var4"],
  "NbParams": 0,
  "Params": [],
  "NbLiterals": 5,
  "Literals": ["0.000000e+00f", "1.000000e+00f", "0.000000e+00f", "0.000000e+00f", "5.000000e-01f"],
  "NbOperations": 5,
  "Operations": ["auto const var0 = pwgen::iMul(literal4, arg0);", "auto const var1 = pwgen::iTanh(var0);", "auto const var2 = pwgen::iMul(var1, literal4);", "auto const var3 = pwgen::iPlus(var2, literal4);", "auto const var4 = pwgen::iMul(arg0, var3);"],
  "TacticValue": "0x000000000000001c",
  "StreamId": 0,
  "Metadata": "[ONNX Layer: /time_embed/time_embed.1/Sigmoid]\u001e[ONNX Layer: /time_embed/time_embed.1/Mul]"
},{
  "Name": "reshape_before_/time_embed/time_embed.2/Gemm",
  "LayerType": "NoOp",
  "Inputs": [
  {
    "Name": "/time_embed/time_embed.1/Mul_output_0",
    "Location": "Device",
    "Dimensions": [1,1280],
    "Format/Datatype": "Row major linear FP16 format"
  }],
  "Outputs": [
  {
    "Name": "reshape_before_/time_embed/time_embed.2/Gemm_out_tensor",
    "Location": "Device",
    "Dimensions": [1,1280,1,1],
    "Format/Datatype": "Row major linear FP16 format"
  }],
  "TacticValue": "0x0000000000000000",
  "StreamId": 0,
  "Metadata": "[ONNX Layer: /time_embed/time_embed.2/Gemm]"
},{
  "Name": "Reformatting CopyNode for Input Tensor 0 to /time_embed/time_embed.2/Gemm",
  "LayerType": "NoOp",
  "Inputs": [
  {
    "Name": "reshape_before_/time_embed/time_embed.2/Gemm_out_tensor",
    "Location": "Device",
    "Dimensions": [1,1280,1,1],
    "Format/Datatype": "Row major linear FP16 format"
  }],
  "Outputs": [
  {
    "Name": "Reformatted Input Tensor 0 to /time_embed/time_embed.2/Gemm",
    "Location": "Device",
    "Dimensions": [1,1280,1,1],
    "Format/Datatype": "Channel major FP16 format where channel % 8 == 0"
  }],
  "TacticValue": "0x0000000000000000",
  "StreamId": 0,
  "Metadata": ""
},{
  "Name": "/time_embed/time_embed.2/Gemm",
  "LayerType": "CaskGemmConvolution",
  "Inputs": [
  {
    "Name": "Reformatted Input Tensor 0 to /time_embed/time_embed.2/Gemm",
    "Location": "Device",
    "Dimensions": [1,1280,1,1],
    "Format/Datatype": "Channel major FP16 format where channel % 8 == 0"
  }],
  "Outputs": [
  {
    "Name": "/time_embed/time_embed.2/Gemm_out_tensor",
    "Location": "Device",
    "Dimensions": [1,1280,1,1],
    "Format/Datatype": "Channel major FP16 format where channel % 8 == 0"
  }],
  "ParameterType": "Convolution",
  "Kernel": [1,1],
  "PaddingMode": "kEXPLICIT_ROUND_DOWN",
  "PrePadding": [0,0],
  "PostPadding": [0,0],
  "Stride": [1,1],
  "Dilation": [1,1],
  "OutMaps": 1280,
  "Groups": 1,
  "Weights": {"Type": "Half", "Count": 1638400},
  "Bias": {"Type": "Half", "Count": 1280},
  "HasSparseWeights": 0,
  "HasDynamicFilter": 0,
  "HasDynamicBias": 0,
  "HasResidual": 0,
  "ConvXAsActInputIdx": -1,
  "BiasAsActInputIdx": -1,
  "ResAsActInputIdx": -1,
  "Activation": "NONE",
  "TacticName": "sm80_xmma_gemm_f16f16_f16f16_f16_tn_n_tilesize32x32x64_stage6_warpsize2x2x1_tensor16x8x16",
  "TacticValue": "0x000000000002015c",
  "StreamId": 0,
  "Metadata": "[ONNX Layer: /time_embed/time_embed.2/Gemm]"
},{
  "Name": "Reformatting CopyNode for Input Tensor 0 to reshape_after_/time_embed/time_embed.2/Gemm",
  "LayerType": "NoOp",
  "Inputs": [
  {
    "Name": "/time_embed/time_embed.2/Gemm_out_tensor",
    "Location": "Device",
    "Dimensions": [1,1280,1,1],
    "Format/Datatype": "Channel major FP16 format where channel % 8 == 0"
  }],
  "Outputs": [
  {
    "Name": "Reformatted Input Tensor 0 to reshape_after_/time_embed/time_embed.2/Gemm",
    "Location": "Device",
    "Dimensions": [1,1280,1,1],
    "Format/Datatype": "Row major linear FP16 format"
  }],
  "TacticValue": "0x0000000000000000",
  "StreamId": 0,
  "Metadata": ""
},{
  "Name": "reshape_after_/time_embed/time_embed.2/Gemm",
  "LayerType": "NoOp",
  "Inputs": [
  {
    "Name": "Reformatted Input Tensor 0 to reshape_after_/time_embed/time_embed.2/Gemm",
    "Location": "Device",
    "Dimensions": [1,1280,1,1],
    "Format/Datatype": "Row major linear FP16 format"
  }],
  "Outputs": [
  {
    "Name": "/time_embed/time_embed.2/Gemm_output_0",
    "Location": "Device",
    "Dimensions": [1,1280],
    "Format/Datatype": "Row major linear FP16 format"
  }],
  "TacticValue": "0x0000000000000000",
  "StreamId": 0,
  "Metadata": "[ONNX Layer: /time_embed/time_embed.2/Gemm]"
},{
  "Name": "PWN(PWN(/input_blocks.1/input_blocks.1.0/emb_layers/emb_layers.0/Sigmoid), /input_blocks.1/input_blocks.1.0/emb_layers/emb_layers.0/Mul)",
  "LayerType": "PointWiseV2",
  "Inputs": [
  {
    "Name": "/time_embed/time_embed.2/Gemm_output_0",
    "Location": "Device",
    "Dimensions": [1,1280],
    "Format/Datatype": "Row major linear FP16 format"
  }],
  "Outputs": [
  {
    "Name": "/input_blocks.1/input_blocks.1.0/emb_layers/emb_layers.0/Mul_output_0",
    "Location": "Device",
    "Dimensions": [1,1280],
    "Format/Datatype": "Row major linear FP16 format"
  }],
  "ParameterType": "PointWise",
  "ParameterSubType": "PointWiseExpression",
  "NbInputArgs": 1,
  "InputArgs": ["arg0"],
  "NbOutputVars": 1,
  "OutputVars": ["var4"],
  "NbParams": 0,
  "Params": [],
  "NbLiterals": 5,
  "Literals": ["0.000000e+00f", "1.000000e+00f", "0.000000e+00f", "0.000000e+00f", "5.000000e-01f"],
  "NbOperations": 5,
  "Operations": ["auto const var0 = pwgen::iMul(literal4, arg0);", "auto const var1 = pwgen::iTanh(var0);", "auto const var2 = pwgen::iMul(var1, literal4);", "auto const var3 = pwgen::iPlus(var2, literal4);", "auto const var4 = pwgen::iMul(arg0, var3);"],
  "TacticValue": "0x000000000000001c",
  "StreamId": 0,
  "Metadata": "[ONNX Layer: /input_blocks.1/input_blocks.1.0/emb_layers/emb_layers.0/Sigmoid]\u001e[ONNX Layer: /input_blocks.1/input_blocks.1.0/emb_layers/emb_layers.0/Mul]"
},{
  "Name": "reshape_before_/input_blocks.1/input_blocks.1.0/emb_layers/emb_layers.1/Gemm",
  "LayerType": "NoOp",
  "Inputs": [
  {
    "Name": "/input_blocks.1/input_blocks.1.0/emb_layers/emb_layers.0/Mul_output_0",
    "Location": "Device",
    "Dimensions": [1,1280],
    "Format/Datatype": "Row major linear FP16 format"
  }],
  "Outputs": [
  {
    "Name": "reshape_before_/input_blocks.1/input_blocks.1.0/emb_layers/emb_layers.1/Gemm_out_tensor",
    "Location": "Device",
    "Dimensions": [1,1280,1,1],
    "Format/Datatype": "Row major linear FP16 format"
  }],
  "TacticValue": "0x0000000000000000",
  "StreamId": 0,
  "Metadata": "[ONNX Layer: /input_blocks.1/input_blocks.1.0/emb_layers/emb_layers.1/Gemm]"
},{
  "Name": "Reformatting CopyNode for Input Tensor 0 to /input_blocks.7/input_blocks.7.0/emb_layers/emb_layers.1/Gemm || /input_blocks.8/input_blocks.8.0/emb_layers/emb_layers.1/Gemm || /input_blocks.10/input_blocks.10.0/emb_layers/emb_layers.1/Gemm || /input_blocks.11/input_blocks.11.0/emb_layers/emb_layers.1/Gemm || /middle_block/middle_block.0/emb_layers/emb_layers.1/Gemm || /middle_block/middle_block.2/emb_layers/emb_layers.1/Gemm || /input_blocks.4/input_blocks.4.0/emb_layers/emb_layers.1/Gemm || /input_blocks.5/input_blocks.5.0/emb_layers/emb_layers.1/Gemm || /input_blocks.1/input_blocks.1.0/emb_layers/emb_layers.1/Gemm || /input_blocks.2/input_blocks.2.0/emb_layers/emb_layers.1/Gemm",
  "LayerType": "NoOp",
  "Inputs": [
  {
    "Name": "reshape_before_/input_blocks.1/input_blocks.1.0/emb_layers/emb_layers.1/Gemm_out_tensor",
    "Location": "Device",
    "Dimensions": [1,1280,1,1],
    "Format/Datatype": "Row major linear FP16 format"
  }],
  "Outputs": [
  {
    "Name": "Reformatted Input Tensor 0 to /input_blocks.7/input_blocks.7.0/emb_layers/emb_layers.1/Gemm || /input_blocks.8/input_blocks.8.0/emb_layers/emb_layers.1/Gemm || /input_blocks.10/input_blocks.10.0/emb_layers/emb_layers.1/Gemm || /input_blocks.11/input_blocks.11.0/emb_layers/emb_layers.1/Gemm || /middle_block/middle_block.0/emb_layers/emb_layers.1/Gemm || /middle_block/middle_block.2/emb_layers/emb_layers.1/Gemm || /input_blocks.4/input_blocks.4.0/emb_layers/emb_layers.1/Gemm || /input_blocks.5/input_blocks.5.0/emb_layers/emb_layers.1/Gemm || /input_blocks.1/input_blocks.1.0/emb_layers/emb_layers.1/Gemm || /input_blocks.2/input_blocks.2.0/emb_layers/emb_layers.1/Gemm",
    "Location": "Device",
    "Dimensions": [1,1280,1,1],
    "Format/Datatype": "Channel major FP16 format where channel % 8 == 0"
  }],
  "TacticValue": "0x0000000000000000",
  "StreamId": 0,
  "Metadata": ""
},{
  "Name": "/input_blocks.7/input_blocks.7.0/emb_layers/emb_layers.1/Gemm || /input_blocks.8/input_blocks.8.0/emb_layers/emb_layers.1/Gemm || /input_blocks.10/input_blocks.10.0/emb_layers/emb_layers.1/Gemm || /input_blocks.11/input_blocks.11.0/emb_layers/emb_layers.1/Gemm || /middle_block/middle_block.0/emb_layers/emb_layers.1/Gemm || /middle_block/middle_block.2/emb_layers/emb_layers.1/Gemm || /input_blocks.4/input_blocks.4.0/emb_layers/emb_layers.1/Gemm || /input_blocks.5/input_blocks.5.0/emb_layers/emb_layers.1/Gemm || /input_blocks.1/input_blocks.1.0/emb_layers/emb_layers.1/Gemm || /input_blocks.2/input_blocks.2.0/emb_layers/emb_layers.1/Gemm",
  "LayerType": "CaskGemmConvolution",
  "Inputs": [
  {
    "Name": "Reformatted Input Tensor 0 to /input_blocks.7/input_blocks.7.0/emb_layers/emb_layers.1/Gemm || /input_blocks.8/input_blocks.8.0/emb_layers/emb_layers.1/Gemm || /input_blocks.10/input_blocks.10.0/emb_layers/emb_layers.1/Gemm || /input_blocks.11/input_blocks.11.0/emb_layers/emb_layers.1/Gemm || /middle_block/middle_block.0/emb_layers/emb_layers.1/Gemm || /middle_block/middle_block.2/emb_layers/emb_layers.1/Gemm || /input_blocks.4/input_blocks.4.0/emb_layers/emb_layers.1/Gemm || /input_blocks.5/input_blocks.5.0/emb_layers/emb_layers.1/Gemm || /input_blocks.1/input_blocks.1.0/emb_layers/emb_layers.1/Gemm || /input_blocks.2/input_blocks.2.0/emb_layers/emb_layers.1/Gemm",
    "Location": "Device",
    "Dimensions": [1,1280,1,1],
    "Format/Datatype": "Channel major FP16 format where channel % 8 == 0"
  }],
  "Outputs": [
  {
    "Name": "Reformatted Output Tensor 0 to /input_blocks.7/input_blocks.7.0/emb_layers/emb_layers.1/Gemm || /input_blocks.8/input_blocks.8.0/emb_layers/emb_layers.1/Gemm || /input_blocks.10/input_blocks.10.0/emb_layers/emb_layers.1/Gemm || /input_blocks.11/input_blocks.11.0/emb_layers/emb_layers.1/Gemm || /middle_block/middle_block.0/emb_layers/emb_layers.1/Gemm || /middle_block/middle_block.2/emb_layers/emb_layers.1/Gemm || /input_blocks.4/input_blocks.4.0/emb_layers/emb_layers.1/Gemm || /input_blocks.5/input_blocks.5.0/emb_layers/emb_layers.1/Gemm || /input_blocks.1/input_blocks.1.0/emb_layers/emb_layers.1/Gemm || /input_blocks.2/input_blocks.2.0/emb_layers/emb_layers.1/Gemm",
    "Location": "Device",
    "Dimensions": [1,9600,1,1],
    "Format/Datatype": "Channel major FP16 format where channel % 8 == 0"
  }],
  "ParameterType": "Convolution",
  "Kernel": [1,1],
  "PaddingMode": "kEXPLICIT_ROUND_DOWN",
  "PrePadding": [0,0],
  "PostPadding": [0,0],
  "Stride": [1,1],
  "Dilation": [1,1],
  "OutMaps": 9600,
  "Groups": 1,
  "Weights": {"Type": "Half", "Count": 12288000},
  "Bias": {"Type": "Half", "Count": 9600},
  "HasSparseWeights": 0,
  "HasDynamicFilter": 0,
  "HasDynamicBias": 0,
  "HasResidual": 0,
  "ConvXAsActInputIdx": -1,
  "BiasAsActInputIdx": -1,
  "ResAsActInputIdx": -1,
  "Activation": "NONE",
  "TacticName": "sm70_xmma_gemm_as_conv1x1_f16f16_f16_f16_tn_n_simt_small_batch_bias_relu",
  "TacticValue": "0x00000000000202d4",
  "StreamId": 0,
  "Metadata": "[ONNX Layer: /input_blocks.7/input_blocks.7.0/emb_layers/emb_layers.1/Gemm]\u001e[ONNX Layer: /input_blocks.8/input_blocks.8.0/emb_layers/emb_layers.1/Gemm]\u001e[ONNX Layer: /input_blocks.10/input_blocks.10.0/emb_layers/emb_layers.1/Gemm]\u001e[ONNX Layer: /input_blocks.11/input_blocks.11.0/emb_layers/emb_layers.1/Gemm]\u001e[ONNX Layer: /middle_block/middle_block.0/emb_layers/emb_layers.1/Gemm]\u001e[ONNX Layer: /middle_block/middle_block.2/emb_layers/emb_layers.1/Gemm]\u001e[ONNX Layer: /input_blocks.4/input_blocks.4.0/emb_layers/emb_layers.1/Gemm]\u001e[ONNX Layer: /input_blocks.5/input_blocks.5.0/emb_layers/emb_layers.1/Gemm]\u001e[ONNX Layer: /input_blocks.1/input_blocks.1.0/emb_layers/emb_layers.1/Gemm]\u001e[ONNX Layer: /input_blocks.2/input_blocks.2.0/emb_layers/emb_layers.1/Gemm]"
},{
  "Name": "Reformatting CopyNode for Output Tensor 0 to /input_blocks.7/input_blocks.7.0/emb_layers/emb_layers.1/Gemm || /input_blocks.8/input_blocks.8.0/emb_layers/emb_layers.1/Gemm || /input_blocks.10/input_blocks.10.0/emb_layers/emb_layers.1/Gemm || /input_blocks.11/input_blocks.11.0/emb_layers/emb_layers.1/Gemm || /middle_block/middle_block.0/emb_layers/emb_layers.1/Gemm || /middle_block/middle_block.2/emb_layers/emb_layers.1/Gemm || /input_blocks.4/input_blocks.4.0/emb_layers/emb_layers.1/Gemm || /input_blocks.5/input_blocks.5.0/emb_layers/emb_layers.1/Gemm || /input_blocks.1/input_blocks.1.0/emb_layers/emb_layers.1/Gemm || /input_blocks.2/input_blocks.2.0/emb_layers/emb_layers.1/Gemm",
  "LayerType": "NoOp",
  "Inputs": [
  {
    "Name": "Reformatted Output Tensor 0 to /input_blocks.7/input_blocks.7.0/emb_layers/emb_layers.1/Gemm || /input_blocks.8/input_blocks.8.0/emb_layers/emb_layers.1/Gemm || /input_blocks.10/input_blocks.10.0/emb_layers/emb_layers.1/Gemm || /input_blocks.11/input_blocks.11.0/emb_layers/emb_layers.1/Gemm || /middle_block/middle_block.0/emb_layers/emb_layers.1/Gemm || /middle_block/middle_block.2/emb_layers/emb_layers.1/Gemm || /input_blocks.4/input_blocks.4.0/emb_layers/emb_layers.1/Gemm || /input_blocks.5/input_blocks.5.0/emb_layers/emb_layers.1/Gemm || /input_blocks.1/input_blocks.1.0/emb_layers/emb_layers.1/Gemm || /input_blocks.2/input_blocks.2.0/emb_layers/emb_layers.1/Gemm",
    "Location": "Device",
    "Dimensions": [1,9600,1,1],
    "Format/Datatype": "Channel major FP16 format where channel % 8 == 0"
  }],
  "Outputs": [
  {
    "Name": "/input_blocks.7/input_blocks.7.0/emb_layers/emb_layers.1/Gemm || /input_blocks.8/input_blocks.8.0/emb_layers/emb_layers.1/Gemm || /input_blocks.10/input_blocks.10.0/emb_layers/emb_layers.1/Gemm || /input_blocks.11/input_blocks.11.0/emb_layers/emb_layers.1/Gemm || /middle_block/middle_block.0/emb_layers/emb_layers.1/Gemm || /middle_block/middle_block.2/emb_layers/emb_layers.1/Gemm || /input_blocks.4/input_blocks.4.0/emb_layers/emb_layers.1/Gemm || /input_blocks.5/input_blocks.5.0/emb_layers/emb_layers.1/Gemm || /input_blocks.1/input_blocks.1.0/emb_layers/emb_layers.1/Gemm || /input_blocks.2/input_blocks.2.0/emb_layers/emb_layers.1/Gemm",
    "Location": "Device",
    "Dimensions": [1,9600,1,1],
    "Format/Datatype": "Row major linear FP16 format"
  }],
  "TacticValue": "0x0000000000000000",
  "StreamId": 0,
  "Metadata": ""
},{
  "Name": "reshape_after_/input_blocks.1/input_blocks.1.0/emb_layers/emb_layers.1/Gemm_copy_input",
  "LayerType": "Reformat",
  "Inputs": [
  {
    "Name": "/input_blocks.7/input_blocks.7.0/emb_layers/emb_layers.1/Gemm || /input_blocks.8/input_blocks.8.0/emb_layers/emb_layers.1/Gemm || /input_blocks.10/input_blocks.10.0/emb_layers/emb_layers.1/Gemm || /input_blocks.11/input_blocks.11.0/emb_layers/emb_layers.1/Gemm || /middle_block/middle_block.0/emb_layers/emb_layers.1/Gemm || /middle_block/middle_block.2/emb_layers/emb_layers.1/Gemm || /input_blocks.4/input_blocks.4.0/emb_layers/emb_layers.1/Gemm || /input_blocks.5/input_blocks.5.0/emb_layers/emb_layers.1/Gemm || /input_blocks.1/input_blocks.1.0/emb_layers/emb_layers.1/Gemm || /input_blocks.2/input_blocks.2.0/emb_layers/emb_layers.1/Gemm",
    "Location": "Device",
    "Dimensions": [1,320,1,1],
    "Format/Datatype": "Row major linear FP16 format"
  }],
  "Outputs": [
  {
    "Name": "reshape_after_/input_blocks.1/input_blocks.1.0/emb_layers/emb_layers.1/Gemm_copy_input",
    "Location": "Device",
    "Dimensions": [1,320,1,1],
    "Format/Datatype": "Row major linear FP16 format"
  }],
  "ParameterType": "Reformat",
  "Origin": "SLICE",
  "TacticValue": "0x00000000000003e8",
  "StreamId": 0,
  "Metadata": "[ONNX Layer: /input_blocks.1/input_blocks.1.0/emb_layers/emb_layers.1/Gemm]"
},{
  "Name": "reshape_after_/input_blocks.1/input_blocks.1.0/emb_layers/emb_layers.1/Gemm",
  "LayerType": "NoOp",
  "Inputs": [
  {
    "Name": "reshape_after_/input_blocks.1/input_blocks.1.0/emb_layers/emb_layers.1/Gemm_copy_input",
    "Location": "Device",
    "Dimensions": [1,320,1,1],
    "Format/Datatype": "Row major linear FP16 format"
  }],
  "Outputs": [
  {
    "Name": "/input_blocks.1/input_blocks.1.0/emb_layers/emb_layers.1/Gemm_output_0",
    "Location": "Device",
    "Dimensions": [1,320],
    "Format/Datatype": "Row major linear FP16 format"
  }],
  "TacticValue": "0x0000000000000000",
  "StreamId": 0,
  "Metadata": "[ONNX Layer: /input_blocks.1/input_blocks.1.0/emb_layers/emb_layers.1/Gemm]"
},{
  "Name": "/input_blocks.1/input_blocks.1.0/Cast",
  "LayerType": "NoOp",
  "Inputs": [
  {
    "Name": "/input_blocks.1/input_blocks.1.0/emb_layers/emb_layers.1/Gemm_output_0",
    "Location": "Device",
    "Dimensions": [1,320],
    "Format/Datatype": "Row major linear FP16 format"
  }],
  "Outputs": [
  {
    "Name": "/input_blocks.1/input_blocks.1.0/Cast_output_0",
    "Location": "Device",
    "Dimensions": [1,320],
    "Format/Datatype": "Row major linear FP16 format"
  }],
  "TacticValue": "0x0000000000000000",
  "StreamId": 0,
  "Metadata": ""
},{
  "Name": "/input_blocks.1/input_blocks.1.0/Unsqueeze + /input_blocks.1/input_blocks.1.0/Unsqueeze_1",
  "LayerType": "NoOp",
  "Inputs": [
  {
    "Name": "/input_blocks.1/input_blocks.1.0/Cast_output_0",
    "Location": "Device",
    "Dimensions": [1,320],
    "Format/Datatype": "Row major linear FP16 format"
  }],
  "Outputs": [
  {
    "Name": "/input_blocks.1/input_blocks.1.0/Unsqueeze_1_output_0",
    "Location": "Device",
    "Dimensions": [1,320,1,1],
    "Format/Datatype": "Row major linear FP16 format"
  }],
  "TacticValue": "0x0000000000000000",
  "StreamId": 0,
  "Metadata": "[ONNX Layer: /input_blocks.1/input_blocks.1.0/Unsqueeze]\u001e[ONNX Layer: /input_blocks.1/input_blocks.1.0/Unsqueeze_1]"
},{
  "Name": "Reformatting CopyNode for Input Tensor 0 to /input_blocks.1/input_blocks.1.0/Add",
  "LayerType": "Reformat",
  "Inputs": [
  {
    "Name": "/input_blocks.1/input_blocks.1.0/in_layers/in_layers.2/Conv_output_0",
    "Location": "Device",
    "Dimensions": [1,320,32,48],
    "Format/Datatype": "Channel major FP16 format where channel % 8 == 0"
  }],
  "Outputs": [
  {
    "Name": "Reformatted Input Tensor 0 to /input_blocks.1/input_blocks.1.0/Add",
    "Location": "Device",
    "Dimensions": [1,320,32,48],
    "Format/Datatype": "Row major linear FP16 format"
  }],
  "ParameterType": "Reformat",
  "Origin": "REFORMAT",
  "TacticValue": "0x0000000000000000",
  "StreamId": 0,
  "Metadata": ""
},{
  "Name": "/input_blocks.1/input_blocks.1.0/Add",
  "LayerType": "ElementWise",
  "Inputs": [
  {
    "Name": "Reformatted Input Tensor 0 to /input_blocks.1/input_blocks.1.0/Add",
    "Location": "Device",
    "Dimensions": [1,320,32,48],
    "Format/Datatype": "Row major linear FP16 format"
  },
  {
    "Name": "/input_blocks.1/input_blocks.1.0/Unsqueeze_1_output_0",
    "Location": "Device",
    "Dimensions": [1,320,1,1],
    "Format/Datatype": "Row major linear FP16 format"
  }],
  "Outputs": [
  {
    "Name": "/input_blocks.1/input_blocks.1.0/Add_output_0",
    "Location": "Device",
    "Dimensions": [1,320,32,48],
    "Format/Datatype": "Row major linear FP16 format"
  }],
  "ParameterType": "ElementWise",
  "ElementWiseOperation": "SUM",
  "Activation": "NONE",
  "TacticValue": "0x0000000000000001",
  "StreamId": 0,
  "Metadata": "[ONNX Layer: /input_blocks.1/input_blocks.1.0/Add]"
},{
  "Name": "/input_blocks.1/input_blocks.1.0/out_layers/out_layers.0/Cast",
  "LayerType": "NoOp",
  "Inputs": [
  {
    "Name": "/input_blocks.1/input_blocks.1.0/Add_output_0",
    "Location": "Device",
    "Dimensions": [1,320,32,48],
    "Format/Datatype": "Row major linear FP16 format"
  }],
  "Outputs": [
  {
    "Name": "/input_blocks.1/input_blocks.1.0/out_layers/out_layers.0/Cast_output_0",
    "Location": "Device",
    "Dimensions": [1,320,32,48],
    "Format/Datatype": "Row major linear FP16 format"
  }],
  "TacticValue": "0x0000000000000000",
  "StreamId": 0,
  "Metadata": ""
},{
  "Name": "/input_blocks.1/input_blocks.1.0/out_layers/out_layers.0/Reshape + (Unnamed Layer* 75) [Shuffle]",
  "LayerType": "NoOp",
  "Inputs": [
  {
    "Name": "/input_blocks.1/input_blocks.1.0/out_layers/out_layers.0/Cast_output_0",
    "Location": "Device",
    "Dimensions": [1,320,32,48],
    "Format/Datatype": "Row major linear FP16 format"
  }],
  "Outputs": [
  {
    "Name": "(Unnamed Layer* 75) [Shuffle]_output",
    "Location": "Device",
    "Dimensions": [1,32,15360,1],
    "Format/Datatype": "Row major linear FP16 format"
  }],
  "TacticValue": "0x0000000000000000",
  "StreamId": 0,
  "Metadata": "[ONNX Layer: /input_blocks.1/input_blocks.1.0/out_layers/out_layers.0/Reshape]\u001e"
},{
  "Name": "/input_blocks.1/input_blocks.1.0/out_layers/out_layers.0/InstanceNormalization",
  "LayerType": "PluginV2",
  "Inputs": [
  {
    "Name": "(Unnamed Layer* 75) [Shuffle]_output",
    "Location": "Device",
    "Dimensions": [1,32,15360,1],
    "Format/Datatype": "Row major linear FP16 format"
  }],
  "Outputs": [
  {
    "Name": "(Unnamed Layer* 76) [PluginV2DynamicExt]_output",
    "Location": "Device",
    "Dimensions": [1,32,15360,1],
    "Format/Datatype": "Row major linear FP16 format"
  }],
  "PluginType": "InstanceNormalization_TRT",
  "PluginVersion": "1",
  "TacticValue": "0x0000000000000000",
  "StreamId": 0,
  "Metadata": "[ONNX Layer: /input_blocks.1/input_blocks.1.0/out_layers/out_layers.0/InstanceNormalization]"
},{
  "Name": "(Unnamed Layer* 77) [Shuffle] + /input_blocks.1/input_blocks.1.0/out_layers/out_layers.0/Reshape_1",
  "LayerType": "NoOp",
  "Inputs": [
  {
    "Name": "(Unnamed Layer* 76) [PluginV2DynamicExt]_output",
    "Location": "Device",
    "Dimensions": [1,32,15360,1],
    "Format/Datatype": "Row major linear FP16 format"
  }],
  "Outputs": [
  {
    "Name": "/input_blocks.1/input_blocks.1.0/out_layers/out_layers.0/Reshape_1_output_0",
    "Location": "Device",
    "Dimensions": [1,320,32,48],
    "Format/Datatype": "Row major linear FP16 format"
  }],
  "TacticValue": "0x0000000000000000",
  "StreamId": 0,
  "Metadata": "[ONNX Layer: /input_blocks.1/input_blocks.1.0/out_layers/out_layers.0/Reshape_1]"
},{
  "Name": "onnx::Mul_4111 + (Unnamed Layer* 81) [Shuffle] + /input_blocks.1/input_blocks.1.0/out_layers/out_layers.0/Mul + onnx::Add_4112 + (Unnamed Layer* 84) [Shuffle] + /input_blocks.1/input_blocks.1.0/out_layers/out_layers.0/Add",
  "LayerType": "Scale",
  "Inputs": [
  {
    "Name": "/input_blocks.1/input_blocks.1.0/out_layers/out_layers.0/Reshape_1_output_0",
    "Location": "Device",
    "Dimensions": [1,320,32,48],
    "Format/Datatype": "Row major linear FP16 format"
  }],
  "Outputs": [
  {
    "Name": "/input_blocks.1/input_blocks.1.0/out_layers/out_layers.0/Add_output_0",
    "Location": "Device",
    "Dimensions": [1,320,32,48],
    "Format/Datatype": "Row major linear FP16 format"
  }],
  "ParameterType": "Scale",
  "Mode": "CHANNEL",
  "Shift": {"Type": "Half", "Count": 320},
  "Scale": {"Type": "Half", "Count": 320},
  "Power": {"Type": "Half", "Count": 0},
  "Activation": "NONE",
  "ChannelAxis": 1,
  "TacticValue": "0x0000000000000000",
  "StreamId": 0,
  "Metadata": "[ONNX Layer: /input_blocks.1/input_blocks.1.0/out_layers/out_layers.0/Mul]\u001e[ONNX Layer: /input_blocks.1/input_blocks.1.0/out_layers/out_layers.0/Add]"
},{
  "Name": "/input_blocks.1/input_blocks.1.0/out_layers/out_layers.0/Cast_1",
  "LayerType": "MyelinReformat",
  "Inputs": [
  {
    "Name": "/input_blocks.1/input_blocks.1.0/out_layers/out_layers.0/Add_output_0",
    "Location": "Device",
    "Dimensions": [1,320,32,48],
    "Format/Datatype": "Row major linear FP16 format"
  }],
  "Outputs": [
  {
    "Name": "/input_blocks.1/input_blocks.1.0/out_layers/out_layers.0/Cast_1_output_0",
    "Location": "Device",
    "Dimensions": [1,320,32,48],
    "Format/Datatype": "Channel major FP16 format where channel % 8 == 0"
  }],
  "TacticValue": "0x0000000000000000",
  "StreamId": 0,
  "Metadata": ""
},{
  "Name": "Reformatting CopyNode for Input Tensor 0 to PWN(PWN(/input_blocks.1/input_blocks.1.0/out_layers/out_layers.1/Sigmoid), /input_blocks.1/input_blocks.1.0/out_layers/out_layers.1/Mul)",
  "LayerType": "NoOp",
  "Inputs": [
  {
    "Name": "/input_blocks.1/input_blocks.1.0/out_layers/out_layers.0/Cast_1_output_0",
    "Location": "Device",
    "Dimensions": [1,320,32,48],
    "Format/Datatype": "Channel major FP16 format where channel % 8 == 0"
  }],
  "Outputs": [
  {
    "Name": "Reformatted Input Tensor 0 to PWN(PWN(/input_blocks.1/input_blocks.1.0/out_layers/out_layers.1/Sigmoid), /input_blocks.1/input_blocks.1.0/out_layers/out_layers.1/Mul)",
    "Location": "Device",
    "Dimensions": [1,320,32,48],
    "Format/Datatype": "Channel major FP16 format where channel % 2 == 0"
  }],
  "TacticValue": "0x0000000000000000",
  "StreamId": 0,
  "Metadata": ""
},{
  "Name": "PWN(PWN(/input_blocks.1/input_blocks.1.0/out_layers/out_layers.1/Sigmoid), /input_blocks.1/input_blocks.1.0/out_layers/out_layers.1/Mul)",
  "LayerType": "PointWiseV2",
  "Inputs": [
  {
    "Name": "Reformatted Input Tensor 0 to PWN(PWN(/input_blocks.1/input_blocks.1.0/out_layers/out_layers.1/Sigmoid), /input_blocks.1/input_blocks.1.0/out_layers/out_layers.1/Mul)",
    "Location": "Device",
    "Dimensions": [1,320,32,48],
    "Format/Datatype": "Channel major FP16 format where channel % 2 == 0"
  }],
  "Outputs": [
  {
    "Name": "/input_blocks.1/input_blocks.1.0/out_layers/out_layers.1/Mul_output_0",
    "Location": "Device",
    "Dimensions": [1,320,32,48],
    "Format/Datatype": "Channel major FP16 format where channel % 2 == 0"
  }],
  "ParameterType": "PointWise",
  "ParameterSubType": "PointWiseExpression",
  "NbInputArgs": 1,
  "InputArgs": ["arg0"],
  "NbOutputVars": 1,
  "OutputVars": ["var4"],
  "NbParams": 0,
  "Params": [],
  "NbLiterals": 5,
  "Literals": ["0.000000e+00f", "1.000000e+00f", "0.000000e+00f", "0.000000e+00f", "5.000000e-01f"],
  "NbOperations": 5,
  "Operations": ["auto const var0 = pwgen::iMul(literal4, arg0);", "auto const var1 = pwgen::iTanh(var0);", "auto const var2 = pwgen::iMul(var1, literal4);", "auto const var3 = pwgen::iPlus(var2, literal4);", "auto const var4 = pwgen::iMul(arg0, var3);"],
  "TacticValue": "0x0000000000000013",
  "StreamId": 0,
  "Metadata": "[ONNX Layer: /input_blocks.1/input_blocks.1.0/out_layers/out_layers.1/Sigmoid]\u001e[ONNX Layer: /input_blocks.1/input_blocks.1.0/out_layers/out_layers.1/Mul]"
},{
  "Name": "Reformatting CopyNode for Input Tensor 0 to /input_blocks.1/input_blocks.1.0/out_layers/out_layers.3/Conv + /input_blocks.1/input_blocks.1.0/Add_1",
  "LayerType": "NoOp",
  "Inputs": [
  {
    "Name": "/input_blocks.1/input_blocks.1.0/out_layers/out_layers.1/Mul_output_0",
    "Location": "Device",
    "Dimensions": [1,320,32,48],
    "Format/Datatype": "Channel major FP16 format where channel % 2 == 0"
  }],
  "Outputs": [
  {
    "Name": "Reformatted Input Tensor 0 to /input_blocks.1/input_blocks.1.0/out_layers/out_layers.3/Conv + /input_blocks.1/input_blocks.1.0/Add_1",
    "Location": "Device",
    "Dimensions": [1,320,32,48],
    "Format/Datatype": "Channel major FP16 format where channel % 8 == 0"
  }],
  "TacticValue": "0x0000000000000000",
  "StreamId": 0,
  "Metadata": ""
},{
  "Name": "/input_blocks.1/input_blocks.1.0/out_layers/out_layers.3/Conv + /input_blocks.1/input_blocks.1.0/Add_1",
  "LayerType": "CaskConvolution",
  "Inputs": [
  {
    "Name": "Reformatted Input Tensor 0 to /input_blocks.1/input_blocks.1.0/out_layers/out_layers.3/Conv + /input_blocks.1/input_blocks.1.0/Add_1",
    "Location": "Device",
    "Dimensions": [1,320,32,48],
    "Format/Datatype": "Channel major FP16 format where channel % 8 == 0"
  },
  {
    "Name": "/input_blocks.1/input_blocks.1.0/in_layers/in_layers.0/Cast_output_0",
    "Location": "Device",
    "Dimensions": [1,320,32,48],
    "Format/Datatype": "Channel major FP16 format where channel % 8 == 0"
  }],
  "Outputs": [
  {
    "Name": "/input_blocks.1/input_blocks.1.0/Add_1_output_0",
    "Location": "Device",
    "Dimensions": [1,320,32,48],
    "Format/Datatype": "Channel major FP16 format where channel % 8 == 0"
  }],
  "ParameterType": "Convolution",
  "Kernel": [3,3],
  "PaddingMode": "kEXPLICIT_ROUND_DOWN",
  "PrePadding": [1,1],
  "PostPadding": [1,1],
  "Stride": [1,1],
  "Dilation": [1,1],
  "OutMaps": 320,
  "Groups": 1,
  "Weights": {"Type": "Half", "Count": 921600},
  "Bias": {"Type": "Half", "Count": 320},
  "HasSparseWeights": 0,
  "HasDynamicFilter": 0,
  "HasDynamicBias": 0,
  "HasResidual": 1,
  "ConvXAsActInputIdx": -1,
  "BiasAsActInputIdx": -1,
  "ResAsActInputIdx": -1,
  "Activation": "NONE",
  "HasBias": 1,
  "HasReLU": 0,
  "TacticName": "sm80_xmma_fprop_implicit_gemm_f16f16_f16f16_f16_nhwckrsc_nhwc_tilesize128x64x64_stage3_warpsize2x2x1_g1_tensor16x8x16_t1r3s3_aACCESS",
  "TacticValue": "0x263a38afd75e3a43",
  "StreamId": 0,
  "Metadata": "[ONNX Layer: /input_blocks.1/input_blocks.1.0/out_layers/out_layers.3/Conv]\u001e[ONNX Layer: /input_blocks.1/input_blocks.1.0/Add_1]"
},{
  "Name": "Reformatting CopyNode for Input Tensor 0 to /input_blocks.1/input_blocks.1.1/norm/Reshape + (Unnamed Layer* 92) [Shuffle]",
  "LayerType": "Reformat",
  "Inputs": [
  {
    "Name": "/input_blocks.1/input_blocks.1.0/Add_1_output_0",
    "Location": "Device",
    "Dimensions": [1,320,32,48],
    "Format/Datatype": "Channel major FP16 format where channel % 8 == 0"
  }],
  "Outputs": [
  {
    "Name": "Reformatted Input Tensor 0 to /input_blocks.1/input_blocks.1.1/norm/Reshape + (Unnamed Layer* 92) [Shuffle]",
    "Location": "Device",
    "Dimensions": [1,320,32,48],
    "Format/Datatype": "Row major linear FP16 format"
  }],
  "ParameterType": "Reformat",
  "Origin": "REFORMAT",
  "TacticValue": "0x0000000000000000",
  "StreamId": 0,
  "Metadata": ""
},{
  "Name": "/input_blocks.1/input_blocks.1.1/norm/Reshape + (Unnamed Layer* 92) [Shuffle]",
  "LayerType": "NoOp",
  "Inputs": [
  {
    "Name": "Reformatted Input Tensor 0 to /input_blocks.1/input_blocks.1.1/norm/Reshape + (Unnamed Layer* 92) [Shuffle]",
    "Location": "Device",
    "Dimensions": [1,320,32,48],
    "Format/Datatype": "Row major linear FP16 format"
  }],
  "Outputs": [
  {
    "Name": "(Unnamed Layer* 92) [Shuffle]_output",
    "Location": "Device",
    "Dimensions": [1,32,15360,1],
    "Format/Datatype": "Row major linear FP16 format"
  }],
  "TacticValue": "0x0000000000000000",
  "StreamId": 0,
  "Metadata": "[ONNX Layer: /input_blocks.1/input_blocks.1.1/norm/Reshape]\u001e"
},{
  "Name": "/input_blocks.1/input_blocks.1.1/norm/InstanceNormalization",
  "LayerType": "PluginV2",
  "Inputs": [
  {
    "Name": "(Unnamed Layer* 92) [Shuffle]_output",
    "Location": "Device",
    "Dimensions": [1,32,15360,1],
    "Format/Datatype": "Row major linear FP16 format"
  }],
  "Outputs": [
  {
    "Name": "(Unnamed Layer* 93) [PluginV2DynamicExt]_output",
    "Location": "Device",
    "Dimensions": [1,32,15360,1],
    "Format/Datatype": "Row major linear FP16 format"
  }],
  "PluginType": "InstanceNormalization_TRT",
  "PluginVersion": "1",
  "TacticValue": "0x0000000000000000",
  "StreamId": 0,
  "Metadata": "[ONNX Layer: /input_blocks.1/input_blocks.1.1/norm/InstanceNormalization]"
},{
  "Name": "(Unnamed Layer* 94) [Shuffle] + /input_blocks.1/input_blocks.1.1/norm/Reshape_1",
  "LayerType": "NoOp",
  "Inputs": [
  {
    "Name": "(Unnamed Layer* 93) [PluginV2DynamicExt]_output",
    "Location": "Device",
    "Dimensions": [1,32,15360,1],
    "Format/Datatype": "Row major linear FP16 format"
  }],
  "Outputs": [
  {
    "Name": "/input_blocks.1/input_blocks.1.1/norm/Reshape_1_output_0",
    "Location": "Device",
    "Dimensions": [1,320,32,48],
    "Format/Datatype": "Row major linear FP16 format"
  }],
  "TacticValue": "0x0000000000000000",
  "StreamId": 0,
  "Metadata": "[ONNX Layer: /input_blocks.1/input_blocks.1.1/norm/Reshape_1]"
},{
  "Name": "onnx::Mul_4113 + (Unnamed Layer* 98) [Shuffle] + /input_blocks.1/input_blocks.1.1/norm/Mul + onnx::Add_4114 + (Unnamed Layer* 101) [Shuffle] + /input_blocks.1/input_blocks.1.1/norm/Add",
  "LayerType": "Scale",
  "Inputs": [
  {
    "Name": "/input_blocks.1/input_blocks.1.1/norm/Reshape_1_output_0",
    "Location": "Device",
    "Dimensions": [1,320,32,48],
    "Format/Datatype": "Row major linear FP16 format"
  }],
  "Outputs": [
  {
    "Name": "/input_blocks.1/input_blocks.1.1/norm/Add_output_0",
    "Location": "Device",
    "Dimensions": [1,320,32,48],
    "Format/Datatype": "Row major linear FP16 format"
  }],
  "ParameterType": "Scale",
  "Mode": "CHANNEL",
  "Shift": {"Type": "Half", "Count": 320},
  "Scale": {"Type": "Half", "Count": 320},
  "Power": {"Type": "Half", "Count": 0},
  "Activation": "NONE",
  "ChannelAxis": 1,
  "TacticValue": "0x0000000000000000",
  "StreamId": 0,
  "Metadata": "[ONNX Layer: /input_blocks.1/input_blocks.1.1/norm/Mul]\u001e[ONNX Layer: /input_blocks.1/input_blocks.1.1/norm/Add]"
},{
  "Name": "Reformatting CopyNode for Input Tensor 0 to /input_blocks.1/input_blocks.1.1/proj_in/Conv",
  "LayerType": "Reformat",
  "Inputs": [
  {
    "Name": "/input_blocks.1/input_blocks.1.1/norm/Add_output_0",
    "Location": "Device",
    "Dimensions": [1,320,32,48],
    "Format/Datatype": "Row major linear FP16 format"
  }],
  "Outputs": [
  {
    "Name": "Reformatted Input Tensor 0 to /input_blocks.1/input_blocks.1.1/proj_in/Conv",
    "Location": "Device",
    "Dimensions": [1,320,32,48],
    "Format/Datatype": "Channel major FP16 format where channel % 8 == 0"
  }],
  "ParameterType": "Reformat",
  "Origin": "REFORMAT",
  "TacticValue": "0x0000000000000000",
  "StreamId": 0,
  "Metadata": ""
},{
  "Name": "/input_blocks.1/input_blocks.1.1/proj_in/Conv",
  "LayerType": "CaskGemmConvolution",
  "Inputs": [
  {
    "Name": "Reformatted Input Tensor 0 to /input_blocks.1/input_blocks.1.1/proj_in/Conv",
    "Location": "Device",
    "Dimensions": [1,320,32,48],
    "Format/Datatype": "Channel major FP16 format where channel % 8 == 0"
  }],
  "Outputs": [
  {
    "Name": "/input_blocks.1/input_blocks.1.1/proj_in/Conv_output_0",
    "Location": "Device",
    "Dimensions": [1,320,32,48],
    "Format/Datatype": "Channel major FP16 format where channel % 8 == 0"
  }],
  "ParameterType": "Convolution",
  "Kernel": [1,1],
  "PaddingMode": "kEXPLICIT_ROUND_DOWN",
  "PrePadding": [0,0],
  "PostPadding": [0,0],
  "Stride": [1,1],
  "Dilation": [1,1],
  "OutMaps": 320,
  "Groups": 1,
  "Weights": {"Type": "Half", "Count": 102400},
  "Bias": {"Type": "Half", "Count": 320},
  "HasSparseWeights": 0,
  "HasDynamicFilter": 0,
  "HasDynamicBias": 0,
  "HasResidual": 0,
  "ConvXAsActInputIdx": -1,
  "BiasAsActInputIdx": -1,
  "ResAsActInputIdx": -1,
  "Activation": "NONE",
  "TacticName": "sm80_xmma_gemm_f16f16_f16f16_f16_nn_n_tilesize128x64x32_stage5_warpsize2x2x1_tensor16x8x16",
  "TacticValue": "0x0000000000020722",
  "StreamId": 0,
  "Metadata": "[ONNX Layer: /input_blocks.1/input_blocks.1.1/proj_in/Conv]"
},{
  "Name": "{ForeignNode[input_blocks.1.1.transformer_blocks.0.norm1.weight + (Unnamed Layer* 109) [Shuffle].../input_blocks.1/input_blocks.1.1/Reshape_2 + /input_blocks.1/input_blocks.1.1/Transpose_1 + /input_blocks.1/input_blocks.1.1/Reshape_3]}",
  "LayerType": "Myelin",
  "Inputs": [
  {
    "Name": "/input_blocks.1/input_blocks.1.1/proj_in/Conv_output_0",
    "Location": "Device",
    "Dimensions": [1,320,32,48],
    "Format/Datatype": "Channel major FP16 format where channel % 8 == 0"
  },
  {
    "Name": "onnx::MatMul_3",
    "Location": "Device",
    "Dimensions": [1,77,768],
    "Format/Datatype": "Row major linear FP32"
  }],
  "Outputs": [
  {
    "Name": "/input_blocks.1/input_blocks.1.1/Reshape_3_output_0",
    "Location": "Device",
    "Dimensions": [1,320,32,48],
    "Format/Datatype": "Channel major FP16 format where channel % 8 == 0"
  }],
  "TacticValue": "0x0000000000000000",
  "StreamId": 0,
  "Metadata": ""
},{
  "Name": "/input_blocks.1/input_blocks.1.1/proj_out/Conv + /input_blocks.1/input_blocks.1.1/Add",
  "LayerType": "CaskGemmConvolution",
  "Inputs": [
  {
    "Name": "/input_blocks.1/input_blocks.1.1/Reshape_3_output_0",
    "Location": "Device",
    "Dimensions": [1,320,32,48],
    "Format/Datatype": "Channel major FP16 format where channel % 8 == 0"
  },
  {
    "Name": "/input_blocks.1/input_blocks.1.0/Add_1_output_0",
    "Location": "Device",
    "Dimensions": [1,320,32,48],
    "Format/Datatype": "Channel major FP16 format where channel % 8 == 0"
  }],
  "Outputs": [
  {
    "Name": "/input_blocks.1/input_blocks.1.1/Add_output_0",
    "Location": "Device",
    "Dimensions": [1,320,32,48],
    "Format/Datatype": "Channel major FP16 format where channel % 8 == 0"
  }],
  "ParameterType": "Convolution",
  "Kernel": [1,1],
  "PaddingMode": "kEXPLICIT_ROUND_DOWN",
  "PrePadding": [0,0],
  "PostPadding": [0,0],
  "Stride": [1,1],
  "Dilation": [1,1],
  "OutMaps": 320,
  "Groups": 1,
  "Weights": {"Type": "Half", "Count": 102400},
  "Bias": {"Type": "Half", "Count": 320},
  "HasSparseWeights": 0,
  "HasDynamicFilter": 0,
  "HasDynamicBias": 0,
  "HasResidual": 1,
  "ConvXAsActInputIdx": -1,
  "BiasAsActInputIdx": -1,
  "ResAsActInputIdx": -1,
  "Activation": "NONE",
  "TacticName": "ampere_h16816gemm_128x64_ldg8_relu_stages_32x6_nn_v1",
  "TacticValue": "0x00000000000206a0",
  "StreamId": 0,
  "Metadata": "[ONNX Layer: /input_blocks.1/input_blocks.1.1/proj_out/Conv]\u001e[ONNX Layer: /input_blocks.1/input_blocks.1.1/Add]"
},{
  "Name": "/input_blocks.2/input_blocks.2.0/in_layers/in_layers.0/Cast",
  "LayerType": "NoOp",
  "Inputs": [
  {
    "Name": "/input_blocks.1/input_blocks.1.1/Add_output_0",
    "Location": "Device",
    "Dimensions": [1,320,32,48],
    "Format/Datatype": "Channel major FP16 format where channel % 8 == 0"
  }],
  "Outputs": [
  {
    "Name": "/input_blocks.2/input_blocks.2.0/in_layers/in_layers.0/Cast_output_0",
    "Location": "Device",
    "Dimensions": [1,320,32,48],
    "Format/Datatype": "Channel major FP16 format where channel % 8 == 0"
  }],
  "TacticValue": "0x0000000000000000",
  "StreamId": 0,
  "Metadata": ""
},{
  "Name": "Reformatting CopyNode for Input Tensor 0 to /input_blocks.2/input_blocks.2.0/in_layers/in_layers.0/Reshape + (Unnamed Layer* 407) [Shuffle]",
  "LayerType": "Reformat",
  "Inputs": [
  {
    "Name": "/input_blocks.2/input_blocks.2.0/in_layers/in_layers.0/Cast_output_0",
    "Location": "Device",
    "Dimensions": [1,320,32,48],
    "Format/Datatype": "Channel major FP16 format where channel % 8 == 0"
  }],
  "Outputs": [
  {
    "Name": "Reformatted Input Tensor 0 to /input_blocks.2/input_blocks.2.0/in_layers/in_layers.0/Reshape + (Unnamed Layer* 407) [Shuffle]",
    "Location": "Device",
    "Dimensions": [1,320,32,48],
    "Format/Datatype": "Row major linear FP16 format"
  }],
  "ParameterType": "Reformat",
  "Origin": "REFORMAT",
  "TacticValue": "0x0000000000000000",
  "StreamId": 0,
  "Metadata": ""
},{
  "Name": "/input_blocks.2/input_blocks.2.0/in_layers/in_layers.0/Reshape + (Unnamed Layer* 407) [Shuffle]",
  "LayerType": "NoOp",
  "Inputs": [
  {
    "Name": "Reformatted Input Tensor 0 to /input_blocks.2/input_blocks.2.0/in_layers/in_layers.0/Reshape + (Unnamed Layer* 407) [Shuffle]",
    "Location": "Device",
    "Dimensions": [1,320,32,48],
    "Format/Datatype": "Row major linear FP16 format"
  }],
  "Outputs": [
  {
    "Name": "(Unnamed Layer* 407) [Shuffle]_output",
    "Location": "Device",
    "Dimensions": [1,32,15360,1],
    "Format/Datatype": "Row major linear FP16 format"
  }],
  "TacticValue": "0x0000000000000000",
  "StreamId": 0,
  "Metadata": "[ONNX Layer: /input_blocks.2/input_blocks.2.0/in_layers/in_layers.0/Reshape]\u001e"
},{
  "Name": "/input_blocks.2/input_blocks.2.0/in_layers/in_layers.0/InstanceNormalization",
  "LayerType": "PluginV2",
  "Inputs": [
  {
    "Name": "(Unnamed Layer* 407) [Shuffle]_output",
    "Location": "Device",
    "Dimensions": [1,32,15360,1],
    "Format/Datatype": "Row major linear FP16 format"
  }],
  "Outputs": [
  {
    "Name": "(Unnamed Layer* 408) [PluginV2DynamicExt]_output",
    "Location": "Device",
    "Dimensions": [1,32,15360,1],
    "Format/Datatype": "Row major linear FP16 format"
  }],
  "PluginType": "InstanceNormalization_TRT",
  "PluginVersion": "1",
  "TacticValue": "0x0000000000000000",
  "StreamId": 0,
  "Metadata": "[ONNX Layer: /input_blocks.2/input_blocks.2.0/in_layers/in_layers.0/InstanceNormalization]"
},{
  "Name": "(Unnamed Layer* 409) [Shuffle] + /input_blocks.2/input_blocks.2.0/in_layers/in_layers.0/Reshape_1",
  "LayerType": "NoOp",
  "Inputs": [
  {
    "Name": "(Unnamed Layer* 408) [PluginV2DynamicExt]_output",
    "Location": "Device",
    "Dimensions": [1,32,15360,1],
    "Format/Datatype": "Row major linear FP16 format"
  }],
  "Outputs": [
  {
    "Name": "/input_blocks.2/input_blocks.2.0/in_layers/in_layers.0/Reshape_1_output_0",
    "Location": "Device",
    "Dimensions": [1,320,32,48],
    "Format/Datatype": "Row major linear FP16 format"
  }],
  "TacticValue": "0x0000000000000000",
  "StreamId": 0,
  "Metadata": "[ONNX Layer: /input_blocks.2/input_blocks.2.0/in_layers/in_layers.0/Reshape_1]"
},{
  "Name": "onnx::Mul_4186 + (Unnamed Layer* 413) [Shuffle] + /input_blocks.2/input_blocks.2.0/in_layers/in_layers.0/Mul + onnx::Add_4187 + (Unnamed Layer* 416) [Shuffle] + /input_blocks.2/input_blocks.2.0/in_layers/in_layers.0/Add",
  "LayerType": "Scale",
  "Inputs": [
  {
    "Name": "/input_blocks.2/input_blocks.2.0/in_layers/in_layers.0/Reshape_1_output_0",
    "Location": "Device",
    "Dimensions": [1,320,32,48],
    "Format/Datatype": "Row major linear FP16 format"
  }],
  "Outputs": [
  {
    "Name": "/input_blocks.2/input_blocks.2.0/in_layers/in_layers.0/Add_output_0",
    "Location": "Device",
    "Dimensions": [1,320,32,48],
    "Format/Datatype": "Row major linear FP16 format"
  }],
  "ParameterType": "Scale",
  "Mode": "CHANNEL",
  "Shift": {"Type": "Half", "Count": 320},
  "Scale": {"Type": "Half", "Count": 320},
  "Power": {"Type": "Half", "Count": 0},
  "Activation": "NONE",
  "ChannelAxis": 1,
  "TacticValue": "0x0000000000000000",
  "StreamId": 0,
  "Metadata": "[ONNX Layer: /input_blocks.2/input_blocks.2.0/in_layers/in_layers.0/Mul]\u001e[ONNX Layer: /input_blocks.2/input_blocks.2.0/in_layers/in_layers.0/Add]"
},{
  "Name": "/input_blocks.2/input_blocks.2.0/in_layers/in_layers.0/Cast_1",
  "LayerType": "MyelinReformat",
  "Inputs": [
  {
    "Name": "/input_blocks.2/input_blocks.2.0/in_layers/in_layers.0/Add_output_0",
    "Location": "Device",
    "Dimensions": [1,320,32,48],
    "Format/Datatype": "Row major linear FP16 format"
  }],
  "Outputs": [
  {
    "Name": "/input_blocks.2/input_blocks.2.0/in_layers/in_layers.0/Cast_1_output_0",
    "Location": "Device",
    "Dimensions": [1,320,32,48],
    "Format/Datatype": "Channel major FP16 format where channel % 8 == 0"
  }],
  "TacticValue": "0x0000000000000000",
  "StreamId": 0,
  "Metadata": ""
},{
  "Name": "Reformatting CopyNode for Input Tensor 0 to PWN(PWN(/input_blocks.2/input_blocks.2.0/in_layers/in_layers.1/Sigmoid), /input_blocks.2/input_blocks.2.0/in_layers/in_layers.1/Mul)",
  "LayerType": "NoOp",
  "Inputs": [
  {
    "Name": "/input_blocks.2/input_blocks.2.0/in_layers/in_layers.0/Cast_1_output_0",
    "Location": "Device",
    "Dimensions": [1,320,32,48],
    "Format/Datatype": "Channel major FP16 format where channel % 8 == 0"
  }],
  "Outputs": [
  {
    "Name": "Reformatted Input Tensor 0 to PWN(PWN(/input_blocks.2/input_blocks.2.0/in_layers/in_layers.1/Sigmoid), /input_blocks.2/input_blocks.2.0/in_layers/in_layers.1/Mul)",
    "Location": "Device",
    "Dimensions": [1,320,32,48],
    "Format/Datatype": "Channel major FP16 format where channel % 2 == 0"
  }],
  "TacticValue": "0x0000000000000000",
  "StreamId": 0,
  "Metadata": ""
},{
  "Name": "PWN(PWN(/input_blocks.2/input_blocks.2.0/in_layers/in_layers.1/Sigmoid), /input_blocks.2/input_blocks.2.0/in_layers/in_layers.1/Mul)",
  "LayerType": "PointWiseV2",
  "Inputs": [
  {
    "Name": "Reformatted Input Tensor 0 to PWN(PWN(/input_blocks.2/input_blocks.2.0/in_layers/in_layers.1/Sigmoid), /input_blocks.2/input_blocks.2.0/in_layers/in_layers.1/Mul)",
    "Location": "Device",
    "Dimensions": [1,320,32,48],
    "Format/Datatype": "Channel major FP16 format where channel % 2 == 0"
  }],
  "Outputs": [
  {
    "Name": "/input_blocks.2/input_blocks.2.0/in_layers/in_layers.1/Mul_output_0",
    "Location": "Device",
    "Dimensions": [1,320,32,48],
    "Format/Datatype": "Channel major FP16 format where channel % 2 == 0"
  }],
  "ParameterType": "PointWise",
  "ParameterSubType": "PointWiseExpression",
  "NbInputArgs": 1,
  "InputArgs": ["arg0"],
  "NbOutputVars": 1,
  "OutputVars": ["var4"],
  "NbParams": 0,
  "Params": [],
  "NbLiterals": 5,
  "Literals": ["0.000000e+00f", "1.000000e+00f", "0.000000e+00f", "0.000000e+00f", "5.000000e-01f"],
  "NbOperations": 5,
  "Operations": ["auto const var0 = pwgen::iMul(literal4, arg0);", "auto const var1 = pwgen::iTanh(var0);", "auto const var2 = pwgen::iMul(var1, literal4);", "auto const var3 = pwgen::iPlus(var2, literal4);", "auto const var4 = pwgen::iMul(arg0, var3);"],
  "TacticValue": "0x0000000000000013",
  "StreamId": 0,
  "Metadata": "[ONNX Layer: /input_blocks.2/input_blocks.2.0/in_layers/in_layers.1/Sigmoid]\u001e[ONNX Layer: /input_blocks.2/input_blocks.2.0/in_layers/in_layers.1/Mul]"
},{
  "Name": "Reformatting CopyNode for Input Tensor 0 to /input_blocks.2/input_blocks.2.0/in_layers/in_layers.2/Conv",
  "LayerType": "NoOp",
  "Inputs": [
  {
    "Name": "/input_blocks.2/input_blocks.2.0/in_layers/in_layers.1/Mul_output_0",
    "Location": "Device",
    "Dimensions": [1,320,32,48],
    "Format/Datatype": "Channel major FP16 format where channel % 2 == 0"
  }],
  "Outputs": [
  {
    "Name": "Reformatted Input Tensor 0 to /input_blocks.2/input_blocks.2.0/in_layers/in_layers.2/Conv",
    "Location": "Device",
    "Dimensions": [1,320,32,48],
    "Format/Datatype": "Channel major FP16 format where channel % 8 == 0"
  }],
  "TacticValue": "0x0000000000000000",
  "StreamId": 0,
  "Metadata": ""
},{
  "Name": "/input_blocks.2/input_blocks.2.0/in_layers/in_layers.2/Conv",
  "LayerType": "CaskConvolution",
  "Inputs": [
  {
    "Name": "Reformatted Input Tensor 0 to /input_blocks.2/input_blocks.2.0/in_layers/in_layers.2/Conv",
    "Location": "Device",
    "Dimensions": [1,320,32,48],
    "Format/Datatype": "Channel major FP16 format where channel % 8 == 0"
  }],
  "Outputs": [
  {
    "Name": "/input_blocks.2/input_blocks.2.0/in_layers/in_layers.2/Conv_output_0",
    "Location": "Device",
    "Dimensions": [1,320,32,48],
    "Format/Datatype": "Channel major FP16 format where channel % 8 == 0"
  }],
  "ParameterType": "Convolution",
  "Kernel": [3,3],
  "PaddingMode": "kEXPLICIT_ROUND_DOWN",
  "PrePadding": [1,1],
  "PostPadding": [1,1],
  "Stride": [1,1],
  "Dilation": [1,1],
  "OutMaps": 320,
  "Groups": 1,
  "Weights": {"Type": "Half", "Count": 921600},
  "Bias": {"Type": "Half", "Count": 320},
  "HasSparseWeights": 0,
  "HasDynamicFilter": 0,
  "HasDynamicBias": 0,
  "HasResidual": 0,
  "ConvXAsActInputIdx": -1,
  "BiasAsActInputIdx": -1,
  "ResAsActInputIdx": -1,
  "Activation": "NONE",
  "HasBias": 1,
  "HasReLU": 0,
  "TacticName": "sm80_xmma_fprop_implicit_gemm_f16f16_f16f16_f16_nhwckrsc_nhwc_tilesize128x64x64_stage3_warpsize2x2x1_g1_tensor16x8x16_t1r3s3_aACCESS",
  "TacticValue": "0x263a38afd75e3a43",
  "StreamId": 0,
  "Metadata": "[ONNX Layer: /input_blocks.2/input_blocks.2.0/in_layers/in_layers.2/Conv]"
},{
  "Name": "reshape_after_/input_blocks.2/input_blocks.2.0/emb_layers/emb_layers.1/Gemm_copy_input",
  "LayerType": "Reformat",
  "Inputs": [
  {
    "Name": "/input_blocks.7/input_blocks.7.0/emb_layers/emb_layers.1/Gemm || /input_blocks.8/input_blocks.8.0/emb_layers/emb_layers.1/Gemm || /input_blocks.10/input_blocks.10.0/emb_layers/emb_layers.1/Gemm || /input_blocks.11/input_blocks.11.0/emb_layers/emb_layers.1/Gemm || /middle_block/middle_block.0/emb_layers/emb_layers.1/Gemm || /middle_block/middle_block.2/emb_layers/emb_layers.1/Gemm || /input_blocks.4/input_blocks.4.0/emb_layers/emb_layers.1/Gemm || /input_blocks.5/input_blocks.5.0/emb_layers/emb_layers.1/Gemm || /input_blocks.1/input_blocks.1.0/emb_layers/emb_layers.1/Gemm || /input_blocks.2/input_blocks.2.0/emb_layers/emb_layers.1/Gemm",
    "Location": "Device",
    "Dimensions": [1,320,1,1],
    "Format/Datatype": "Row major linear FP16 format"
  }],
  "Outputs": [
  {
    "Name": "reshape_after_/input_blocks.2/input_blocks.2.0/emb_layers/emb_layers.1/Gemm_copy_input",
    "Location": "Device",
    "Dimensions": [1,320,1,1],
    "Format/Datatype": "Row major linear FP16 format"
  }],
  "ParameterType": "Reformat",
  "Origin": "SLICE",
  "TacticValue": "0x00000000000003e8",
  "StreamId": 0,
  "Metadata": "[ONNX Layer: /input_blocks.2/input_blocks.2.0/emb_layers/emb_layers.1/Gemm]"
},{
  "Name": "reshape_after_/input_blocks.2/input_blocks.2.0/emb_layers/emb_layers.1/Gemm",
  "LayerType": "NoOp",
  "Inputs": [
  {
    "Name": "reshape_after_/input_blocks.2/input_blocks.2.0/emb_layers/emb_layers.1/Gemm_copy_input",
    "Location": "Device",
    "Dimensions": [1,320,1,1],
    "Format/Datatype": "Row major linear FP16 format"
  }],
  "Outputs": [
  {
    "Name": "/input_blocks.2/input_blocks.2.0/emb_layers/emb_layers.1/Gemm_output_0",
    "Location": "Device",
    "Dimensions": [1,320],
    "Format/Datatype": "Row major linear FP16 format"
  }],
  "TacticValue": "0x0000000000000000",
  "StreamId": 0,
  "Metadata": "[ONNX Layer: /input_blocks.2/input_blocks.2.0/emb_layers/emb_layers.1/Gemm]"
},{
  "Name": "/input_blocks.2/input_blocks.2.0/Cast",
  "LayerType": "NoOp",
  "Inputs": [
  {
    "Name": "/input_blocks.2/input_blocks.2.0/emb_layers/emb_layers.1/Gemm_output_0",
    "Location": "Device",
    "Dimensions": [1,320],
    "Format/Datatype": "Row major linear FP16 format"
  }],
  "Outputs": [
  {
    "Name": "/input_blocks.2/input_blocks.2.0/Cast_output_0",
    "Location": "Device",
    "Dimensions": [1,320],
    "Format/Datatype": "Row major linear FP16 format"
  }],
  "TacticValue": "0x0000000000000000",
  "StreamId": 0,
  "Metadata": ""
},{
  "Name": "/input_blocks.2/input_blocks.2.0/Unsqueeze + /input_blocks.2/input_blocks.2.0/Unsqueeze_1",
  "LayerType": "NoOp",
  "Inputs": [
  {
    "Name": "/input_blocks.2/input_blocks.2.0/Cast_output_0",
    "Location": "Device",
    "Dimensions": [1,320],
    "Format/Datatype": "Row major linear FP16 format"
  }],
  "Outputs": [
  {
    "Name": "/input_blocks.2/input_blocks.2.0/Unsqueeze_1_output_0",
    "Location": "Device",
    "Dimensions": [1,320,1,1],
    "Format/Datatype": "Row major linear FP16 format"
  }],
  "TacticValue": "0x0000000000000000",
  "StreamId": 0,
  "Metadata": "[ONNX Layer: /input_blocks.2/input_blocks.2.0/Unsqueeze]\u001e[ONNX Layer: /input_blocks.2/input_blocks.2.0/Unsqueeze_1]"
},{
  "Name": "Reformatting CopyNode for Input Tensor 0 to /input_blocks.2/input_blocks.2.0/Add",
  "LayerType": "Reformat",
  "Inputs": [
  {
    "Name": "/input_blocks.2/input_blocks.2.0/in_layers/in_layers.2/Conv_output_0",
    "Location": "Device",
    "Dimensions": [1,320,32,48],
    "Format/Datatype": "Channel major FP16 format where channel % 8 == 0"
  }],
  "Outputs": [
  {
    "Name": "Reformatted Input Tensor 0 to /input_blocks.2/input_blocks.2.0/Add",
    "Location": "Device",
    "Dimensions": [1,320,32,48],
    "Format/Datatype": "Row major linear FP16 format"
  }],
  "ParameterType": "Reformat",
  "Origin": "REFORMAT",
  "TacticValue": "0x0000000000000000",
  "StreamId": 0,
  "Metadata": ""
},{
  "Name": "/input_blocks.2/input_blocks.2.0/Add",
  "LayerType": "ElementWise",
  "Inputs": [
  {
    "Name": "Reformatted Input Tensor 0 to /input_blocks.2/input_blocks.2.0/Add",
    "Location": "Device",
    "Dimensions": [1,320,32,48],
    "Format/Datatype": "Row major linear FP16 format"
  },
  {
    "Name": "/input_blocks.2/input_blocks.2.0/Unsqueeze_1_output_0",
    "Location": "Device",
    "Dimensions": [1,320,1,1],
    "Format/Datatype": "Row major linear FP16 format"
  }],
  "Outputs": [
  {
    "Name": "/input_blocks.2/input_blocks.2.0/Add_output_0",
    "Location": "Device",
    "Dimensions": [1,320,32,48],
    "Format/Datatype": "Row major linear FP16 format"
  }],
  "ParameterType": "ElementWise",
  "ElementWiseOperation": "SUM",
  "Activation": "NONE",
  "TacticValue": "0x0000000000000001",
  "StreamId": 0,
  "Metadata": "[ONNX Layer: /input_blocks.2/input_blocks.2.0/Add]"
},{
  "Name": "/input_blocks.2/input_blocks.2.0/out_layers/out_layers.0/Cast",
  "LayerType": "NoOp",
  "Inputs": [
  {
    "Name": "/input_blocks.2/input_blocks.2.0/Add_output_0",
    "Location": "Device",
    "Dimensions": [1,320,32,48],
    "Format/Datatype": "Row major linear FP16 format"
  }],
  "Outputs": [
  {
    "Name": "/input_blocks.2/input_blocks.2.0/out_layers/out_layers.0/Cast_output_0",
    "Location": "Device",
    "Dimensions": [1,320,32,48],
    "Format/Datatype": "Row major linear FP16 format"
  }],
  "TacticValue": "0x0000000000000000",
  "StreamId": 0,
  "Metadata": ""
},{
  "Name": "/input_blocks.2/input_blocks.2.0/out_layers/out_layers.0/Reshape + (Unnamed Layer* 433) [Shuffle]",
  "LayerType": "NoOp",
  "Inputs": [
  {
    "Name": "/input_blocks.2/input_blocks.2.0/out_layers/out_layers.0/Cast_output_0",
    "Location": "Device",
    "Dimensions": [1,320,32,48],
    "Format/Datatype": "Row major linear FP16 format"
  }],
  "Outputs": [
  {
    "Name": "(Unnamed Layer* 433) [Shuffle]_output",
    "Location": "Device",
    "Dimensions": [1,32,15360,1],
    "Format/Datatype": "Row major linear FP16 format"
  }],
  "TacticValue": "0x0000000000000000",
  "StreamId": 0,
  "Metadata": "[ONNX Layer: /input_blocks.2/input_blocks.2.0/out_layers/out_layers.0/Reshape]\u001e"
},{
  "Name": "/input_blocks.2/input_blocks.2.0/out_layers/out_layers.0/InstanceNormalization",
  "LayerType": "PluginV2",
  "Inputs": [
  {
    "Name": "(Unnamed Layer* 433) [Shuffle]_output",
    "Location": "Device",
    "Dimensions": [1,32,15360,1],
    "Format/Datatype": "Row major linear FP16 format"
  }],
  "Outputs": [
  {
    "Name": "(Unnamed Layer* 434) [PluginV2DynamicExt]_output",
    "Location": "Device",
    "Dimensions": [1,32,15360,1],
    "Format/Datatype": "Row major linear FP16 format"
  }],
  "PluginType": "InstanceNormalization_TRT",
  "PluginVersion": "1",
  "TacticValue": "0x0000000000000000",
  "StreamId": 0,
  "Metadata": "[ONNX Layer: /input_blocks.2/input_blocks.2.0/out_layers/out_layers.0/InstanceNormalization]"
},{
  "Name": "(Unnamed Layer* 435) [Shuffle] + /input_blocks.2/input_blocks.2.0/out_layers/out_layers.0/Reshape_1",
  "LayerType": "NoOp",
  "Inputs": [
  {
    "Name": "(Unnamed Layer* 434) [PluginV2DynamicExt]_output",
    "Location": "Device",
    "Dimensions": [1,32,15360,1],
    "Format/Datatype": "Row major linear FP16 format"
  }],
  "Outputs": [
  {
    "Name": "/input_blocks.2/input_blocks.2.0/out_layers/out_layers.0/Reshape_1_output_0",
    "Location": "Device",
    "Dimensions": [1,320,32,48],
    "Format/Datatype": "Row major linear FP16 format"
  }],
  "TacticValue": "0x0000000000000000",
  "StreamId": 0,
  "Metadata": "[ONNX Layer: /input_blocks.2/input_blocks.2.0/out_layers/out_layers.0/Reshape_1]"
},{
  "Name": "onnx::Mul_4188 + (Unnamed Layer* 439) [Shuffle] + /input_blocks.2/input_blocks.2.0/out_layers/out_layers.0/Mul + onnx::Add_4189 + (Unnamed Layer* 442) [Shuffle] + /input_blocks.2/input_blocks.2.0/out_layers/out_layers.0/Add",
  "LayerType": "Scale",
  "Inputs": [
  {
    "Name": "/input_blocks.2/input_blocks.2.0/out_layers/out_layers.0/Reshape_1_output_0",
    "Location": "Device",
    "Dimensions": [1,320,32,48],
    "Format/Datatype": "Row major linear FP16 format"
  }],
  "Outputs": [
  {
    "Name": "/input_blocks.2/input_blocks.2.0/out_layers/out_layers.0/Add_output_0",
    "Location": "Device",
    "Dimensions": [1,320,32,48],
    "Format/Datatype": "Row major linear FP16 format"
  }],
  "ParameterType": "Scale",
  "Mode": "CHANNEL",
  "Shift": {"Type": "Half", "Count": 320},
  "Scale": {"Type": "Half", "Count": 320},
  "Power": {"Type": "Half", "Count": 0},
  "Activation": "NONE",
  "ChannelAxis": 1,
  "TacticValue": "0x0000000000000000",
  "StreamId": 0,
  "Metadata": "[ONNX Layer: /input_blocks.2/input_blocks.2.0/out_layers/out_layers.0/Mul]\u001e[ONNX Layer: /input_blocks.2/input_blocks.2.0/out_layers/out_layers.0/Add]"
},{
  "Name": "/input_blocks.2/input_blocks.2.0/out_layers/out_layers.0/Cast_1",
  "LayerType": "MyelinReformat",
  "Inputs": [
  {
    "Name": "/input_blocks.2/input_blocks.2.0/out_layers/out_layers.0/Add_output_0",
    "Location": "Device",
    "Dimensions": [1,320,32,48],
    "Format/Datatype": "Row major linear FP16 format"
  }],
  "Outputs": [
  {
    "Name": "/input_blocks.2/input_blocks.2.0/out_layers/out_layers.0/Cast_1_output_0",
    "Location": "Device",
    "Dimensions": [1,320,32,48],
    "Format/Datatype": "Channel major FP16 format where channel % 8 == 0"
  }],
  "TacticValue": "0x0000000000000000",
  "StreamId": 0,
  "Metadata": ""
},{
  "Name": "Reformatting CopyNode for Input Tensor 0 to PWN(PWN(/input_blocks.2/input_blocks.2.0/out_layers/out_layers.1/Sigmoid), /input_blocks.2/input_blocks.2.0/out_layers/out_layers.1/Mul)",
  "LayerType": "NoOp",
  "Inputs": [
  {
    "Name": "/input_blocks.2/input_blocks.2.0/out_layers/out_layers.0/Cast_1_output_0",
    "Location": "Device",
    "Dimensions": [1,320,32,48],
    "Format/Datatype": "Channel major FP16 format where channel % 8 == 0"
  }],
  "Outputs": [
  {
    "Name": "Reformatted Input Tensor 0 to PWN(PWN(/input_blocks.2/input_blocks.2.0/out_layers/out_layers.1/Sigmoid), /input_blocks.2/input_blocks.2.0/out_layers/out_layers.1/Mul)",
    "Location": "Device",
    "Dimensions": [1,320,32,48],
    "Format/Datatype": "Channel major FP16 format where channel % 2 == 0"
  }],
  "TacticValue": "0x0000000000000000",
  "StreamId": 0,
  "Metadata": ""
},{
  "Name": "PWN(PWN(/input_blocks.2/input_blocks.2.0/out_layers/out_layers.1/Sigmoid), /input_blocks.2/input_blocks.2.0/out_layers/out_layers.1/Mul)",
  "LayerType": "PointWiseV2",
  "Inputs": [
  {
    "Name": "Reformatted Input Tensor 0 to PWN(PWN(/input_blocks.2/input_blocks.2.0/out_layers/out_layers.1/Sigmoid), /input_blocks.2/input_blocks.2.0/out_layers/out_layers.1/Mul)",
    "Location": "Device",
    "Dimensions": [1,320,32,48],
    "Format/Datatype": "Channel major FP16 format where channel % 2 == 0"
  }],
  "Outputs": [
  {
    "Name": "/input_blocks.2/input_blocks.2.0/out_layers/out_layers.1/Mul_output_0",
    "Location": "Device",
    "Dimensions": [1,320,32,48],
    "Format/Datatype": "Channel major FP16 format where channel % 2 == 0"
  }],
  "ParameterType": "PointWise",
  "ParameterSubType": "PointWiseExpression",
  "NbInputArgs": 1,
  "InputArgs": ["arg0"],
  "NbOutputVars": 1,
  "OutputVars": ["var4"],
  "NbParams": 0,
  "Params": [],
  "NbLiterals": 5,
  "Literals": ["0.000000e+00f", "1.000000e+00f", "0.000000e+00f", "0.000000e+00f", "5.000000e-01f"],
  "NbOperations": 5,
  "Operations": ["auto const var0 = pwgen::iMul(literal4, arg0);", "auto const var1 = pwgen::iTanh(var0);", "auto const var2 = pwgen::iMul(var1, literal4);", "auto const var3 = pwgen::iPlus(var2, literal4);", "auto const var4 = pwgen::iMul(arg0, var3);"],
  "TacticValue": "0x0000000000000013",
  "StreamId": 0,
  "Metadata": "[ONNX Layer: /input_blocks.2/input_blocks.2.0/out_layers/out_layers.1/Sigmoid]\u001e[ONNX Layer: /input_blocks.2/input_blocks.2.0/out_layers/out_layers.1/Mul]"
},{
  "Name": "Reformatting CopyNode for Input Tensor 0 to /input_blocks.2/input_blocks.2.0/out_layers/out_layers.3/Conv + /input_blocks.2/input_blocks.2.0/Add_1",
  "LayerType": "NoOp",
  "Inputs": [
  {
    "Name": "/input_blocks.2/input_blocks.2.0/out_layers/out_layers.1/Mul_output_0",
    "Location": "Device",
    "Dimensions": [1,320,32,48],
    "Format/Datatype": "Channel major FP16 format where channel % 2 == 0"
  }],
  "Outputs": [
  {
    "Name": "Reformatted Input Tensor 0 to /input_blocks.2/input_blocks.2.0/out_layers/out_layers.3/Conv + /input_blocks.2/input_blocks.2.0/Add_1",
    "Location": "Device",
    "Dimensions": [1,320,32,48],
    "Format/Datatype": "Channel major FP16 format where channel % 8 == 0"
  }],
  "TacticValue": "0x0000000000000000",
  "StreamId": 0,
  "Metadata": ""
},{
  "Name": "/input_blocks.2/input_blocks.2.0/out_layers/out_layers.3/Conv + /input_blocks.2/input_blocks.2.0/Add_1",
  "LayerType": "CaskConvolution",
  "Inputs": [
  {
    "Name": "Reformatted Input Tensor 0 to /input_blocks.2/input_blocks.2.0/out_layers/out_layers.3/Conv + /input_blocks.2/input_blocks.2.0/Add_1",
    "Location": "Device",
    "Dimensions": [1,320,32,48],
    "Format/Datatype": "Channel major FP16 format where channel % 8 == 0"
  },
  {
    "Name": "/input_blocks.2/input_blocks.2.0/in_layers/in_layers.0/Cast_output_0",
    "Location": "Device",
    "Dimensions": [1,320,32,48],
    "Format/Datatype": "Channel major FP16 format where channel % 8 == 0"
  }],
  "Outputs": [
  {
    "Name": "/input_blocks.2/input_blocks.2.0/Add_1_output_0",
    "Location": "Device",
    "Dimensions": [1,320,32,48],
    "Format/Datatype": "Channel major FP16 format where channel % 8 == 0"
  }],
  "ParameterType": "Convolution",
  "Kernel": [3,3],
  "PaddingMode": "kEXPLICIT_ROUND_DOWN",
  "PrePadding": [1,1],
  "PostPadding": [1,1],
  "Stride": [1,1],
  "Dilation": [1,1],
  "OutMaps": 320,
  "Groups": 1,
  "Weights": {"Type": "Half", "Count": 921600},
  "Bias": {"Type": "Half", "Count": 320},
  "HasSparseWeights": 0,
  "HasDynamicFilter": 0,
  "HasDynamicBias": 0,
  "HasResidual": 1,
  "ConvXAsActInputIdx": -1,
  "BiasAsActInputIdx": -1,
  "ResAsActInputIdx": -1,
  "Activation": "NONE",
  "HasBias": 1,
  "HasReLU": 0,
  "TacticName": "sm80_xmma_fprop_implicit_gemm_f16f16_f16f16_f16_nhwckrsc_nhwc_tilesize128x64x64_stage3_warpsize2x2x1_g1_tensor16x8x16_t1r3s3_aACCESS",
  "TacticValue": "0x263a38afd75e3a43",
  "StreamId": 0,
  "Metadata": "[ONNX Layer: /input_blocks.2/input_blocks.2.0/out_layers/out_layers.3/Conv]\u001e[ONNX Layer: /input_blocks.2/input_blocks.2.0/Add_1]"
},{
  "Name": "Reformatting CopyNode for Input Tensor 0 to /input_blocks.2/input_blocks.2.1/norm/Reshape + (Unnamed Layer* 456) [Shuffle]",
  "LayerType": "Reformat",
  "Inputs": [
  {
    "Name": "/input_blocks.2/input_blocks.2.0/Add_1_output_0",
    "Location": "Device",
    "Dimensions": [1,320,32,48],
    "Format/Datatype": "Channel major FP16 format where channel % 8 == 0"
  }],
  "Outputs": [
  {
    "Name": "Reformatted Input Tensor 0 to /input_blocks.2/input_blocks.2.1/norm/Reshape + (Unnamed Layer* 456) [Shuffle]",
    "Location": "Device",
    "Dimensions": [1,320,32,48],
    "Format/Datatype": "Row major linear FP16 format"
  }],
  "ParameterType": "Reformat",
  "Origin": "REFORMAT",
  "TacticValue": "0x0000000000000000",
  "StreamId": 0,
  "Metadata": ""
},{
  "Name": "/input_blocks.2/input_blocks.2.1/norm/Reshape + (Unnamed Layer* 456) [Shuffle]",
  "LayerType": "NoOp",
  "Inputs": [
  {
    "Name": "Reformatted Input Tensor 0 to /input_blocks.2/input_blocks.2.1/norm/Reshape + (Unnamed Layer* 456) [Shuffle]",
    "Location": "Device",
    "Dimensions": [1,320,32,48],
    "Format/Datatype": "Row major linear FP16 format"
  }],
  "Outputs": [
  {
    "Name": "(Unnamed Layer* 456) [Shuffle]_output",
    "Location": "Device",
    "Dimensions": [1,32,15360,1],
    "Format/Datatype": "Row major linear FP16 format"
  }],
  "TacticValue": "0x0000000000000000",
  "StreamId": 0,
  "Metadata": "[ONNX Layer: /input_blocks.2/input_blocks.2.1/norm/Reshape]\u001e"
},{
  "Name": "/input_blocks.2/input_blocks.2.1/norm/InstanceNormalization",
  "LayerType": "PluginV2",
  "Inputs": [
  {
    "Name": "(Unnamed Layer* 456) [Shuffle]_output",
    "Location": "Device",
    "Dimensions": [1,32,15360,1],
    "Format/Datatype": "Row major linear FP16 format"
  }],
  "Outputs": [
  {
    "Name": "(Unnamed Layer* 457) [PluginV2DynamicExt]_output",
    "Location": "Device",
    "Dimensions": [1,32,15360,1],
    "Format/Datatype": "Row major linear FP16 format"
  }],
  "PluginType": "InstanceNormalization_TRT",
  "PluginVersion": "1",
  "TacticValue": "0x0000000000000000",
  "StreamId": 0,
  "Metadata": "[ONNX Layer: /input_blocks.2/input_blocks.2.1/norm/InstanceNormalization]"
},{
  "Name": "(Unnamed Layer* 458) [Shuffle] + /input_blocks.2/input_blocks.2.1/norm/Reshape_1",
  "LayerType": "NoOp",
  "Inputs": [
  {
    "Name": "(Unnamed Layer* 457) [PluginV2DynamicExt]_output",
    "Location": "Device",
    "Dimensions": [1,32,15360,1],
    "Format/Datatype": "Row major linear FP16 format"
  }],
  "Outputs": [
  {
    "Name": "/input_blocks.2/input_blocks.2.1/norm/Reshape_1_output_0",
    "Location": "Device",
    "Dimensions": [1,320,32,48],
    "Format/Datatype": "Row major linear FP16 format"
  }],
  "TacticValue": "0x0000000000000000",
  "StreamId": 0,
  "Metadata": "[ONNX Layer: /input_blocks.2/input_blocks.2.1/norm/Reshape_1]"
},{
  "Name": "onnx::Mul_4190 + (Unnamed Layer* 462) [Shuffle] + /input_blocks.2/input_blocks.2.1/norm/Mul + onnx::Add_4191 + (Unnamed Layer* 465) [Shuffle] + /input_blocks.2/input_blocks.2.1/norm/Add",
  "LayerType": "Scale",
  "Inputs": [
  {
    "Name": "/input_blocks.2/input_blocks.2.1/norm/Reshape_1_output_0",
    "Location": "Device",
    "Dimensions": [1,320,32,48],
    "Format/Datatype": "Row major linear FP16 format"
  }],
  "Outputs": [
  {
    "Name": "/input_blocks.2/input_blocks.2.1/norm/Add_output_0",
    "Location": "Device",
    "Dimensions": [1,320,32,48],
    "Format/Datatype": "Row major linear FP16 format"
  }],
  "ParameterType": "Scale",
  "Mode": "CHANNEL",
  "Shift": {"Type": "Half", "Count": 320},
  "Scale": {"Type": "Half", "Count": 320},
  "Power": {"Type": "Half", "Count": 0},
  "Activation": "NONE",
  "ChannelAxis": 1,
  "TacticValue": "0x0000000000000000",
  "StreamId": 0,
  "Metadata": "[ONNX Layer: /input_blocks.2/input_blocks.2.1/norm/Mul]\u001e[ONNX Layer: /input_blocks.2/input_blocks.2.1/norm/Add]"
},{
  "Name": "Reformatting CopyNode for Input Tensor 0 to /input_blocks.2/input_blocks.2.1/proj_in/Conv",
  "LayerType": "Reformat",
  "Inputs": [
  {
    "Name": "/input_blocks.2/input_blocks.2.1/norm/Add_output_0",
    "Location": "Device",
    "Dimensions": [1,320,32,48],
    "Format/Datatype": "Row major linear FP16 format"
  }],
  "Outputs": [
  {
    "Name": "Reformatted Input Tensor 0 to /input_blocks.2/input_blocks.2.1/proj_in/Conv",
    "Location": "Device",
    "Dimensions": [1,320,32,48],
    "Format/Datatype": "Channel major FP16 format where channel % 8 == 0"
  }],
  "ParameterType": "Reformat",
  "Origin": "REFORMAT",
  "TacticValue": "0x0000000000000000",
  "StreamId": 0,
  "Metadata": ""
},{
  "Name": "/input_blocks.2/input_blocks.2.1/proj_in/Conv",
  "LayerType": "CaskGemmConvolution",
  "Inputs": [
  {
    "Name": "Reformatted Input Tensor 0 to /input_blocks.2/input_blocks.2.1/proj_in/Conv",
    "Location": "Device",
    "Dimensions": [1,320,32,48],
    "Format/Datatype": "Channel major FP16 format where channel % 8 == 0"
  }],
  "Outputs": [
  {
    "Name": "/input_blocks.2/input_blocks.2.1/proj_in/Conv_output_0",
    "Location": "Device",
    "Dimensions": [1,320,32,48],
    "Format/Datatype": "Channel major FP16 format where channel % 8 == 0"
  }],
  "ParameterType": "Convolution",
  "Kernel": [1,1],
  "PaddingMode": "kEXPLICIT_ROUND_DOWN",
  "PrePadding": [0,0],
  "PostPadding": [0,0],
  "Stride": [1,1],
  "Dilation": [1,1],
  "OutMaps": 320,
  "Groups": 1,
  "Weights": {"Type": "Half", "Count": 102400},
  "Bias": {"Type": "Half", "Count": 320},
  "HasSparseWeights": 0,
  "HasDynamicFilter": 0,
  "HasDynamicBias": 0,
  "HasResidual": 0,
  "ConvXAsActInputIdx": -1,
  "BiasAsActInputIdx": -1,
  "ResAsActInputIdx": -1,
  "Activation": "NONE",
  "TacticName": "sm80_xmma_gemm_f16f16_f16f16_f16_nn_n_tilesize128x64x32_stage5_warpsize2x2x1_tensor16x8x16",
  "TacticValue": "0x0000000000020722",
  "StreamId": 0,
  "Metadata": "[ONNX Layer: /input_blocks.2/input_blocks.2.1/proj_in/Conv]"
},{
  "Name": "{ForeignNode[input_blocks.2.1.transformer_blocks.0.norm1.weight + (Unnamed Layer* 513) [Shuffle].../input_blocks.2/input_blocks.2.1/Reshape_2 + /input_blocks.2/input_blocks.2.1/Transpose_1 + /input_blocks.2/input_blocks.2.1/Reshape_3]}",
  "LayerType": "Myelin",
  "Inputs": [
  {
    "Name": "/input_blocks.2/input_blocks.2.1/proj_in/Conv_output_0",
    "Location": "Device",
    "Dimensions": [1,320,32,48],
    "Format/Datatype": "Channel major FP16 format where channel % 8 == 0"
  },
  {
    "Name": "onnx::MatMul_3",
    "Location": "Device",
    "Dimensions": [1,77,768],
    "Format/Datatype": "Row major linear FP32"
  }],
  "Outputs": [
  {
    "Name": "/input_blocks.2/input_blocks.2.1/Reshape_3_output_0",
    "Location": "Device",
    "Dimensions": [1,320,32,48],
    "Format/Datatype": "Channel major FP16 format where channel % 8 == 0"
  }],
  "TacticValue": "0x0000000000000000",
  "StreamId": 0,
  "Metadata": ""
},{
  "Name": "/input_blocks.2/input_blocks.2.1/proj_out/Conv + /input_blocks.2/input_blocks.2.1/Add",
  "LayerType": "CaskGemmConvolution",
  "Inputs": [
  {
    "Name": "/input_blocks.2/input_blocks.2.1/Reshape_3_output_0",
    "Location": "Device",
    "Dimensions": [1,320,32,48],
    "Format/Datatype": "Channel major FP16 format where channel % 8 == 0"
  },
  {
    "Name": "/input_blocks.2/input_blocks.2.0/Add_1_output_0",
    "Location": "Device",
    "Dimensions": [1,320,32,48],
    "Format/Datatype": "Channel major FP16 format where channel % 8 == 0"
  }],
  "Outputs": [
  {
    "Name": "/input_blocks.2/input_blocks.2.1/Add_output_0",
    "Location": "Device",
    "Dimensions": [1,320,32,48],
    "Format/Datatype": "Channel major FP16 format where channel % 8 == 0"
  }],
  "ParameterType": "Convolution",
  "Kernel": [1,1],
  "PaddingMode": "kEXPLICIT_ROUND_DOWN",
  "PrePadding": [0,0],
  "PostPadding": [0,0],
  "Stride": [1,1],
  "Dilation": [1,1],
  "OutMaps": 320,
  "Groups": 1,
  "Weights": {"Type": "Half", "Count": 102400},
  "Bias": {"Type": "Half", "Count": 320},
  "HasSparseWeights": 0,
  "HasDynamicFilter": 0,
  "HasDynamicBias": 0,
  "HasResidual": 1,
  "ConvXAsActInputIdx": -1,
  "BiasAsActInputIdx": -1,
  "ResAsActInputIdx": -1,
  "Activation": "NONE",
  "TacticName": "ampere_h16816gemm_128x64_ldg8_relu_stages_32x6_nn_v1",
  "TacticValue": "0x00000000000206a0",
  "StreamId": 0,
  "Metadata": "[ONNX Layer: /input_blocks.2/input_blocks.2.1/proj_out/Conv]\u001e[ONNX Layer: /input_blocks.2/input_blocks.2.1/Add]"
},{
  "Name": "/input_blocks.3/input_blocks.3.0/op/Conv",
  "LayerType": "CaskConvolution",
  "Inputs": [
  {
    "Name": "/input_blocks.2/input_blocks.2.1/Add_output_0",
    "Location": "Device",
    "Dimensions": [1,320,32,48],
    "Format/Datatype": "Channel major FP16 format where channel % 8 == 0"
  }],
  "Outputs": [
  {
    "Name": "/input_blocks.3/input_blocks.3.0/op/Conv_output_0",
    "Location": "Device",
    "Dimensions": [1,320,16,24],
    "Format/Datatype": "Channel major FP16 format where channel % 8 == 0"
  }],
  "ParameterType": "Convolution",
  "Kernel": [3,3],
  "PaddingMode": "kEXPLICIT_ROUND_DOWN",
  "PrePadding": [1,1],
  "PostPadding": [1,1],
  "Stride": [2,2],
  "Dilation": [1,1],
  "OutMaps": 320,
  "Groups": 1,
  "Weights": {"Type": "Half", "Count": 921600},
  "Bias": {"Type": "Half", "Count": 320},
  "HasSparseWeights": 0,
  "HasDynamicFilter": 0,
  "HasDynamicBias": 0,
  "HasResidual": 0,
  "ConvXAsActInputIdx": -1,
  "BiasAsActInputIdx": -1,
  "ResAsActInputIdx": -1,
  "Activation": "NONE",
  "HasBias": 1,
  "HasReLU": 0,
  "TacticName": "sm80_xmma_fprop_implicit_gemm_f16f16_f16f16_f16_nhwckrsc_nhwc_tilesize64x64x64_stage4_warpsize2x2x1_g1_tensor16x8x16",
  "TacticValue": "0xf35e0311fa1cc516",
  "StreamId": 0,
  "Metadata": "[ONNX Layer: /input_blocks.3/input_blocks.3.0/op/Conv]"
},{
  "Name": "/input_blocks.4/input_blocks.4.0/in_layers/in_layers.0/Cast",
  "LayerType": "NoOp",
  "Inputs": [
  {
    "Name": "/input_blocks.3/input_blocks.3.0/op/Conv_output_0",
    "Location": "Device",
    "Dimensions": [1,320,16,24],
    "Format/Datatype": "Channel major FP16 format where channel % 8 == 0"
  }],
  "Outputs": [
  {
    "Name": "/input_blocks.4/input_blocks.4.0/in_layers/in_layers.0/Cast_output_0",
    "Location": "Device",
    "Dimensions": [1,320,16,24],
    "Format/Datatype": "Channel major FP16 format where channel % 8 == 0"
  }],
  "TacticValue": "0x0000000000000000",
  "StreamId": 0,
  "Metadata": ""
},{
  "Name": "Reformatting CopyNode for Input Tensor 0 to /input_blocks.4/input_blocks.4.0/in_layers/in_layers.0/Reshape + (Unnamed Layer* 915) [Shuffle]",
  "LayerType": "Reformat",
  "Inputs": [
  {
    "Name": "/input_blocks.4/input_blocks.4.0/in_layers/in_layers.0/Cast_output_0",
    "Location": "Device",
    "Dimensions": [1,320,16,24],
    "Format/Datatype": "Channel major FP16 format where channel % 8 == 0"
  }],
  "Outputs": [
  {
    "Name": "Reformatted Input Tensor 0 to /input_blocks.4/input_blocks.4.0/in_layers/in_layers.0/Reshape + (Unnamed Layer* 915) [Shuffle]",
    "Location": "Device",
    "Dimensions": [1,320,16,24],
    "Format/Datatype": "Row major linear FP16 format"
  }],
  "ParameterType": "Reformat",
  "Origin": "REFORMAT",
  "TacticValue": "0x0000000000000000",
  "StreamId": 0,
  "Metadata": ""
},{
  "Name": "/input_blocks.4/input_blocks.4.0/in_layers/in_layers.0/Reshape + (Unnamed Layer* 915) [Shuffle]",
  "LayerType": "NoOp",
  "Inputs": [
  {
    "Name": "Reformatted Input Tensor 0 to /input_blocks.4/input_blocks.4.0/in_layers/in_layers.0/Reshape + (Unnamed Layer* 915) [Shuffle]",
    "Location": "Device",
    "Dimensions": [1,320,16,24],
    "Format/Datatype": "Row major linear FP16 format"
  }],
  "Outputs": [
  {
    "Name": "(Unnamed Layer* 915) [Shuffle]_output",
    "Location": "Device",
    "Dimensions": [1,32,3840,1],
    "Format/Datatype": "Row major linear FP16 format"
  }],
  "TacticValue": "0x0000000000000000",
  "StreamId": 0,
  "Metadata": "[ONNX Layer: /input_blocks.4/input_blocks.4.0/in_layers/in_layers.0/Reshape]\u001e"
},{
  "Name": "/input_blocks.4/input_blocks.4.0/in_layers/in_layers.0/InstanceNormalization",
  "LayerType": "PluginV2",
  "Inputs": [
  {
    "Name": "(Unnamed Layer* 915) [Shuffle]_output",
    "Location": "Device",
    "Dimensions": [1,32,3840,1],
    "Format/Datatype": "Row major linear FP16 format"
  }],
  "Outputs": [
  {
    "Name": "(Unnamed Layer* 916) [PluginV2DynamicExt]_output",
    "Location": "Device",
    "Dimensions": [1,32,3840,1],
    "Format/Datatype": "Row major linear FP16 format"
  }],
  "PluginType": "InstanceNormalization_TRT",
  "PluginVersion": "1",
  "TacticValue": "0x0000000000000000",
  "StreamId": 0,
  "Metadata": "[ONNX Layer: /input_blocks.4/input_blocks.4.0/in_layers/in_layers.0/InstanceNormalization]"
},{
  "Name": "(Unnamed Layer* 917) [Shuffle] + /input_blocks.4/input_blocks.4.0/in_layers/in_layers.0/Reshape_1",
  "LayerType": "NoOp",
  "Inputs": [
  {
    "Name": "(Unnamed Layer* 916) [PluginV2DynamicExt]_output",
    "Location": "Device",
    "Dimensions": [1,32,3840,1],
    "Format/Datatype": "Row major linear FP16 format"
  }],
  "Outputs": [
  {
    "Name": "/input_blocks.4/input_blocks.4.0/in_layers/in_layers.0/Reshape_1_output_0",
    "Location": "Device",
    "Dimensions": [1,320,16,24],
    "Format/Datatype": "Row major linear FP16 format"
  }],
  "TacticValue": "0x0000000000000000",
  "StreamId": 0,
  "Metadata": "[ONNX Layer: /input_blocks.4/input_blocks.4.0/in_layers/in_layers.0/Reshape_1]"
},{
  "Name": "onnx::Mul_4226 + (Unnamed Layer* 921) [Shuffle] + /input_blocks.4/input_blocks.4.0/in_layers/in_layers.0/Mul + onnx::Add_4227 + (Unnamed Layer* 924) [Shuffle] + /input_blocks.4/input_blocks.4.0/in_layers/in_layers.0/Add",
  "LayerType": "Scale",
  "Inputs": [
  {
    "Name": "/input_blocks.4/input_blocks.4.0/in_layers/in_layers.0/Reshape_1_output_0",
    "Location": "Device",
    "Dimensions": [1,320,16,24],
    "Format/Datatype": "Row major linear FP16 format"
  }],
  "Outputs": [
  {
    "Name": "/input_blocks.4/input_blocks.4.0/in_layers/in_layers.0/Add_output_0",
    "Location": "Device",
    "Dimensions": [1,320,16,24],
    "Format/Datatype": "Row major linear FP16 format"
  }],
  "ParameterType": "Scale",
  "Mode": "CHANNEL",
  "Shift": {"Type": "Half", "Count": 320},
  "Scale": {"Type": "Half", "Count": 320},
  "Power": {"Type": "Half", "Count": 0},
  "Activation": "NONE",
  "ChannelAxis": 1,
  "TacticValue": "0x0000000000000000",
  "StreamId": 0,
  "Metadata": "[ONNX Layer: /input_blocks.4/input_blocks.4.0/in_layers/in_layers.0/Mul]\u001e[ONNX Layer: /input_blocks.4/input_blocks.4.0/in_layers/in_layers.0/Add]"
},{
  "Name": "/input_blocks.4/input_blocks.4.0/in_layers/in_layers.0/Cast_1",
  "LayerType": "MyelinReformat",
  "Inputs": [
  {
    "Name": "/input_blocks.4/input_blocks.4.0/in_layers/in_layers.0/Add_output_0",
    "Location": "Device",
    "Dimensions": [1,320,16,24],
    "Format/Datatype": "Row major linear FP16 format"
  }],
  "Outputs": [
  {
    "Name": "/input_blocks.4/input_blocks.4.0/in_layers/in_layers.0/Cast_1_output_0",
    "Location": "Device",
    "Dimensions": [1,320,16,24],
    "Format/Datatype": "Channel major FP16 format where channel % 2 == 0"
  }],
  "TacticValue": "0x0000000000000000",
  "StreamId": 0,
  "Metadata": ""
},{
  "Name": "Reformatting CopyNode for Input Tensor 0 to PWN(PWN(/input_blocks.4/input_blocks.4.0/in_layers/in_layers.1/Sigmoid), /input_blocks.4/input_blocks.4.0/in_layers/in_layers.1/Mul)",
  "LayerType": "NoOp",
  "Inputs": [
  {
    "Name": "/input_blocks.4/input_blocks.4.0/in_layers/in_layers.0/Cast_1_output_0",
    "Location": "Device",
    "Dimensions": [1,320,16,24],
    "Format/Datatype": "Channel major FP16 format where channel % 2 == 0"
  }],
  "Outputs": [
  {
    "Name": "Reformatted Input Tensor 0 to PWN(PWN(/input_blocks.4/input_blocks.4.0/in_layers/in_layers.1/Sigmoid), /input_blocks.4/input_blocks.4.0/in_layers/in_layers.1/Mul)",
    "Location": "Device",
    "Dimensions": [1,320,16,24],
    "Format/Datatype": "Channel major FP16 format where channel % 8 == 0"
  }],
  "TacticValue": "0x0000000000000000",
  "StreamId": 0,
  "Metadata": ""
},{
  "Name": "PWN(PWN(/input_blocks.4/input_blocks.4.0/in_layers/in_layers.1/Sigmoid), /input_blocks.4/input_blocks.4.0/in_layers/in_layers.1/Mul)",
  "LayerType": "PointWiseV2",
  "Inputs": [
  {
    "Name": "Reformatted Input Tensor 0 to PWN(PWN(/input_blocks.4/input_blocks.4.0/in_layers/in_layers.1/Sigmoid), /input_blocks.4/input_blocks.4.0/in_layers/in_layers.1/Mul)",
    "Location": "Device",
    "Dimensions": [1,320,16,24],
    "Format/Datatype": "Channel major FP16 format where channel % 8 == 0"
  }],
  "Outputs": [
  {
    "Name": "/input_blocks.4/input_blocks.4.0/in_layers/in_layers.1/Mul_output_0",
    "Location": "Device",
    "Dimensions": [1,320,16,24],
    "Format/Datatype": "Channel major FP16 format where channel % 8 == 0"
  }],
  "ParameterType": "PointWise",
  "ParameterSubType": "PointWiseExpression",
  "NbInputArgs": 1,
  "InputArgs": ["arg0"],
  "NbOutputVars": 1,
  "OutputVars": ["var4"],
  "NbParams": 0,
  "Params": [],
  "NbLiterals": 5,
  "Literals": ["0.000000e+00f", "1.000000e+00f", "0.000000e+00f", "0.000000e+00f", "5.000000e-01f"],
  "NbOperations": 5,
  "Operations": ["auto const var0 = pwgen::iMul(literal4, arg0);", "auto const var1 = pwgen::iTanh(var0);", "auto const var2 = pwgen::iMul(var1, literal4);", "auto const var3 = pwgen::iPlus(var2, literal4);", "auto const var4 = pwgen::iMul(arg0, var3);"],
  "TacticValue": "0x000000000000001c",
  "StreamId": 0,
  "Metadata": "[ONNX Layer: /input_blocks.4/input_blocks.4.0/in_layers/in_layers.1/Sigmoid]\u001e[ONNX Layer: /input_blocks.4/input_blocks.4.0/in_layers/in_layers.1/Mul]"
},{
  "Name": "/input_blocks.4/input_blocks.4.0/in_layers/in_layers.2/Conv",
  "LayerType": "CaskConvolution",
  "Inputs": [
  {
    "Name": "/input_blocks.4/input_blocks.4.0/in_layers/in_layers.1/Mul_output_0",
    "Location": "Device",
    "Dimensions": [1,320,16,24],
    "Format/Datatype": "Channel major FP16 format where channel % 8 == 0"
  }],
  "Outputs": [
  {
    "Name": "/input_blocks.4/input_blocks.4.0/in_layers/in_layers.2/Conv_output_0",
    "Location": "Device",
    "Dimensions": [1,640,16,24],
    "Format/Datatype": "Channel major FP16 format where channel % 8 == 0"
  }],
  "ParameterType": "Convolution",
  "Kernel": [3,3],
  "PaddingMode": "kEXPLICIT_ROUND_DOWN",
  "PrePadding": [1,1],
  "PostPadding": [1,1],
  "Stride": [1,1],
  "Dilation": [1,1],
  "OutMaps": 640,
  "Groups": 1,
  "Weights": {"Type": "Half", "Count": 1843200},
  "Bias": {"Type": "Half", "Count": 640},
  "HasSparseWeights": 0,
  "HasDynamicFilter": 0,
  "HasDynamicBias": 0,
  "HasResidual": 0,
  "ConvXAsActInputIdx": -1,
  "BiasAsActInputIdx": -1,
  "ResAsActInputIdx": -1,
  "Activation": "NONE",
  "HasBias": 1,
  "HasReLU": 0,
  "TacticName": "sm80_xmma_fprop_implicit_gemm_f16f16_f16f16_f16_nhwckrsc_nhwc_tilesize64x64x64_stage4_warpsize2x1x2_g1_tensor16x8x16_aACCESS",
  "TacticValue": "0x841c601dec2a75bc",
  "StreamId": 0,
  "Metadata": "[ONNX Layer: /input_blocks.4/input_blocks.4.0/in_layers/in_layers.2/Conv]"
},{
  "Name": "reshape_after_/input_blocks.4/input_blocks.4.0/emb_layers/emb_layers.1/Gemm_copy_input",
  "LayerType": "Reformat",
  "Inputs": [
  {
    "Name": "/input_blocks.7/input_blocks.7.0/emb_layers/emb_layers.1/Gemm || /input_blocks.8/input_blocks.8.0/emb_layers/emb_layers.1/Gemm || /input_blocks.10/input_blocks.10.0/emb_layers/emb_layers.1/Gemm || /input_blocks.11/input_blocks.11.0/emb_layers/emb_layers.1/Gemm || /middle_block/middle_block.0/emb_layers/emb_layers.1/Gemm || /middle_block/middle_block.2/emb_layers/emb_layers.1/Gemm || /input_blocks.4/input_blocks.4.0/emb_layers/emb_layers.1/Gemm || /input_blocks.5/input_blocks.5.0/emb_layers/emb_layers.1/Gemm || /input_blocks.1/input_blocks.1.0/emb_layers/emb_layers.1/Gemm || /input_blocks.2/input_blocks.2.0/emb_layers/emb_layers.1/Gemm",
    "Location": "Device",
    "Dimensions": [1,640,1,1],
    "Format/Datatype": "Row major linear FP16 format"
  }],
  "Outputs": [
  {
    "Name": "reshape_after_/input_blocks.4/input_blocks.4.0/emb_layers/emb_layers.1/Gemm_copy_input",
    "Location": "Device",
    "Dimensions": [1,640,1,1],
    "Format/Datatype": "Row major linear FP16 format"
  }],
  "ParameterType": "Reformat",
  "Origin": "SLICE",
  "TacticValue": "0x00000000000003e8",
  "StreamId": 0,
  "Metadata": "[ONNX Layer: /input_blocks.4/input_blocks.4.0/emb_layers/emb_layers.1/Gemm]"
},{
  "Name": "reshape_after_/input_blocks.4/input_blocks.4.0/emb_layers/emb_layers.1/Gemm",
  "LayerType": "NoOp",
  "Inputs": [
  {
    "Name": "reshape_after_/input_blocks.4/input_blocks.4.0/emb_layers/emb_layers.1/Gemm_copy_input",
    "Location": "Device",
    "Dimensions": [1,640,1,1],
    "Format/Datatype": "Row major linear FP16 format"
  }],
  "Outputs": [
  {
    "Name": "/input_blocks.4/input_blocks.4.0/emb_layers/emb_layers.1/Gemm_output_0",
    "Location": "Device",
    "Dimensions": [1,640],
    "Format/Datatype": "Row major linear FP16 format"
  }],
  "TacticValue": "0x0000000000000000",
  "StreamId": 0,
  "Metadata": "[ONNX Layer: /input_blocks.4/input_blocks.4.0/emb_layers/emb_layers.1/Gemm]"
},{
  "Name": "/input_blocks.4/input_blocks.4.0/Cast",
  "LayerType": "NoOp",
  "Inputs": [
  {
    "Name": "/input_blocks.4/input_blocks.4.0/emb_layers/emb_layers.1/Gemm_output_0",
    "Location": "Device",
    "Dimensions": [1,640],
    "Format/Datatype": "Row major linear FP16 format"
  }],
  "Outputs": [
  {
    "Name": "/input_blocks.4/input_blocks.4.0/Cast_output_0",
    "Location": "Device",
    "Dimensions": [1,640],
    "Format/Datatype": "Row major linear FP16 format"
  }],
  "TacticValue": "0x0000000000000000",
  "StreamId": 0,
  "Metadata": ""
},{
  "Name": "/input_blocks.4/input_blocks.4.0/Unsqueeze + /input_blocks.4/input_blocks.4.0/Unsqueeze_1",
  "LayerType": "NoOp",
  "Inputs": [
  {
    "Name": "/input_blocks.4/input_blocks.4.0/Cast_output_0",
    "Location": "Device",
    "Dimensions": [1,640],
    "Format/Datatype": "Row major linear FP16 format"
  }],
  "Outputs": [
  {
    "Name": "/input_blocks.4/input_blocks.4.0/Unsqueeze_1_output_0",
    "Location": "Device",
    "Dimensions": [1,640,1,1],
    "Format/Datatype": "Row major linear FP16 format"
  }],
  "TacticValue": "0x0000000000000000",
  "StreamId": 0,
  "Metadata": "[ONNX Layer: /input_blocks.4/input_blocks.4.0/Unsqueeze]\u001e[ONNX Layer: /input_blocks.4/input_blocks.4.0/Unsqueeze_1]"
},{
  "Name": "Reformatting CopyNode for Input Tensor 0 to /input_blocks.4/input_blocks.4.0/Add",
  "LayerType": "Reformat",
  "Inputs": [
  {
    "Name": "/input_blocks.4/input_blocks.4.0/in_layers/in_layers.2/Conv_output_0",
    "Location": "Device",
    "Dimensions": [1,640,16,24],
    "Format/Datatype": "Channel major FP16 format where channel % 8 == 0"
  }],
  "Outputs": [
  {
    "Name": "Reformatted Input Tensor 0 to /input_blocks.4/input_blocks.4.0/Add",
    "Location": "Device",
    "Dimensions": [1,640,16,24],
    "Format/Datatype": "Row major linear FP16 format"
  }],
  "ParameterType": "Reformat",
  "Origin": "REFORMAT",
  "TacticValue": "0x0000000000000000",
  "StreamId": 0,
  "Metadata": ""
},{
  "Name": "/input_blocks.4/input_blocks.4.0/Add",
  "LayerType": "ElementWise",
  "Inputs": [
  {
    "Name": "Reformatted Input Tensor 0 to /input_blocks.4/input_blocks.4.0/Add",
    "Location": "Device",
    "Dimensions": [1,640,16,24],
    "Format/Datatype": "Row major linear FP16 format"
  },
  {
    "Name": "/input_blocks.4/input_blocks.4.0/Unsqueeze_1_output_0",
    "Location": "Device",
    "Dimensions": [1,640,1,1],
    "Format/Datatype": "Row major linear FP16 format"
  }],
  "Outputs": [
  {
    "Name": "/input_blocks.4/input_blocks.4.0/Add_output_0",
    "Location": "Device",
    "Dimensions": [1,640,16,24],
    "Format/Datatype": "Row major linear FP16 format"
  }],
  "ParameterType": "ElementWise",
  "ElementWiseOperation": "SUM",
  "Activation": "NONE",
  "TacticValue": "0x0000000000000001",
  "StreamId": 0,
  "Metadata": "[ONNX Layer: /input_blocks.4/input_blocks.4.0/Add]"
},{
  "Name": "/input_blocks.4/input_blocks.4.0/out_layers/out_layers.0/Cast",
  "LayerType": "NoOp",
  "Inputs": [
  {
    "Name": "/input_blocks.4/input_blocks.4.0/Add_output_0",
    "Location": "Device",
    "Dimensions": [1,640,16,24],
    "Format/Datatype": "Row major linear FP16 format"
  }],
  "Outputs": [
  {
    "Name": "/input_blocks.4/input_blocks.4.0/out_layers/out_layers.0/Cast_output_0",
    "Location": "Device",
    "Dimensions": [1,640,16,24],
    "Format/Datatype": "Row major linear FP16 format"
  }],
  "TacticValue": "0x0000000000000000",
  "StreamId": 0,
  "Metadata": ""
},{
  "Name": "/input_blocks.4/input_blocks.4.0/out_layers/out_layers.0/Reshape + (Unnamed Layer* 941) [Shuffle]",
  "LayerType": "NoOp",
  "Inputs": [
  {
    "Name": "/input_blocks.4/input_blocks.4.0/out_layers/out_layers.0/Cast_output_0",
    "Location": "Device",
    "Dimensions": [1,640,16,24],
    "Format/Datatype": "Row major linear FP16 format"
  }],
  "Outputs": [
  {
    "Name": "(Unnamed Layer* 941) [Shuffle]_output",
    "Location": "Device",
    "Dimensions": [1,32,7680,1],
    "Format/Datatype": "Row major linear FP16 format"
  }],
  "TacticValue": "0x0000000000000000",
  "StreamId": 0,
  "Metadata": "[ONNX Layer: /input_blocks.4/input_blocks.4.0/out_layers/out_layers.0/Reshape]\u001e"
},{
  "Name": "/input_blocks.4/input_blocks.4.0/out_layers/out_layers.0/InstanceNormalization",
  "LayerType": "PluginV2",
  "Inputs": [
  {
    "Name": "(Unnamed Layer* 941) [Shuffle]_output",
    "Location": "Device",
    "Dimensions": [1,32,7680,1],
    "Format/Datatype": "Row major linear FP16 format"
  }],
  "Outputs": [
  {
    "Name": "(Unnamed Layer* 942) [PluginV2DynamicExt]_output",
    "Location": "Device",
    "Dimensions": [1,32,7680,1],
    "Format/Datatype": "Row major linear FP16 format"
  }],
  "PluginType": "InstanceNormalization_TRT",
  "PluginVersion": "1",
  "TacticValue": "0x0000000000000000",
  "StreamId": 0,
  "Metadata": "[ONNX Layer: /input_blocks.4/input_blocks.4.0/out_layers/out_layers.0/InstanceNormalization]"
},{
  "Name": "(Unnamed Layer* 943) [Shuffle] + /input_blocks.4/input_blocks.4.0/out_layers/out_layers.0/Reshape_1",
  "LayerType": "NoOp",
  "Inputs": [
  {
    "Name": "(Unnamed Layer* 942) [PluginV2DynamicExt]_output",
    "Location": "Device",
    "Dimensions": [1,32,7680,1],
    "Format/Datatype": "Row major linear FP16 format"
  }],
  "Outputs": [
  {
    "Name": "/input_blocks.4/input_blocks.4.0/out_layers/out_layers.0/Reshape_1_output_0",
    "Location": "Device",
    "Dimensions": [1,640,16,24],
    "Format/Datatype": "Row major linear FP16 format"
  }],
  "TacticValue": "0x0000000000000000",
  "StreamId": 0,
  "Metadata": "[ONNX Layer: /input_blocks.4/input_blocks.4.0/out_layers/out_layers.0/Reshape_1]"
},{
  "Name": "onnx::Mul_4228 + (Unnamed Layer* 947) [Shuffle] + /input_blocks.4/input_blocks.4.0/out_layers/out_layers.0/Mul + onnx::Add_4229 + (Unnamed Layer* 950) [Shuffle] + /input_blocks.4/input_blocks.4.0/out_layers/out_layers.0/Add",
  "LayerType": "Scale",
  "Inputs": [
  {
    "Name": "/input_blocks.4/input_blocks.4.0/out_layers/out_layers.0/Reshape_1_output_0",
    "Location": "Device",
    "Dimensions": [1,640,16,24],
    "Format/Datatype": "Row major linear FP16 format"
  }],
  "Outputs": [
  {
    "Name": "/input_blocks.4/input_blocks.4.0/out_layers/out_layers.0/Add_output_0",
    "Location": "Device",
    "Dimensions": [1,640,16,24],
    "Format/Datatype": "Row major linear FP16 format"
  }],
  "ParameterType": "Scale",
  "Mode": "CHANNEL",
  "Shift": {"Type": "Half", "Count": 640},
  "Scale": {"Type": "Half", "Count": 640},
  "Power": {"Type": "Half", "Count": 0},
  "Activation": "NONE",
  "ChannelAxis": 1,
  "TacticValue": "0x0000000000000000",
  "StreamId": 0,
  "Metadata": "[ONNX Layer: /input_blocks.4/input_blocks.4.0/out_layers/out_layers.0/Mul]\u001e[ONNX Layer: /input_blocks.4/input_blocks.4.0/out_layers/out_layers.0/Add]"
},{
  "Name": "/input_blocks.4/input_blocks.4.0/out_layers/out_layers.0/Cast_1",
  "LayerType": "MyelinReformat",
  "Inputs": [
  {
    "Name": "/input_blocks.4/input_blocks.4.0/out_layers/out_layers.0/Add_output_0",
    "Location": "Device",
    "Dimensions": [1,640,16,24],
    "Format/Datatype": "Row major linear FP16 format"
  }],
  "Outputs": [
  {
    "Name": "/input_blocks.4/input_blocks.4.0/out_layers/out_layers.0/Cast_1_output_0",
    "Location": "Device",
    "Dimensions": [1,640,16,24],
    "Format/Datatype": "Channel major FP16 format where channel % 16 == 0"
  }],
  "TacticValue": "0x0000000000000000",
  "StreamId": 0,
  "Metadata": ""
},{
  "Name": "Reformatting CopyNode for Input Tensor 0 to PWN(PWN(/input_blocks.4/input_blocks.4.0/out_layers/out_layers.1/Sigmoid), /input_blocks.4/input_blocks.4.0/out_layers/out_layers.1/Mul)",
  "LayerType": "NoOp",
  "Inputs": [
  {
    "Name": "/input_blocks.4/input_blocks.4.0/out_layers/out_layers.0/Cast_1_output_0",
    "Location": "Device",
    "Dimensions": [1,640,16,24],
    "Format/Datatype": "Channel major FP16 format where channel % 16 == 0"
  }],
  "Outputs": [
  {
    "Name": "Reformatted Input Tensor 0 to PWN(PWN(/input_blocks.4/input_blocks.4.0/out_layers/out_layers.1/Sigmoid), /input_blocks.4/input_blocks.4.0/out_layers/out_layers.1/Mul)",
    "Location": "Device",
    "Dimensions": [1,640,16,24],
    "Format/Datatype": "Channel major FP16 format where channel % 8 == 0"
  }],
  "TacticValue": "0x0000000000000000",
  "StreamId": 0,
  "Metadata": ""
},{
  "Name": "PWN(PWN(/input_blocks.4/input_blocks.4.0/out_layers/out_layers.1/Sigmoid), /input_blocks.4/input_blocks.4.0/out_layers/out_layers.1/Mul)",
  "LayerType": "PointWiseV2",
  "Inputs": [
  {
    "Name": "Reformatted Input Tensor 0 to PWN(PWN(/input_blocks.4/input_blocks.4.0/out_layers/out_layers.1/Sigmoid), /input_blocks.4/input_blocks.4.0/out_layers/out_layers.1/Mul)",
    "Location": "Device",
    "Dimensions": [1,640,16,24],
    "Format/Datatype": "Channel major FP16 format where channel % 8 == 0"
  }],
  "Outputs": [
  {
    "Name": "/input_blocks.4/input_blocks.4.0/out_layers/out_layers.1/Mul_output_0",
    "Location": "Device",
    "Dimensions": [1,640,16,24],
    "Format/Datatype": "Channel major FP16 format where channel % 8 == 0"
  }],
  "ParameterType": "PointWise",
  "ParameterSubType": "PointWiseExpression",
  "NbInputArgs": 1,
  "InputArgs": ["arg0"],
  "NbOutputVars": 1,
  "OutputVars": ["var4"],
  "NbParams": 0,
  "Params": [],
  "NbLiterals": 5,
  "Literals": ["0.000000e+00f", "1.000000e+00f", "0.000000e+00f", "0.000000e+00f", "5.000000e-01f"],
  "NbOperations": 5,
  "Operations": ["auto const var0 = pwgen::iMul(literal4, arg0);", "auto const var1 = pwgen::iTanh(var0);", "auto const var2 = pwgen::iMul(var1, literal4);", "auto const var3 = pwgen::iPlus(var2, literal4);", "auto const var4 = pwgen::iMul(arg0, var3);"],
  "TacticValue": "0x0000000000000000",
  "StreamId": 0,
  "Metadata": "[ONNX Layer: /input_blocks.4/input_blocks.4.0/out_layers/out_layers.1/Sigmoid]\u001e[ONNX Layer: /input_blocks.4/input_blocks.4.0/out_layers/out_layers.1/Mul]"
},{
  "Name": "/input_blocks.4/input_blocks.4.0/out_layers/out_layers.3/Conv",
  "LayerType": "CaskConvolution",
  "Inputs": [
  {
    "Name": "/input_blocks.4/input_blocks.4.0/out_layers/out_layers.1/Mul_output_0",
    "Location": "Device",
    "Dimensions": [1,640,16,24],
    "Format/Datatype": "Channel major FP16 format where channel % 8 == 0"
  }],
  "Outputs": [
  {
    "Name": "/input_blocks.4/input_blocks.4.0/out_layers/out_layers.3/Conv_output_0",
    "Location": "Device",
    "Dimensions": [1,640,16,24],
    "Format/Datatype": "Channel major FP16 format where channel % 8 == 0"
  }],
  "ParameterType": "Convolution",
  "Kernel": [3,3],
  "PaddingMode": "kEXPLICIT_ROUND_DOWN",
  "PrePadding": [1,1],
  "PostPadding": [1,1],
  "Stride": [1,1],
  "Dilation": [1,1],
  "OutMaps": 640,
  "Groups": 1,
  "Weights": {"Type": "Half", "Count": 3686400},
  "Bias": {"Type": "Half", "Count": 640},
  "HasSparseWeights": 0,
  "HasDynamicFilter": 0,
  "HasDynamicBias": 0,
  "HasResidual": 0,
  "ConvXAsActInputIdx": -1,
  "BiasAsActInputIdx": -1,
  "ResAsActInputIdx": -1,
  "Activation": "NONE",
  "HasBias": 1,
  "HasReLU": 0,
  "TacticName": "sm80_xmma_fprop_implicit_gemm_f16f16_f16f16_f16_nhwckrsc_nhwc_tilesize64x64x64_stage4_warpsize2x1x2_g1_tensor16x8x16_aACCESS",
  "TacticValue": "0x841c601dec2a75bc",
  "StreamId": 0,
  "Metadata": "[ONNX Layer: /input_blocks.4/input_blocks.4.0/out_layers/out_layers.3/Conv]"
},{
  "Name": "/input_blocks.4/input_blocks.4.0/skip_connection/Conv + /input_blocks.4/input_blocks.4.0/Add_1",
  "LayerType": "CaskGemmConvolution",
  "Inputs": [
  {
    "Name": "/input_blocks.4/input_blocks.4.0/in_layers/in_layers.0/Cast_output_0",
    "Location": "Device",
    "Dimensions": [1,320,16,24],
    "Format/Datatype": "Channel major FP16 format where channel % 8 == 0"
  },
  {
    "Name": "/input_blocks.4/input_blocks.4.0/out_layers/out_layers.3/Conv_output_0",
    "Location": "Device",
    "Dimensions": [1,640,16,24],
    "Format/Datatype": "Channel major FP16 format where channel % 8 == 0"
  }],
  "Outputs": [
  {
    "Name": "/input_blocks.4/input_blocks.4.0/Add_1_output_0",
    "Location": "Device",
    "Dimensions": [1,640,16,24],
    "Format/Datatype": "Channel major FP16 format where channel % 8 == 0"
  }],
  "ParameterType": "Convolution",
  "Kernel": [1,1],
  "PaddingMode": "kEXPLICIT_ROUND_DOWN",
  "PrePadding": [0,0],
  "PostPadding": [0,0],
  "Stride": [1,1],
  "Dilation": [1,1],
  "OutMaps": 640,
  "Groups": 1,
  "Weights": {"Type": "Half", "Count": 204800},
  "Bias": {"Type": "Half", "Count": 640},
  "HasSparseWeights": 0,
  "HasDynamicFilter": 0,
  "HasDynamicBias": 0,
  "HasResidual": 1,
  "ConvXAsActInputIdx": -1,
  "BiasAsActInputIdx": -1,
  "ResAsActInputIdx": -1,
  "Activation": "NONE",
  "TacticName": "ampere_h16816gemm_64x64_ldg8_relu_stages_64x5_nn_v1",
  "TacticValue": "0x0000000000020924",
  "StreamId": 0,
  "Metadata": "[ONNX Layer: /input_blocks.4/input_blocks.4.0/skip_connection/Conv]\u001e[ONNX Layer: /input_blocks.4/input_blocks.4.0/Add_1]"
},{
  "Name": "Reformatting CopyNode for Input Tensor 0 to /input_blocks.4/input_blocks.4.1/norm/Reshape + (Unnamed Layer* 965) [Shuffle]",
  "LayerType": "Reformat",
  "Inputs": [
  {
    "Name": "/input_blocks.4/input_blocks.4.0/Add_1_output_0",
    "Location": "Device",
    "Dimensions": [1,640,16,24],
    "Format/Datatype": "Channel major FP16 format where channel % 8 == 0"
  }],
  "Outputs": [
  {
    "Name": "Reformatted Input Tensor 0 to /input_blocks.4/input_blocks.4.1/norm/Reshape + (Unnamed Layer* 965) [Shuffle]",
    "Location": "Device",
    "Dimensions": [1,640,16,24],
    "Format/Datatype": "Row major linear FP16 format"
  }],
  "ParameterType": "Reformat",
  "Origin": "REFORMAT",
  "TacticValue": "0x0000000000000000",
  "StreamId": 0,
  "Metadata": ""
},{
  "Name": "/input_blocks.4/input_blocks.4.1/norm/Reshape + (Unnamed Layer* 965) [Shuffle]",
  "LayerType": "NoOp",
  "Inputs": [
  {
    "Name": "Reformatted Input Tensor 0 to /input_blocks.4/input_blocks.4.1/norm/Reshape + (Unnamed Layer* 965) [Shuffle]",
    "Location": "Device",
    "Dimensions": [1,640,16,24],
    "Format/Datatype": "Row major linear FP16 format"
  }],
  "Outputs": [
  {
    "Name": "(Unnamed Layer* 965) [Shuffle]_output",
    "Location": "Device",
    "Dimensions": [1,32,7680,1],
    "Format/Datatype": "Row major linear FP16 format"
  }],
  "TacticValue": "0x0000000000000000",
  "StreamId": 0,
  "Metadata": "[ONNX Layer: /input_blocks.4/input_blocks.4.1/norm/Reshape]\u001e"
},{
  "Name": "/input_blocks.4/input_blocks.4.1/norm/InstanceNormalization",
  "LayerType": "PluginV2",
  "Inputs": [
  {
    "Name": "(Unnamed Layer* 965) [Shuffle]_output",
    "Location": "Device",
    "Dimensions": [1,32,7680,1],
    "Format/Datatype": "Row major linear FP16 format"
  }],
  "Outputs": [
  {
    "Name": "(Unnamed Layer* 966) [PluginV2DynamicExt]_output",
    "Location": "Device",
    "Dimensions": [1,32,7680,1],
    "Format/Datatype": "Row major linear FP16 format"
  }],
  "PluginType": "InstanceNormalization_TRT",
  "PluginVersion": "1",
  "TacticValue": "0x0000000000000000",
  "StreamId": 0,
  "Metadata": "[ONNX Layer: /input_blocks.4/input_blocks.4.1/norm/InstanceNormalization]"
},{
  "Name": "(Unnamed Layer* 967) [Shuffle] + /input_blocks.4/input_blocks.4.1/norm/Reshape_1",
  "LayerType": "NoOp",
  "Inputs": [
  {
    "Name": "(Unnamed Layer* 966) [PluginV2DynamicExt]_output",
    "Location": "Device",
    "Dimensions": [1,32,7680,1],
    "Format/Datatype": "Row major linear FP16 format"
  }],
  "Outputs": [
  {
    "Name": "/input_blocks.4/input_blocks.4.1/norm/Reshape_1_output_0",
    "Location": "Device",
    "Dimensions": [1,640,16,24],
    "Format/Datatype": "Row major linear FP16 format"
  }],
  "TacticValue": "0x0000000000000000",
  "StreamId": 0,
  "Metadata": "[ONNX Layer: /input_blocks.4/input_blocks.4.1/norm/Reshape_1]"
},{
  "Name": "onnx::Mul_4230 + (Unnamed Layer* 971) [Shuffle] + /input_blocks.4/input_blocks.4.1/norm/Mul + onnx::Add_4231 + (Unnamed Layer* 974) [Shuffle] + /input_blocks.4/input_blocks.4.1/norm/Add",
  "LayerType": "Scale",
  "Inputs": [
  {
    "Name": "/input_blocks.4/input_blocks.4.1/norm/Reshape_1_output_0",
    "Location": "Device",
    "Dimensions": [1,640,16,24],
    "Format/Datatype": "Row major linear FP16 format"
  }],
  "Outputs": [
  {
    "Name": "/input_blocks.4/input_blocks.4.1/norm/Add_output_0",
    "Location": "Device",
    "Dimensions": [1,640,16,24],
    "Format/Datatype": "Row major linear FP16 format"
  }],
  "ParameterType": "Scale",
  "Mode": "CHANNEL",
  "Shift": {"Type": "Half", "Count": 640},
  "Scale": {"Type": "Half", "Count": 640},
  "Power": {"Type": "Half", "Count": 0},
  "Activation": "NONE",
  "ChannelAxis": 1,
  "TacticValue": "0x0000000000000000",
  "StreamId": 0,
  "Metadata": "[ONNX Layer: /input_blocks.4/input_blocks.4.1/norm/Mul]\u001e[ONNX Layer: /input_blocks.4/input_blocks.4.1/norm/Add]"
},{
  "Name": "Reformatting CopyNode for Input Tensor 0 to /input_blocks.4/input_blocks.4.1/proj_in/Conv",
  "LayerType": "Reformat",
  "Inputs": [
  {
    "Name": "/input_blocks.4/input_blocks.4.1/norm/Add_output_0",
    "Location": "Device",
    "Dimensions": [1,640,16,24],
    "Format/Datatype": "Row major linear FP16 format"
  }],
  "Outputs": [
  {
    "Name": "Reformatted Input Tensor 0 to /input_blocks.4/input_blocks.4.1/proj_in/Conv",
    "Location": "Device",
    "Dimensions": [1,640,16,24],
    "Format/Datatype": "Channel major FP16 format where channel % 8 == 0"
  }],
  "ParameterType": "Reformat",
  "Origin": "REFORMAT",
  "TacticValue": "0x0000000000000000",
  "StreamId": 0,
  "Metadata": ""
},{
  "Name": "/input_blocks.4/input_blocks.4.1/proj_in/Conv",
  "LayerType": "CaskGemmConvolution",
  "Inputs": [
  {
    "Name": "Reformatted Input Tensor 0 to /input_blocks.4/input_blocks.4.1/proj_in/Conv",
    "Location": "Device",
    "Dimensions": [1,640,16,24],
    "Format/Datatype": "Channel major FP16 format where channel % 8 == 0"
  }],
  "Outputs": [
  {
    "Name": "/input_blocks.4/input_blocks.4.1/proj_in/Conv_output_0",
    "Location": "Device",
    "Dimensions": [1,640,16,24],
    "Format/Datatype": "Channel major FP16 format where channel % 8 == 0"
  }],
  "ParameterType": "Convolution",
  "Kernel": [1,1],
  "PaddingMode": "kEXPLICIT_ROUND_DOWN",
  "PrePadding": [0,0],
  "PostPadding": [0,0],
  "Stride": [1,1],
  "Dilation": [1,1],
  "OutMaps": 640,
  "Groups": 1,
  "Weights": {"Type": "Half", "Count": 409600},
  "Bias": {"Type": "Half", "Count": 640},
  "HasSparseWeights": 0,
  "HasDynamicFilter": 0,
  "HasDynamicBias": 0,
  "HasResidual": 0,
  "ConvXAsActInputIdx": -1,
  "BiasAsActInputIdx": -1,
  "ResAsActInputIdx": -1,
  "Activation": "NONE",
  "TacticName": "ampere_h16816gemm_64x64_ldg8_relu_stages_64x5_nn_v1",
  "TacticValue": "0x0000000000020924",
  "StreamId": 0,
  "Metadata": "[ONNX Layer: /input_blocks.4/input_blocks.4.1/proj_in/Conv]"
},{
  "Name": "{ForeignNode[input_blocks.4.1.transformer_blocks.0.norm1.weight + (Unnamed Layer* 1022) [Shuffle].../input_blocks.4/input_blocks.4.1/Reshape_2 + /input_blocks.4/input_blocks.4.1/Transpose_1 + /input_blocks.4/input_blocks.4.1/Reshape_3]}",
  "LayerType": "Myelin",
  "Inputs": [
  {
    "Name": "/input_blocks.4/input_blocks.4.1/proj_in/Conv_output_0",
    "Location": "Device",
    "Dimensions": [1,640,16,24],
    "Format/Datatype": "Channel major FP16 format where channel % 8 == 0"
  },
  {
    "Name": "onnx::MatMul_3",
    "Location": "Device",
    "Dimensions": [1,77,768],
    "Format/Datatype": "Row major linear FP32"
  }],
  "Outputs": [
  {
    "Name": "/input_blocks.4/input_blocks.4.1/Reshape_3_output_0",
    "Location": "Device",
    "Dimensions": [1,640,16,24],
    "Format/Datatype": "Channel major FP16 format where channel % 8 == 0"
  }],
  "TacticValue": "0x0000000000000000",
  "StreamId": 0,
  "Metadata": ""
},{
  "Name": "/input_blocks.4/input_blocks.4.1/proj_out/Conv + /input_blocks.4/input_blocks.4.1/Add",
  "LayerType": "CaskGemmConvolution",
  "Inputs": [
  {
    "Name": "/input_blocks.4/input_blocks.4.1/Reshape_3_output_0",
    "Location": "Device",
    "Dimensions": [1,640,16,24],
    "Format/Datatype": "Channel major FP16 format where channel % 8 == 0"
  },
  {
    "Name": "/input_blocks.4/input_blocks.4.0/Add_1_output_0",
    "Location": "Device",
    "Dimensions": [1,640,16,24],
    "Format/Datatype": "Channel major FP16 format where channel % 8 == 0"
  }],
  "Outputs": [
  {
    "Name": "/input_blocks.4/input_blocks.4.1/Add_output_0",
    "Location": "Device",
    "Dimensions": [1,640,16,24],
    "Format/Datatype": "Channel major FP16 format where channel % 8 == 0"
  }],
  "ParameterType": "Convolution",
  "Kernel": [1,1],
  "PaddingMode": "kEXPLICIT_ROUND_DOWN",
  "PrePadding": [0,0],
  "PostPadding": [0,0],
  "Stride": [1,1],
  "Dilation": [1,1],
  "OutMaps": 640,
  "Groups": 1,
  "Weights": {"Type": "Half", "Count": 409600},
  "Bias": {"Type": "Half", "Count": 640},
  "HasSparseWeights": 0,
  "HasDynamicFilter": 0,
  "HasDynamicBias": 0,
  "HasResidual": 1,
  "ConvXAsActInputIdx": -1,
  "BiasAsActInputIdx": -1,
  "ResAsActInputIdx": -1,
  "Activation": "NONE",
  "TacticName": "ampere_h16816gemm_64x64_ldg8_relu_stages_64x5_nn_v1",
  "TacticValue": "0x0000000000020924",
  "StreamId": 0,
  "Metadata": "[ONNX Layer: /input_blocks.4/input_blocks.4.1/proj_out/Conv]\u001e[ONNX Layer: /input_blocks.4/input_blocks.4.1/Add]"
},{
  "Name": "/input_blocks.5/input_blocks.5.0/in_layers/in_layers.0/Cast",
  "LayerType": "NoOp",
  "Inputs": [
  {
    "Name": "/input_blocks.4/input_blocks.4.1/Add_output_0",
    "Location": "Device",
    "Dimensions": [1,640,16,24],
    "Format/Datatype": "Channel major FP16 format where channel % 8 == 0"
  }],
  "Outputs": [
  {
    "Name": "/input_blocks.5/input_blocks.5.0/in_layers/in_layers.0/Cast_output_0",
    "Location": "Device",
    "Dimensions": [1,640,16,24],
    "Format/Datatype": "Channel major FP16 format where channel % 8 == 0"
  }],
  "TacticValue": "0x0000000000000000",
  "StreamId": 0,
  "Metadata": ""
},{
  "Name": "Reformatting CopyNode for Input Tensor 0 to /input_blocks.5/input_blocks.5.0/in_layers/in_layers.0/Reshape + (Unnamed Layer* 1422) [Shuffle]",
  "LayerType": "Reformat",
  "Inputs": [
  {
    "Name": "/input_blocks.5/input_blocks.5.0/in_layers/in_layers.0/Cast_output_0",
    "Location": "Device",
    "Dimensions": [1,640,16,24],
    "Format/Datatype": "Channel major FP16 format where channel % 8 == 0"
  }],
  "Outputs": [
  {
    "Name": "Reformatted Input Tensor 0 to /input_blocks.5/input_blocks.5.0/in_layers/in_layers.0/Reshape + (Unnamed Layer* 1422) [Shuffle]",
    "Location": "Device",
    "Dimensions": [1,640,16,24],
    "Format/Datatype": "Row major linear FP16 format"
  }],
  "ParameterType": "Reformat",
  "Origin": "REFORMAT",
  "TacticValue": "0x0000000000000000",
  "StreamId": 0,
  "Metadata": ""
},{
  "Name": "/input_blocks.5/input_blocks.5.0/in_layers/in_layers.0/Reshape + (Unnamed Layer* 1422) [Shuffle]",
  "LayerType": "NoOp",
  "Inputs": [
  {
    "Name": "Reformatted Input Tensor 0 to /input_blocks.5/input_blocks.5.0/in_layers/in_layers.0/Reshape + (Unnamed Layer* 1422) [Shuffle]",
    "Location": "Device",
    "Dimensions": [1,640,16,24],
    "Format/Datatype": "Row major linear FP16 format"
  }],
  "Outputs": [
  {
    "Name": "(Unnamed Layer* 1422) [Shuffle]_output",
    "Location": "Device",
    "Dimensions": [1,32,7680,1],
    "Format/Datatype": "Row major linear FP16 format"
  }],
  "TacticValue": "0x0000000000000000",
  "StreamId": 0,
  "Metadata": "[ONNX Layer: /input_blocks.5/input_blocks.5.0/in_layers/in_layers.0/Reshape]\u001e"
},{
  "Name": "/input_blocks.5/input_blocks.5.0/in_layers/in_layers.0/InstanceNormalization",
  "LayerType": "PluginV2",
  "Inputs": [
  {
    "Name": "(Unnamed Layer* 1422) [Shuffle]_output",
    "Location": "Device",
    "Dimensions": [1,32,7680,1],
    "Format/Datatype": "Row major linear FP16 format"
  }],
  "Outputs": [
  {
    "Name": "(Unnamed Layer* 1423) [PluginV2DynamicExt]_output",
    "Location": "Device",
    "Dimensions": [1,32,7680,1],
…
  "PaddingMode": "kEXPLICIT_ROUND_DOWN",
  "PrePadding": [0,0],
  "PostPadding": [0,0],
  "Stride": [1,1],
  "Dilation": [1,1],
  "OutMaps": 320,
  "Groups": 1,
  "Weights": {"Type": "Half", "Count": 102400},
  "Bias": {"Type": "Half", "Count": 320},
  "HasSparseWeights": 0,
  "HasDynamicFilter": 0,
  "HasDynamicBias": 0,
  "HasResidual": 0,
  "ConvXAsActInputIdx": -1,
  "BiasAsActInputIdx": -1,
  "ResAsActInputIdx": -1,
  "Activation": "NONE",
  "TacticName": "sm80_xmma_gemm_f16f16_f16f16_f16_nn_n_tilesize128x64x32_stage5_warpsize2x2x1_tensor16x8x16",
  "TacticValue": "0x0000000000020722",
  "StreamId": 0,
  "Metadata": "[ONNX Layer: /zero_convs.0/zero_convs.0.0/Conv]"
},{
  "Name": "Reformatting CopyNode for Output Tensor 0 to /zero_convs.0/zero_convs.0.0/Conv",
  "LayerType": "Reformat",
  "Inputs": [
  {
    "Name": "Reformatted Output Tensor 0 to /zero_convs.0/zero_convs.0.0/Conv",
    "Location": "Device",
    "Dimensions": [1,320,32,48],
    "Format/Datatype": "Channel major FP16 format where channel % 8 == 0"
  }],
  "Outputs": [
  {
    "Name": "381",
    "Location": "Device",
    "Dimensions": [1,320,32,48],
    "Format/Datatype": "Row major linear FP32"
  }],
  "ParameterType": "Reformat",
  "Origin": "REFORMAT",
  "TacticValue": "0x0000000000000000",
  "StreamId": 0,
  "Metadata": ""
},{
  "Name": "/zero_convs.1/zero_convs.1.0/Conv",
  "LayerType": "CaskGemmConvolution",
  "Inputs": [
  {
    "Name": "/input_blocks.1/input_blocks.1.1/Add_output_0",
    "Location": "Device",
    "Dimensions": [1,320,32,48],
    "Format/Datatype": "Channel major FP16 format where channel % 8 == 0"
  }],
  "Outputs": [
  {
    "Name": "Reformatted Output Tensor 0 to /zero_convs.1/zero_convs.1.0/Conv",
    "Location": "Device",
    "Dimensions": [1,320,32,48],
    "Format/Datatype": "Channel major FP16 format where channel % 8 == 0"
  }],
  "ParameterType": "Convolution",
  "Kernel": [1,1],
  "PaddingMode": "kEXPLICIT_ROUND_DOWN",
  "PrePadding": [0,0],
  "PostPadding": [0,0],
  "Stride": [1,1],
  "Dilation": [1,1],
  "OutMaps": 320,
  "Groups": 1,
  "Weights": {"Type": "Half", "Count": 102400},
  "Bias": {"Type": "Half", "Count": 320},
  "HasSparseWeights": 0,
  "HasDynamicFilter": 0,
  "HasDynamicBias": 0,
  "HasResidual": 0,
  "ConvXAsActInputIdx": -1,
  "BiasAsActInputIdx": -1,
  "ResAsActInputIdx": -1,
  "Activation": "NONE",
  "TacticName": "sm80_xmma_gemm_f16f16_f16f16_f16_nn_n_tilesize128x64x32_stage5_warpsize2x2x1_tensor16x8x16",
  "TacticValue": "0x0000000000020722",
  "StreamId": 0,
  "Metadata": "[ONNX Layer: /zero_convs.1/zero_convs.1.0/Conv]"
},{
  "Name": "Reformatting CopyNode for Output Tensor 0 to /zero_convs.1/zero_convs.1.0/Conv",
  "LayerType": "Reformat",
  "Inputs": [
  {
    "Name": "Reformatted Output Tensor 0 to /zero_convs.1/zero_convs.1.0/Conv",
    "Location": "Device",
    "Dimensions": [1,320,32,48],
    "Format/Datatype": "Channel major FP16 format where channel % 8 == 0"
  }],
  "Outputs": [
  {
    "Name": "816",
    "Location": "Device",
    "Dimensions": [1,320,32,48],
    "Format/Datatype": "Row major linear FP32"
  }],
  "ParameterType": "Reformat",
  "Origin": "REFORMAT",
  "TacticValue": "0x0000000000000000",
  "StreamId": 0,
  "Metadata": ""
},{
  "Name": "/zero_convs.3/zero_convs.3.0/Conv",
  "LayerType": "CaskGemmConvolution",
  "Inputs": [
  {
    "Name": "/input_blocks.3/input_blocks.3.0/op/Conv_output_0",
    "Location": "Device",
    "Dimensions": [1,320,16,24],
    "Format/Datatype": "Channel major FP16 format where channel % 8 == 0"
  }],
  "Outputs": [
  {
    "Name": "Reformatted Output Tensor 0 to /zero_convs.3/zero_convs.3.0/Conv",
    "Location": "Device",
    "Dimensions": [1,320,16,24],
    "Format/Datatype": "Channel major FP16 format where channel % 8 == 0"
  }],
  "ParameterType": "Convolution",
  "Kernel": [1,1],
  "PaddingMode": "kEXPLICIT_ROUND_DOWN",
  "PrePadding": [0,0],
  "PostPadding": [0,0],
  "Stride": [1,1],
  "Dilation": [1,1],
  "OutMaps": 320,
  "Groups": 1,
  "Weights": {"Type": "Half", "Count": 102400},
  "Bias": {"Type": "Half", "Count": 320},
  "HasSparseWeights": 0,
  "HasDynamicFilter": 0,
  "HasDynamicBias": 0,
  "HasResidual": 0,
  "ConvXAsActInputIdx": -1,
  "BiasAsActInputIdx": -1,
  "ResAsActInputIdx": -1,
  "Activation": "NONE",
  "TacticName": "sm80_xmma_gemm_f16f16_f16f16_f16_nn_n_tilesize64x32x64_stage5_warpsize2x2x1_tensor16x8x16",
  "TacticValue": "0x000000000002063b",
  "StreamId": 0,
  "Metadata": "[ONNX Layer: /zero_convs.3/zero_convs.3.0/Conv]"
},{
  "Name": "Reformatting CopyNode for Output Tensor 0 to /zero_convs.3/zero_convs.3.0/Conv",
  "LayerType": "Reformat",
  "Inputs": [
  {
    "Name": "Reformatted Output Tensor 0 to /zero_convs.3/zero_convs.3.0/Conv",
    "Location": "Device",
    "Dimensions": [1,320,16,24],
    "Format/Datatype": "Channel major FP16 format where channel % 8 == 0"
  }],
  "Outputs": [
  {
    "Name": "1343",
    "Location": "Device",
    "Dimensions": [1,320,16,24],
    "Format/Datatype": "Row major linear FP32"
  }],
  "ParameterType": "Reformat",
  "Origin": "REFORMAT",
  "TacticValue": "0x0000000000000000",
  "StreamId": 0,
  "Metadata": ""
},{
  "Name": "/zero_convs.2/zero_convs.2.0/Conv",
  "LayerType": "CaskGemmConvolution",
  "Inputs": [
  {
    "Name": "/input_blocks.2/input_blocks.2.1/Add_output_0",
    "Location": "Device",
    "Dimensions": [1,320,32,48],
    "Format/Datatype": "Channel major FP16 format where channel % 8 == 0"
  }],
  "Outputs": [
  {
    "Name": "Reformatted Output Tensor 0 to /zero_convs.2/zero_convs.2.0/Conv",
    "Location": "Device",
    "Dimensions": [1,320,32,48],
    "Format/Datatype": "Channel major FP16 format where channel % 8 == 0"
  }],
  "ParameterType": "Convolution",
  "Kernel": [1,1],
  "PaddingMode": "kEXPLICIT_ROUND_DOWN",
  "PrePadding": [0,0],
  "PostPadding": [0,0],
  "Stride": [1,1],
  "Dilation": [1,1],
  "OutMaps": 320,
  "Groups": 1,
  "Weights": {"Type": "Half", "Count": 102400},
  "Bias": {"Type": "Half", "Count": 320},
  "HasSparseWeights": 0,
  "HasDynamicFilter": 0,
  "HasDynamicBias": 0,
  "HasResidual": 0,
  "ConvXAsActInputIdx": -1,
  "BiasAsActInputIdx": -1,
  "ResAsActInputIdx": -1,
  "Activation": "NONE",
  "TacticName": "sm80_xmma_gemm_f16f16_f16f16_f16_nn_n_tilesize128x64x32_stage5_warpsize2x2x1_tensor16x8x16",
  "TacticValue": "0x0000000000020722",
  "StreamId": 0,
  "Metadata": "[ONNX Layer: /zero_convs.2/zero_convs.2.0/Conv]"
},{
  "Name": "Reformatting CopyNode for Output Tensor 0 to /zero_convs.2/zero_convs.2.0/Conv",
  "LayerType": "Reformat",
  "Inputs": [
  {
    "Name": "Reformatted Output Tensor 0 to /zero_convs.2/zero_convs.2.0/Conv",
    "Location": "Device",
    "Dimensions": [1,320,32,48],
    "Format/Datatype": "Channel major FP16 format where channel % 8 == 0"
  }],
  "Outputs": [
  {
    "Name": "1341",
    "Location": "Device",
    "Dimensions": [1,320,32,48],
    "Format/Datatype": "Row major linear FP32"
  }],
  "ParameterType": "Reformat",
  "Origin": "REFORMAT",
  "TacticValue": "0x0000000000000000",
  "StreamId": 0,
  "Metadata": ""
},{
  "Name": "/zero_convs.4/zero_convs.4.0/Conv",
  "LayerType": "CaskGemmConvolution",
  "Inputs": [
  {
    "Name": "/input_blocks.4/input_blocks.4.1/Add_output_0",
    "Location": "Device",
    "Dimensions": [1,640,16,24],
    "Format/Datatype": "Channel major FP16 format where channel % 8 == 0"
  }],
  "Outputs": [
  {
    "Name": "Reformatted Output Tensor 0 to /zero_convs.4/zero_convs.4.0/Conv",
    "Location": "Device",
    "Dimensions": [1,640,16,24],
    "Format/Datatype": "Channel major FP16 format where channel % 8 == 0"
  }],
  "ParameterType": "Convolution",
  "Kernel": [1,1],
  "PaddingMode": "kEXPLICIT_ROUND_DOWN",
  "PrePadding": [0,0],
  "PostPadding": [0,0],
  "Stride": [1,1],
  "Dilation": [1,1],
  "OutMaps": 640,
  "Groups": 1,
  "Weights": {"Type": "Half", "Count": 409600},
  "Bias": {"Type": "Half", "Count": 640},
  "HasSparseWeights": 0,
  "HasDynamicFilter": 0,
  "HasDynamicBias": 0,
  "HasResidual": 0,
  "ConvXAsActInputIdx": -1,
  "BiasAsActInputIdx": -1,
  "ResAsActInputIdx": -1,
  "Activation": "NONE",
  "TacticName": "ampere_h16816gemm_64x64_ldg8_relu_stages_64x5_nn_v1",
  "TacticValue": "0x0000000000020924",
  "StreamId": 0,
  "Metadata": "[ONNX Layer: /zero_convs.4/zero_convs.4.0/Conv]"
},{
  "Name": "Reformatting CopyNode for Output Tensor 0 to /zero_convs.4/zero_convs.4.0/Conv",
  "LayerType": "Reformat",
  "Inputs": [
  {
    "Name": "Reformatted Output Tensor 0 to /zero_convs.4/zero_convs.4.0/Conv",
    "Location": "Device",
    "Dimensions": [1,640,16,24],
    "Format/Datatype": "Channel major FP16 format where channel % 8 == 0"
  }],
  "Outputs": [
  {
    "Name": "1869",
    "Location": "Device",
    "Dimensions": [1,640,16,24],
    "Format/Datatype": "Row major linear FP32"
  }],
  "ParameterType": "Reformat",
  "Origin": "REFORMAT",
  "TacticValue": "0x0000000000000000",
  "StreamId": 0,
  "Metadata": ""
},{
  "Name": "/zero_convs.6/zero_convs.6.0/Conv",
  "LayerType": "CaskGemmConvolution",
  "Inputs": [
  {
    "Name": "/input_blocks.6/input_blocks.6.0/op/Conv_output_0",
    "Location": "Device",
    "Dimensions": [1,640,8,12],
    "Format/Datatype": "Channel major FP16 format where channel % 8 == 0"
  }],
  "Outputs": [
  {
    "Name": "Reformatted Output Tensor 0 to /zero_convs.6/zero_convs.6.0/Conv",
    "Location": "Device",
    "Dimensions": [1,640,8,12],
    "Format/Datatype": "Channel major FP16 format where channel % 8 == 0"
  }],
  "ParameterType": "Convolution",
  "Kernel": [1,1],
  "PaddingMode": "kEXPLICIT_ROUND_DOWN",
  "PrePadding": [0,0],
  "PostPadding": [0,0],
  "Stride": [1,1],
  "Dilation": [1,1],
  "OutMaps": 640,
  "Groups": 1,
  "Weights": {"Type": "Half", "Count": 409600},
  "Bias": {"Type": "Half", "Count": 640},
  "HasSparseWeights": 0,
  "HasDynamicFilter": 0,
  "HasDynamicBias": 0,
  "HasResidual": 0,
  "ConvXAsActInputIdx": -1,
  "BiasAsActInputIdx": -1,
  "ResAsActInputIdx": -1,
  "Activation": "NONE",
  "TacticName": "sm80_xmma_gemm_f16f16_f16f16_f16_tn_n_tilesize32x32x64_stage6_warpsize2x2x1_tensor16x8x16",
  "TacticValue": "0x000000000002015c",
  "StreamId": 0,
  "Metadata": "[ONNX Layer: /zero_convs.6/zero_convs.6.0/Conv]"
},{
  "Name": "Reformatting CopyNode for Output Tensor 0 to /zero_convs.6/zero_convs.6.0/Conv",
  "LayerType": "Reformat",
  "Inputs": [
  {
    "Name": "Reformatted Output Tensor 0 to /zero_convs.6/zero_convs.6.0/Conv",
    "Location": "Device",
    "Dimensions": [1,640,8,12],
    "Format/Datatype": "Channel major FP16 format where channel % 8 == 0"
  }],
  "Outputs": [
  {
    "Name": "2396",
    "Location": "Device",
    "Dimensions": [1,640,8,12],
    "Format/Datatype": "Row major linear FP32"
  }],
  "ParameterType": "Reformat",
  "Origin": "REFORMAT",
  "TacticValue": "0x0000000000000000",
  "StreamId": 0,
  "Metadata": ""
},{
  "Name": "/zero_convs.5/zero_convs.5.0/Conv",
  "LayerType": "CaskGemmConvolution",
  "Inputs": [
  {
    "Name": "/input_blocks.5/input_blocks.5.1/Add_output_0",
    "Location": "Device",
    "Dimensions": [1,640,16,24],
    "Format/Datatype": "Channel major FP16 format where channel % 8 == 0"
  }],
  "Outputs": [
  {
    "Name": "Reformatted Output Tensor 0 to /zero_convs.5/zero_convs.5.0/Conv",
    "Location": "Device",
    "Dimensions": [1,640,16,24],
    "Format/Datatype": "Channel major FP16 format where channel % 8 == 0"
  }],
  "ParameterType": "Convolution",
  "Kernel": [1,1],
  "PaddingMode": "kEXPLICIT_ROUND_DOWN",
  "PrePadding": [0,0],
  "PostPadding": [0,0],
  "Stride": [1,1],
  "Dilation": [1,1],
  "OutMaps": 640,
  "Groups": 1,
  "Weights": {"Type": "Half", "Count": 409600},
  "Bias": {"Type": "Half", "Count": 640},
  "HasSparseWeights": 0,
  "HasDynamicFilter": 0,
  "HasDynamicBias": 0,
  "HasResidual": 0,
  "ConvXAsActInputIdx": -1,
  "BiasAsActInputIdx": -1,
  "ResAsActInputIdx": -1,
  "Activation": "NONE",
  "TacticName": "ampere_h16816gemm_64x64_ldg8_relu_stages_64x5_nn_v1",
  "TacticValue": "0x0000000000020924",
  "StreamId": 0,
  "Metadata": "[ONNX Layer: /zero_convs.5/zero_convs.5.0/Conv]"
},{
  "Name": "Reformatting CopyNode for Output Tensor 0 to /zero_convs.5/zero_convs.5.0/Conv",
  "LayerType": "Reformat",
  "Inputs": [
  {
    "Name": "Reformatted Output Tensor 0 to /zero_convs.5/zero_convs.5.0/Conv",
    "Location": "Device",
    "Dimensions": [1,640,16,24],
    "Format/Datatype": "Channel major FP16 format where channel % 8 == 0"
  }],
  "Outputs": [
  {
    "Name": "2394",
    "Location": "Device",
    "Dimensions": [1,640,16,24],
    "Format/Datatype": "Row major linear FP32"
  }],
  "ParameterType": "Reformat",
  "Origin": "REFORMAT",
  "TacticValue": "0x0000000000000000",
  "StreamId": 0,
  "Metadata": ""
},{
  "Name": "/zero_convs.7/zero_convs.7.0/Conv",
  "LayerType": "CaskGemmConvolution",
  "Inputs": [
  {
    "Name": "/input_blocks.7/input_blocks.7.1/Add_output_0",
    "Location": "Device",
    "Dimensions": [1,1280,8,12],
    "Format/Datatype": "Channel major FP16 format where channel % 8 == 0"
  }],
  "Outputs": [
  {
    "Name": "Reformatted Output Tensor 0 to /zero_convs.7/zero_convs.7.0/Conv",
    "Location": "Device",
    "Dimensions": [1,1280,8,12],
    "Format/Datatype": "Channel major FP16 format where channel % 8 == 0"
  }],
  "ParameterType": "Convolution",
  "Kernel": [1,1],
  "PaddingMode": "kEXPLICIT_ROUND_DOWN",
  "PrePadding": [0,0],
  "PostPadding": [0,0],
  "Stride": [1,1],
  "Dilation": [1,1],
  "OutMaps": 1280,
  "Groups": 1,
  "Weights": {"Type": "Half", "Count": 1638400},
  "Bias": {"Type": "Half", "Count": 1280},
  "HasSparseWeights": 0,
  "HasDynamicFilter": 0,
  "HasDynamicBias": 0,
  "HasResidual": 0,
  "ConvXAsActInputIdx": -1,
  "BiasAsActInputIdx": -1,
  "ResAsActInputIdx": -1,
  "Activation": "NONE",
  "TacticName": "ampere_h16816gemm_64x64_ldg8_relu_stages_64x5_nn_v1",
  "TacticValue": "0x0000000000020924",
  "StreamId": 0,
  "Metadata": "[ONNX Layer: /zero_convs.7/zero_convs.7.0/Conv]"
},{
  "Name": "Reformatting CopyNode for Output Tensor 0 to /zero_convs.7/zero_convs.7.0/Conv",
  "LayerType": "Reformat",
  "Inputs": [
  {
    "Name": "Reformatted Output Tensor 0 to /zero_convs.7/zero_convs.7.0/Conv",
    "Location": "Device",
    "Dimensions": [1,1280,8,12],
    "Format/Datatype": "Channel major FP16 format where channel % 8 == 0"
  }],
  "Outputs": [
  {
    "Name": "2922",
    "Location": "Device",
    "Dimensions": [1,1280,8,12],
    "Format/Datatype": "Row major linear FP32"
  }],
  "ParameterType": "Reformat",
  "Origin": "REFORMAT",
  "TacticValue": "0x0000000000000000",
  "StreamId": 0,
  "Metadata": ""
},{
  "Name": "/zero_convs.9/zero_convs.9.0/Conv",
  "LayerType": "CaskGemmConvolution",
  "Inputs": [
  {
    "Name": "/input_blocks.9/input_blocks.9.0/op/Conv_output_0",
    "Location": "Device",
    "Dimensions": [1,1280,4,6],
    "Format/Datatype": "Channel major FP16 format where channel % 8 == 0"
  }],
  "Outputs": [
  {
    "Name": "Reformatted Output Tensor 0 to /zero_convs.9/zero_convs.9.0/Conv",
    "Location": "Device",
    "Dimensions": [1,1280,4,6],
    "Format/Datatype": "Channel major FP16 format where channel % 8 == 0"
  }],
  "ParameterType": "Convolution",
  "Kernel": [1,1],
  "PaddingMode": "kEXPLICIT_ROUND_DOWN",
  "PrePadding": [0,0],
  "PostPadding": [0,0],
  "Stride": [1,1],
  "Dilation": [1,1],
  "OutMaps": 1280,
  "Groups": 1,
  "Weights": {"Type": "Half", "Count": 1638400},
  "Bias": {"Type": "Half", "Count": 1280},
  "HasSparseWeights": 0,
  "HasDynamicFilter": 0,
  "HasDynamicBias": 0,
  "HasResidual": 0,
  "ConvXAsActInputIdx": -1,
  "BiasAsActInputIdx": -1,
  "ResAsActInputIdx": -1,
  "Activation": "NONE",
  "TacticName": "sm80_xmma_gemm_f16f16_f16f16_f16_tn_n_tilesize32x32x64_stage6_warpsize2x2x1_tensor16x8x16",
  "TacticValue": "0x000000000002015c",
  "StreamId": 0,
  "Metadata": "[ONNX Layer: /zero_convs.9/zero_convs.9.0/Conv]"
},{
  "Name": "Reformatting CopyNode for Output Tensor 0 to /zero_convs.9/zero_convs.9.0/Conv",
  "LayerType": "Reformat",
  "Inputs": [
  {
    "Name": "Reformatted Output Tensor 0 to /zero_convs.9/zero_convs.9.0/Conv",
    "Location": "Device",
    "Dimensions": [1,1280,4,6],
    "Format/Datatype": "Channel major FP16 format where channel % 8 == 0"
  }],
  "Outputs": [
  {
    "Name": "3449",
    "Location": "Device",
    "Dimensions": [1,1280,4,6],
    "Format/Datatype": "Row major linear FP32"
  }],
  "ParameterType": "Reformat",
  "Origin": "REFORMAT",
  "TacticValue": "0x0000000000000000",
  "StreamId": 0,
  "Metadata": ""
},{
  "Name": "/zero_convs.8/zero_convs.8.0/Conv",
  "LayerType": "CaskGemmConvolution",
  "Inputs": [
  {
    "Name": "/input_blocks.8/input_blocks.8.1/Add_output_0",
    "Location": "Device",
    "Dimensions": [1,1280,8,12],
    "Format/Datatype": "Channel major FP16 format where channel % 8 == 0"
  }],
  "Outputs": [
  {
    "Name": "Reformatted Output Tensor 0 to /zero_convs.8/zero_convs.8.0/Conv",
    "Location": "Device",
    "Dimensions": [1,1280,8,12],
    "Format/Datatype": "Channel major FP16 format where channel % 8 == 0"
  }],
  "ParameterType": "Convolution",
  "Kernel": [1,1],
  "PaddingMode": "kEXPLICIT_ROUND_DOWN",
  "PrePadding": [0,0],
  "PostPadding": [0,0],
  "Stride": [1,1],
  "Dilation": [1,1],
  "OutMaps": 1280,
  "Groups": 1,
  "Weights": {"Type": "Half", "Count": 1638400},
  "Bias": {"Type": "Half", "Count": 1280},
  "HasSparseWeights": 0,
  "HasDynamicFilter": 0,
  "HasDynamicBias": 0,
  "HasResidual": 0,
  "ConvXAsActInputIdx": -1,
  "BiasAsActInputIdx": -1,
  "ResAsActInputIdx": -1,
  "Activation": "NONE",
  "TacticName": "ampere_h16816gemm_64x64_ldg8_relu_stages_64x5_nn_v1",
  "TacticValue": "0x0000000000020924",
  "StreamId": 0,
  "Metadata": "[ONNX Layer: /zero_convs.8/zero_convs.8.0/Conv]"
},{
  "Name": "Reformatting CopyNode for Output Tensor 0 to /zero_convs.8/zero_convs.8.0/Conv",
  "LayerType": "Reformat",
  "Inputs": [
  {
    "Name": "Reformatted Output Tensor 0 to /zero_convs.8/zero_convs.8.0/Conv",
    "Location": "Device",
    "Dimensions": [1,1280,8,12],
    "Format/Datatype": "Channel major FP16 format where channel % 8 == 0"
  }],
  "Outputs": [
  {
    "Name": "3447",
    "Location": "Device",
    "Dimensions": [1,1280,8,12],
    "Format/Datatype": "Row major linear FP32"
  }],
  "ParameterType": "Reformat",
  "Origin": "REFORMAT",
  "TacticValue": "0x0000000000000000",
  "StreamId": 0,
  "Metadata": ""
},{
  "Name": "/zero_convs.10/zero_convs.10.0/Conv",
  "LayerType": "CaskGemmConvolution",
  "Inputs": [
  {
    "Name": "/input_blocks.10/input_blocks.10.0/Add_1_output_0",
    "Location": "Device",
    "Dimensions": [1,1280,4,6],
    "Format/Datatype": "Channel major FP16 format where channel % 8 == 0"
  }],
  "Outputs": [
  {
    "Name": "Reformatted Output Tensor 0 to /zero_convs.10/zero_convs.10.0/Conv",
    "Location": "Device",
    "Dimensions": [1,1280,4,6],
    "Format/Datatype": "Channel major FP16 format where channel % 8 == 0"
  }],
  "ParameterType": "Convolution",
  "Kernel": [1,1],
  "PaddingMode": "kEXPLICIT_ROUND_DOWN",
  "PrePadding": [0,0],
  "PostPadding": [0,0],
  "Stride": [1,1],
  "Dilation": [1,1],
  "OutMaps": 1280,
  "Groups": 1,
  "Weights": {"Type": "Half", "Count": 1638400},
  "Bias": {"Type": "Half", "Count": 1280},
  "HasSparseWeights": 0,
  "HasDynamicFilter": 0,
  "HasDynamicBias": 0,
  "HasResidual": 0,
  "ConvXAsActInputIdx": -1,
  "BiasAsActInputIdx": -1,
  "ResAsActInputIdx": -1,
  "Activation": "NONE",
  "TacticName": "sm80_xmma_gemm_f16f16_f16f16_f16_tn_n_tilesize32x32x64_stage6_warpsize2x2x1_tensor16x8x16",
  "TacticValue": "0x000000000002015c",
  "StreamId": 0,
  "Metadata": "[ONNX Layer: /zero_convs.10/zero_convs.10.0/Conv]"
},{
  "Name": "Reformatting CopyNode for Output Tensor 0 to /zero_convs.10/zero_convs.10.0/Conv",
  "LayerType": "Reformat",
  "Inputs": [
  {
    "Name": "Reformatted Output Tensor 0 to /zero_convs.10/zero_convs.10.0/Conv",
    "Location": "Device",
    "Dimensions": [1,1280,4,6],
    "Format/Datatype": "Channel major FP16 format where channel % 8 == 0"
  }],
  "Outputs": [
  {
    "Name": "3494",
    "Location": "Device",
    "Dimensions": [1,1280,4,6],
    "Format/Datatype": "Row major linear FP32"
  }],
  "ParameterType": "Reformat",
  "Origin": "REFORMAT",
  "TacticValue": "0x0000000000000000",
  "StreamId": 0,
  "Metadata": ""
},{
  "Name": "/zero_convs.11/zero_convs.11.0/Conv",
  "LayerType": "CaskGemmConvolution",
  "Inputs": [
  {
    "Name": "/input_blocks.11/input_blocks.11.0/Add_1_output_0",
    "Location": "Device",
    "Dimensions": [1,1280,4,6],
    "Format/Datatype": "Channel major FP16 format where channel % 8 == 0"
  }],
  "Outputs": [
  {
    "Name": "Reformatted Output Tensor 0 to /zero_convs.11/zero_convs.11.0/Conv",
    "Location": "Device",
    "Dimensions": [1,1280,4,6],
    "Format/Datatype": "Channel major FP16 format where channel % 8 == 0"
  }],
  "ParameterType": "Convolution",
  "Kernel": [1,1],
  "PaddingMode": "kEXPLICIT_ROUND_DOWN",
  "PrePadding": [0,0],
  "PostPadding": [0,0],
  "Stride": [1,1],
  "Dilation": [1,1],
  "OutMaps": 1280,
  "Groups": 1,
  "Weights": {"Type": "Half", "Count": 1638400},
  "Bias": {"Type": "Half", "Count": 1280},
  "HasSparseWeights": 0,
  "HasDynamicFilter": 0,
  "HasDynamicBias": 0,
  "HasResidual": 0,
  "ConvXAsActInputIdx": -1,
  "BiasAsActInputIdx": -1,
  "ResAsActInputIdx": -1,
  "Activation": "NONE",
  "TacticName": "sm80_xmma_gemm_f16f16_f16f16_f16_tn_n_tilesize32x32x64_stage6_warpsize2x2x1_tensor16x8x16",
  "TacticValue": "0x000000000002015c",
  "StreamId": 0,
  "Metadata": "[ONNX Layer: /zero_convs.11/zero_convs.11.0/Conv]"
},{
  "Name": "Reformatting CopyNode for Output Tensor 0 to /zero_convs.11/zero_convs.11.0/Conv",
  "LayerType": "Reformat",
  "Inputs": [
  {
    "Name": "Reformatted Output Tensor 0 to /zero_convs.11/zero_convs.11.0/Conv",
    "Location": "Device",
    "Dimensions": [1,1280,4,6],
    "Format/Datatype": "Channel major FP16 format where channel % 8 == 0"
  }],
  "Outputs": [
  {
    "Name": "3539",
    "Location": "Device",
    "Dimensions": [1,1280,4,6],
    "Format/Datatype": "Row major linear FP32"
  }],
  "ParameterType": "Reformat",
  "Origin": "REFORMAT",
  "TacticValue": "0x0000000000000000",
  "StreamId": 0,
  "Metadata": ""
},{
  "Name": "/middle_block/middle_block.1/proj_out/Conv + /middle_block/middle_block.1/Add",
  "LayerType": "CaskGemmConvolution",
  "Inputs": [
  {
    "Name": "/middle_block/middle_block.1/Reshape_3_output_0",
    "Location": "Device",
    "Dimensions": [1,1280,4,6],
    "Format/Datatype": "Channel major FP16 format where channel % 8 == 0"
  },
  {
    "Name": "/middle_block/middle_block.0/Add_1_output_0",
    "Location": "Device",
    "Dimensions": [1,1280,4,6],
    "Format/Datatype": "Channel major FP16 format where channel % 8 == 0"
  }],
  "Outputs": [
  {
    "Name": "/middle_block/middle_block.1/Add_output_0",
    "Location": "Device",
    "Dimensions": [1,1280,4,6],
    "Format/Datatype": "Channel major FP16 format where channel % 8 == 0"
  }],
  "ParameterType": "Convolution",
  "Kernel": [1,1],
  "PaddingMode": "kEXPLICIT_ROUND_DOWN",
  "PrePadding": [0,0],
  "PostPadding": [0,0],
  "Stride": [1,1],
  "Dilation": [1,1],
  "OutMaps": 1280,
  "Groups": 1,
  "Weights": {"Type": "Half", "Count": 1638400},
  "Bias": {"Type": "Half", "Count": 1280},
  "HasSparseWeights": 0,
  "HasDynamicFilter": 0,
  "HasDynamicBias": 0,
  "HasResidual": 1,
  "ConvXAsActInputIdx": -1,
  "BiasAsActInputIdx": -1,
  "ResAsActInputIdx": -1,
  "Activation": "NONE",
  "TacticName": "sm80_xmma_gemm_f16f16_f16f16_f16_tn_n_tilesize32x32x64_stage6_warpsize2x2x1_tensor16x8x16",
  "TacticValue": "0x000000000002015c",
  "StreamId": 0,
  "Metadata": "[ONNX Layer: /middle_block/middle_block.1/proj_out/Conv]\u001e[ONNX Layer: /middle_block/middle_block.1/Add]"
},{
  "Name": "/middle_block/middle_block.2/in_layers/in_layers.0/Cast",
  "LayerType": "NoOp",
  "Inputs": [
  {
    "Name": "/middle_block/middle_block.1/Add_output_0",
    "Location": "Device",
    "Dimensions": [1,1280,4,6],
    "Format/Datatype": "Channel major FP16 format where channel % 8 == 0"
  }],
  "Outputs": [
  {
    "Name": "/middle_block/middle_block.2/in_layers/in_layers.0/Cast_output_0",
    "Location": "Device",
    "Dimensions": [1,1280,4,6],
    "Format/Datatype": "Channel major FP16 format where channel % 8 == 0"
  }],
  "TacticValue": "0x0000000000000000",
  "StreamId": 0,
  "Metadata": ""
},{
  "Name": "Reformatting CopyNode for Input Tensor 0 to /middle_block/middle_block.2/in_layers/in_layers.0/Reshape + (Unnamed Layer* 3540) [Shuffle]",
  "LayerType": "Reformat",
  "Inputs": [
  {
    "Name": "/middle_block/middle_block.2/in_layers/in_layers.0/Cast_output_0",
    "Location": "Device",
    "Dimensions": [1,1280,4,6],
    "Format/Datatype": "Channel major FP16 format where channel % 8 == 0"
  }],
  "Outputs": [
  {
    "Name": "Reformatted Input Tensor 0 to /middle_block/middle_block.2/in_layers/in_layers.0/Reshape + (Unnamed Layer* 3540) [Shuffle]",
    "Location": "Device",
    "Dimensions": [1,1280,4,6],
    "Format/Datatype": "Row major linear FP32"
  }],
  "ParameterType": "Reformat",
  "Origin": "REFORMAT",
  "TacticValue": "0x0000000000000000",
  "StreamId": 0,
  "Metadata": ""
},{
  "Name": "/middle_block/middle_block.2/in_layers/in_layers.0/Reshape + (Unnamed Layer* 3540) [Shuffle]",
  "LayerType": "NoOp",
  "Inputs": [
  {
    "Name": "Reformatted Input Tensor 0 to /middle_block/middle_block.2/in_layers/in_layers.0/Reshape + (Unnamed Layer* 3540) [Shuffle]",
    "Location": "Device",
    "Dimensions": [1,1280,4,6],
    "Format/Datatype": "Row major linear FP32"
  }],
  "Outputs": [
  {
    "Name": "(Unnamed Layer* 3540) [Shuffle]_output",
    "Location": "Device",
    "Dimensions": [1,32,960,1],
    "Format/Datatype": "Row major linear FP32"
  }],
  "TacticValue": "0x0000000000000000",
  "StreamId": 0,
  "Metadata": "[ONNX Layer: /middle_block/middle_block.2/in_layers/in_layers.0/Reshape]\u001e"
},{
  "Name": "/middle_block/middle_block.2/in_layers/in_layers.0/InstanceNormalization",
  "LayerType": "PluginV2",
  "Inputs": [
  {
    "Name": "(Unnamed Layer* 3540) [Shuffle]_output",
    "Location": "Device",
    "Dimensions": [1,32,960,1],
    "Format/Datatype": "Row major linear FP32"
  }],
  "Outputs": [
  {
    "Name": "(Unnamed Layer* 3541) [PluginV2DynamicExt]_output",
    "Location": "Device",
    "Dimensions": [1,32,960,1],
    "Format/Datatype": "Row major linear FP32"
  }],
  "PluginType": "InstanceNormalization_TRT",
  "PluginVersion": "1",
  "TacticValue": "0x0000000000000000",
  "StreamId": 0,
  "Metadata": "[ONNX Layer: /middle_block/middle_block.2/in_layers/in_layers.0/InstanceNormalization]"
},{
  "Name": "(Unnamed Layer* 3542) [Shuffle] + /middle_block/middle_block.2/in_layers/in_layers.0/Reshape_1",
  "LayerType": "NoOp",
  "Inputs": [
  {
    "Name": "(Unnamed Layer* 3541) [PluginV2DynamicExt]_output",
    "Location": "Device",
    "Dimensions": [1,32,960,1],
    "Format/Datatype": "Row major linear FP32"
  }],
  "Outputs": [
  {
    "Name": "/middle_block/middle_block.2/in_layers/in_layers.0/Reshape_1_output_0",
    "Location": "Device",
    "Dimensions": [1,1280,4,6],
    "Format/Datatype": "Row major linear FP32"
  }],
  "TacticValue": "0x0000000000000000",
  "StreamId": 0,
  "Metadata": "[ONNX Layer: /middle_block/middle_block.2/in_layers/in_layers.0/Reshape_1]"
},{
  "Name": "onnx::Mul_4434 + (Unnamed Layer* 3546) [Shuffle] + /middle_block/middle_block.2/in_layers/in_layers.0/Mul + onnx::Add_4435 + (Unnamed Layer* 3549) [Shuffle] + /middle_block/middle_block.2/in_layers/in_layers.0/Add",
  "LayerType": "Scale",
  "Inputs": [
  {
    "Name": "/middle_block/middle_block.2/in_layers/in_layers.0/Reshape_1_output_0",
    "Location": "Device",
    "Dimensions": [1,1280,4,6],
    "Format/Datatype": "Row major linear FP32"
  }],
  "Outputs": [
  {
    "Name": "/middle_block/middle_block.2/in_layers/in_layers.0/Add_output_0",
    "Location": "Device",
    "Dimensions": [1,1280,4,6],
    "Format/Datatype": "Row major linear FP32"
  }],
  "ParameterType": "Scale",
  "Mode": "CHANNEL",
  "Shift": {"Type": "Float", "Count": 1280},
  "Scale": {"Type": "Float", "Count": 1280},
  "Power": {"Type": "Float", "Count": 0},
  "Activation": "NONE",
  "ChannelAxis": 1,
  "TacticValue": "0x0000000000000000",
  "StreamId": 0,
  "Metadata": "[ONNX Layer: /middle_block/middle_block.2/in_layers/in_layers.0/Mul]\u001e[ONNX Layer: /middle_block/middle_block.2/in_layers/in_layers.0/Add]"
},{
  "Name": "/middle_block/middle_block.2/in_layers/in_layers.0/Cast_1",
  "LayerType": "MyelinReformat",
  "Inputs": [
  {
    "Name": "/middle_block/middle_block.2/in_layers/in_layers.0/Add_output_0",
    "Location": "Device",
    "Dimensions": [1,1280,4,6],
    "Format/Datatype": "Row major linear FP32"
  }],
  "Outputs": [
  {
    "Name": "/middle_block/middle_block.2/in_layers/in_layers.0/Cast_1_output_0",
    "Location": "Device",
    "Dimensions": [1,1280,4,6],
    "Format/Datatype": "Channel major FP16 format where channel % 8 == 0"
  }],
  "TacticValue": "0x0000000000000000",
  "StreamId": 0,
  "Metadata": ""
},{
  "Name": "Reformatting CopyNode for Input Tensor 0 to PWN(PWN(/middle_block/middle_block.2/in_layers/in_layers.1/Sigmoid), /middle_block/middle_block.2/in_layers/in_layers.1/Mul)",
  "LayerType": "NoOp",
  "Inputs": [
  {
    "Name": "/middle_block/middle_block.2/in_layers/in_layers.0/Cast_1_output_0",
    "Location": "Device",
    "Dimensions": [1,1280,4,6],
    "Format/Datatype": "Channel major FP16 format where channel % 8 == 0"
  }],
  "Outputs": [
  {
    "Name": "Reformatted Input Tensor 0 to PWN(PWN(/middle_block/middle_block.2/in_layers/in_layers.1/Sigmoid), /middle_block/middle_block.2/in_layers/in_layers.1/Mul)",
    "Location": "Device",
    "Dimensions": [1,1280,4,6],
    "Format/Datatype": "Channel major FP16 format where channel % 2 == 0"
  }],
  "TacticValue": "0x0000000000000000",
  "StreamId": 0,
  "Metadata": ""
},{
  "Name": "PWN(PWN(/middle_block/middle_block.2/in_layers/in_layers.1/Sigmoid), /middle_block/middle_block.2/in_layers/in_layers.1/Mul)",
  "LayerType": "PointWiseV2",
  "Inputs": [
  {
    "Name": "Reformatted Input Tensor 0 to PWN(PWN(/middle_block/middle_block.2/in_layers/in_layers.1/Sigmoid), /middle_block/middle_block.2/in_layers/in_layers.1/Mul)",
    "Location": "Device",
    "Dimensions": [1,1280,4,6],
    "Format/Datatype": "Channel major FP16 format where channel % 2 == 0"
  }],
  "Outputs": [
  {
    "Name": "/middle_block/middle_block.2/in_layers/in_layers.1/Mul_output_0",
    "Location": "Device",
    "Dimensions": [1,1280,4,6],
    "Format/Datatype": "Channel major FP16 format where channel % 2 == 0"
  }],
  "ParameterType": "PointWise",
  "ParameterSubType": "PointWiseExpression",
  "NbInputArgs": 1,
  "InputArgs": ["arg0"],
  "NbOutputVars": 1,
  "OutputVars": ["var4"],
  "NbParams": 0,
  "Params": [],
  "NbLiterals": 5,
  "Literals": ["0.000000e+00f", "1.000000e+00f", "0.000000e+00f", "0.000000e+00f", "5.000000e-01f"],
  "NbOperations": 5,
  "Operations": ["auto const var0 = pwgen::iMul(literal4, arg0);", "auto const var1 = pwgen::iTanh(var0);", "auto const var2 = pwgen::iMul(var1, literal4);", "auto const var3 = pwgen::iPlus(var2, literal4);", "auto const var4 = pwgen::iMul(arg0, var3);"],
  "TacticValue": "0x000000000000000c",
  "StreamId": 0,
  "Metadata": "[ONNX Layer: /middle_block/middle_block.2/in_layers/in_layers.1/Sigmoid]\u001e[ONNX Layer: /middle_block/middle_block.2/in_layers/in_layers.1/Mul]"
},{
  "Name": "Reformatting CopyNode for Input Tensor 0 to /middle_block/middle_block.2/in_layers/in_layers.2/Conv",
  "LayerType": "NoOp",
  "Inputs": [
  {
    "Name": "/middle_block/middle_block.2/in_layers/in_layers.1/Mul_output_0",
    "Location": "Device",
    "Dimensions": [1,1280,4,6],
    "Format/Datatype": "Channel major FP16 format where channel % 2 == 0"
  }],
  "Outputs": [
  {
    "Name": "Reformatted Input Tensor 0 to /middle_block/middle_block.2/in_layers/in_layers.2/Conv",
    "Location": "Device",
    "Dimensions": [1,1280,4,6],
    "Format/Datatype": "Channel major FP16 format where channel % 8 == 0"
  }],
  "TacticValue": "0x0000000000000000",
  "StreamId": 0,
  "Metadata": ""
},{
  "Name": "/middle_block/middle_block.2/in_layers/in_layers.2/Conv",
  "LayerType": "CaskConvolution",
  "Inputs": [
  {
    "Name": "Reformatted Input Tensor 0 to /middle_block/middle_block.2/in_layers/in_layers.2/Conv",
    "Location": "Device",
    "Dimensions": [1,1280,4,6],
    "Format/Datatype": "Channel major FP16 format where channel % 8 == 0"
  }],
  "Outputs": [
  {
    "Name": "/middle_block/middle_block.2/in_layers/in_layers.2/Conv_output_0",
    "Location": "Device",
    "Dimensions": [1,1280,4,6],
    "Format/Datatype": "Channel major FP16 format where channel % 8 == 0"
  }],
  "ParameterType": "Convolution",
  "Kernel": [3,3],
  "PaddingMode": "kEXPLICIT_ROUND_DOWN",
  "PrePadding": [1,1],
  "PostPadding": [1,1],
  "Stride": [1,1],
  "Dilation": [1,1],
  "OutMaps": 1280,
  "Groups": 1,
  "Weights": {"Type": "Half", "Count": 14745600},
  "Bias": {"Type": "Half", "Count": 1280},
  "HasSparseWeights": 0,
  "HasDynamicFilter": 0,
  "HasDynamicBias": 0,
  "HasResidual": 0,
  "ConvXAsActInputIdx": -1,
  "BiasAsActInputIdx": -1,
  "ResAsActInputIdx": -1,
  "Activation": "NONE",
  "HasBias": 1,
  "HasReLU": 0,
  "TacticName": "sm80_xmma_fprop_implicit_gemm_f16f16_f16f16_f16_nhwckrsc_nhwc_tilesize64x32x64_stage5_warpsize2x2x1_g1_tensor16x8x16_t1r3s3",
  "TacticValue": "0xa033e20ae9f412b2",
  "StreamId": 0,
  "Metadata": "[ONNX Layer: /middle_block/middle_block.2/in_layers/in_layers.2/Conv]"
},{
  "Name": "reshape_after_/middle_block/middle_block.2/emb_layers/emb_layers.1/Gemm_copy_input",
  "LayerType": "Reformat",
  "Inputs": [
  {
    "Name": "/input_blocks.7/input_blocks.7.0/emb_layers/emb_layers.1/Gemm || /input_blocks.8/input_blocks.8.0/emb_layers/emb_layers.1/Gemm || /input_blocks.10/input_blocks.10.0/emb_layers/emb_layers.1/Gemm || /input_blocks.11/input_blocks.11.0/emb_layers/emb_layers.1/Gemm || /middle_block/middle_block.0/emb_layers/emb_layers.1/Gemm || /middle_block/middle_block.2/emb_layers/emb_layers.1/Gemm || /input_blocks.4/input_blocks.4.0/emb_layers/emb_layers.1/Gemm || /input_blocks.5/input_blocks.5.0/emb_layers/emb_layers.1/Gemm || /input_blocks.1/input_blocks.1.0/emb_layers/emb_layers.1/Gemm || /input_blocks.2/input_blocks.2.0/emb_layers/emb_layers.1/Gemm",
    "Location": "Device",
    "Dimensions": [1,1280,1,1],
    "Format/Datatype": "Row major linear FP16 format"
  }],
  "Outputs": [
  {
    "Name": "reshape_after_/middle_block/middle_block.2/emb_layers/emb_layers.1/Gemm_copy_input",
    "Location": "Device",
    "Dimensions": [1,1280,1,1],
    "Format/Datatype": "Row major linear FP32"
  }],
  "ParameterType": "Reformat",
  "Origin": "SLICE",
  "TacticValue": "0x00000000000003e8",
  "StreamId": 0,
  "Metadata": "[ONNX Layer: /middle_block/middle_block.2/emb_layers/emb_layers.1/Gemm]"
},{
  "Name": "reshape_after_/middle_block/middle_block.2/emb_layers/emb_layers.1/Gemm",
  "LayerType": "NoOp",
  "Inputs": [
  {
    "Name": "reshape_after_/middle_block/middle_block.2/emb_layers/emb_layers.1/Gemm_copy_input",
    "Location": "Device",
    "Dimensions": [1,1280,1,1],
    "Format/Datatype": "Row major linear FP32"
  }],
  "Outputs": [
  {
    "Name": "/middle_block/middle_block.2/emb_layers/emb_layers.1/Gemm_output_0",
    "Location": "Device",
    "Dimensions": [1,1280],
    "Format/Datatype": "Row major linear FP32"
  }],
  "TacticValue": "0x0000000000000000",
  "StreamId": 0,
  "Metadata": "[ONNX Layer: /middle_block/middle_block.2/emb_layers/emb_layers.1/Gemm]"
},{
  "Name": "/middle_block/middle_block.2/Cast",
  "LayerType": "NoOp",
  "Inputs": [
  {
    "Name": "/middle_block/middle_block.2/emb_layers/emb_layers.1/Gemm_output_0",
    "Location": "Device",
    "Dimensions": [1,1280],
    "Format/Datatype": "Row major linear FP32"
  }],
  "Outputs": [
  {
    "Name": "/middle_block/middle_block.2/Cast_output_0",
    "Location": "Device",
    "Dimensions": [1,1280],
    "Format/Datatype": "Row major linear FP32"
  }],
  "TacticValue": "0x0000000000000000",
  "StreamId": 0,
  "Metadata": ""
},{
  "Name": "/middle_block/middle_block.2/Unsqueeze + /middle_block/middle_block.2/Unsqueeze_1",
  "LayerType": "NoOp",
  "Inputs": [
  {
    "Name": "/middle_block/middle_block.2/Cast_output_0",
    "Location": "Device",
    "Dimensions": [1,1280],
    "Format/Datatype": "Row major linear FP32"
  }],
  "Outputs": [
  {
    "Name": "/middle_block/middle_block.2/Unsqueeze_1_output_0",
    "Location": "Device",
    "Dimensions": [1,1280,1,1],
    "Format/Datatype": "Row major linear FP32"
  }],
  "TacticValue": "0x0000000000000000",
  "StreamId": 0,
  "Metadata": "[ONNX Layer: /middle_block/middle_block.2/Unsqueeze]\u001e[ONNX Layer: /middle_block/middle_block.2/Unsqueeze_1]"
},{
  "Name": "Reformatting CopyNode for Input Tensor 0 to /middle_block/middle_block.2/Add",
  "LayerType": "Reformat",
  "Inputs": [
  {
    "Name": "/middle_block/middle_block.2/in_layers/in_layers.2/Conv_output_0",
    "Location": "Device",
    "Dimensions": [1,1280,4,6],
    "Format/Datatype": "Channel major FP16 format where channel % 8 == 0"
  }],
  "Outputs": [
  {
    "Name": "Reformatted Input Tensor 0 to /middle_block/middle_block.2/Add",
    "Location": "Device",
    "Dimensions": [1,1280,4,6],
    "Format/Datatype": "Row major linear FP32"
  }],
  "ParameterType": "Reformat",
  "Origin": "REFORMAT",
  "TacticValue": "0x0000000000000000",
  "StreamId": 0,
  "Metadata": ""
},{
  "Name": "/middle_block/middle_block.2/Add",
  "LayerType": "ElementWise",
  "Inputs": [
  {
    "Name": "Reformatted Input Tensor 0 to /middle_block/middle_block.2/Add",
    "Location": "Device",
    "Dimensions": [1,1280,4,6],
    "Format/Datatype": "Row major linear FP32"
  },
  {
    "Name": "/middle_block/middle_block.2/Unsqueeze_1_output_0",
    "Location": "Device",
    "Dimensions": [1,1280,1,1],
    "Format/Datatype": "Row major linear FP32"
  }],
  "Outputs": [
  {
    "Name": "/middle_block/middle_block.2/Add_output_0",
    "Location": "Device",
    "Dimensions": [1,1280,4,6],
    "Format/Datatype": "Row major linear FP32"
  }],
  "ParameterType": "ElementWise",
  "ElementWiseOperation": "SUM",
  "Activation": "NONE",
  "TacticValue": "0x0000000000000001",
  "StreamId": 0,
  "Metadata": "[ONNX Layer: /middle_block/middle_block.2/Add]"
},{
  "Name": "/middle_block/middle_block.2/out_layers/out_layers.0/Cast",
  "LayerType": "NoOp",
  "Inputs": [
  {
    "Name": "/middle_block/middle_block.2/Add_output_0",
    "Location": "Device",
    "Dimensions": [1,1280,4,6],
    "Format/Datatype": "Row major linear FP32"
  }],
  "Outputs": [
  {
    "Name": "/middle_block/middle_block.2/out_layers/out_layers.0/Cast_output_0",
    "Location": "Device",
    "Dimensions": [1,1280,4,6],
    "Format/Datatype": "Row major linear FP32"
  }],
  "TacticValue": "0x0000000000000000",
  "StreamId": 0,
  "Metadata": ""
},{
  "Name": "/middle_block/middle_block.2/out_layers/out_layers.0/Reshape + (Unnamed Layer* 3566) [Shuffle]",
  "LayerType": "NoOp",
  "Inputs": [
  {
    "Name": "/middle_block/middle_block.2/out_layers/out_layers.0/Cast_output_0",
    "Location": "Device",
    "Dimensions": [1,1280,4,6],
    "Format/Datatype": "Row major linear FP32"
  }],
  "Outputs": [
  {
    "Name": "(Unnamed Layer* 3566) [Shuffle]_output",
    "Location": "Device",
    "Dimensions": [1,32,960,1],
    "Format/Datatype": "Row major linear FP32"
  }],
  "TacticValue": "0x0000000000000000",
  "StreamId": 0,
  "Metadata": "[ONNX Layer: /middle_block/middle_block.2/out_layers/out_layers.0/Reshape]\u001e"
},{
  "Name": "/middle_block/middle_block.2/out_layers/out_layers.0/InstanceNormalization",
  "LayerType": "PluginV2",
  "Inputs": [
  {
    "Name": "(Unnamed Layer* 3566) [Shuffle]_output",
    "Location": "Device",
    "Dimensions": [1,32,960,1],
    "Format/Datatype": "Row major linear FP32"
  }],
  "Outputs": [
  {
    "Name": "(Unnamed Layer* 3567) [PluginV2DynamicExt]_output",
    "Location": "Device",
    "Dimensions": [1,32,960,1],
    "Format/Datatype": "Row major linear FP32"
  }],
  "PluginType": "InstanceNormalization_TRT",
  "PluginVersion": "1",
  "TacticValue": "0x0000000000000000",
  "StreamId": 0,
  "Metadata": "[ONNX Layer: /middle_block/middle_block.2/out_layers/out_layers.0/InstanceNormalization]"
},{
  "Name": "(Unnamed Layer* 3568) [Shuffle] + /middle_block/middle_block.2/out_layers/out_layers.0/Reshape_1",
  "LayerType": "NoOp",
  "Inputs": [
  {
    "Name": "(Unnamed Layer* 3567) [PluginV2DynamicExt]_output",
    "Location": "Device",
    "Dimensions": [1,32,960,1],
    "Format/Datatype": "Row major linear FP32"
  }],
  "Outputs": [
  {
    "Name": "/middle_block/middle_block.2/out_layers/out_layers.0/Reshape_1_output_0",
    "Location": "Device",
    "Dimensions": [1,1280,4,6],
    "Format/Datatype": "Row major linear FP32"
  }],
  "TacticValue": "0x0000000000000000",
  "StreamId": 0,
  "Metadata": "[ONNX Layer: /middle_block/middle_block.2/out_layers/out_layers.0/Reshape_1]"
},{
  "Name": "onnx::Mul_4436 + (Unnamed Layer* 3572) [Shuffle] + /middle_block/middle_block.2/out_layers/out_layers.0/Mul + onnx::Add_4437 + (Unnamed Layer* 3575) [Shuffle] + /middle_block/middle_block.2/out_layers/out_layers.0/Add",
  "LayerType": "Scale",
  "Inputs": [
  {
    "Name": "/middle_block/middle_block.2/out_layers/out_layers.0/Reshape_1_output_0",
    "Location": "Device",
    "Dimensions": [1,1280,4,6],
    "Format/Datatype": "Row major linear FP32"
  }],
  "Outputs": [
  {
    "Name": "/middle_block/middle_block.2/out_layers/out_layers.0/Add_output_0",
    "Location": "Device",
    "Dimensions": [1,1280,4,6],
    "Format/Datatype": "Row major linear FP32"
  }],
  "ParameterType": "Scale",
  "Mode": "CHANNEL",
  "Shift": {"Type": "Float", "Count": 1280},
  "Scale": {"Type": "Float", "Count": 1280},
  "Power": {"Type": "Float", "Count": 0},
  "Activation": "NONE",
  "ChannelAxis": 1,
  "TacticValue": "0x0000000000000000",
  "StreamId": 0,
  "Metadata": "[ONNX Layer: /middle_block/middle_block.2/out_layers/out_layers.0/Mul]\u001e[ONNX Layer: /middle_block/middle_block.2/out_layers/out_layers.0/Add]"
},{
  "Name": "/middle_block/middle_block.2/out_layers/out_layers.0/Cast_1",
  "LayerType": "MyelinReformat",
  "Inputs": [
  {
    "Name": "/middle_block/middle_block.2/out_layers/out_layers.0/Add_output_0",
    "Location": "Device",
    "Dimensions": [1,1280,4,6],
    "Format/Datatype": "Row major linear FP32"
  }],
  "Outputs": [
  {
    "Name": "/middle_block/middle_block.2/out_layers/out_layers.0/Cast_1_output_0",
    "Location": "Device",
    "Dimensions": [1,1280,4,6],
    "Format/Datatype": "Channel major FP16 format where channel % 8 == 0"
  }],
  "TacticValue": "0x0000000000000000",
  "StreamId": 0,
  "Metadata": ""
},{
  "Name": "Reformatting CopyNode for Input Tensor 0 to PWN(PWN(/middle_block/middle_block.2/out_layers/out_layers.1/Sigmoid), /middle_block/middle_block.2/out_layers/out_layers.1/Mul)",
  "LayerType": "NoOp",
  "Inputs": [
  {
    "Name": "/middle_block/middle_block.2/out_layers/out_layers.0/Cast_1_output_0",
    "Location": "Device",
    "Dimensions": [1,1280,4,6],
    "Format/Datatype": "Channel major FP16 format where channel % 8 == 0"
  }],
  "Outputs": [
  {
    "Name": "Reformatted Input Tensor 0 to PWN(PWN(/middle_block/middle_block.2/out_layers/out_layers.1/Sigmoid), /middle_block/middle_block.2/out_layers/out_layers.1/Mul)",
    "Location": "Device",
    "Dimensions": [1,1280,4,6],
    "Format/Datatype": "Channel major FP16 format where channel % 2 == 0"
  }],
  "TacticValue": "0x0000000000000000",
  "StreamId": 0,
  "Metadata": ""
},{
  "Name": "PWN(PWN(/middle_block/middle_block.2/out_layers/out_layers.1/Sigmoid), /middle_block/middle_block.2/out_layers/out_layers.1/Mul)",
  "LayerType": "PointWiseV2",
  "Inputs": [
  {
    "Name": "Reformatted Input Tensor 0 to PWN(PWN(/middle_block/middle_block.2/out_layers/out_layers.1/Sigmoid), /middle_block/middle_block.2/out_layers/out_layers.1/Mul)",
    "Location": "Device",
    "Dimensions": [1,1280,4,6],
    "Format/Datatype": "Channel major FP16 format where channel % 2 == 0"
  }],
  "Outputs": [
  {
    "Name": "/middle_block/middle_block.2/out_layers/out_layers.1/Mul_output_0",
    "Location": "Device",
    "Dimensions": [1,1280,4,6],
    "Format/Datatype": "Channel major FP16 format where channel % 2 == 0"
  }],
  "ParameterType": "PointWise",
  "ParameterSubType": "PointWiseExpression",
  "NbInputArgs": 1,
  "InputArgs": ["arg0"],
  "NbOutputVars": 1,
  "OutputVars": ["var4"],
  "NbParams": 0,
  "Params": [],
  "NbLiterals": 5,
  "Literals": ["0.000000e+00f", "1.000000e+00f", "0.000000e+00f", "0.000000e+00f", "5.000000e-01f"],
  "NbOperations": 5,
  "Operations": ["auto const var0 = pwgen::iMul(literal4, arg0);", "auto const var1 = pwgen::iTanh(var0);", "auto const var2 = pwgen::iMul(var1, literal4);", "auto const var3 = pwgen::iPlus(var2, literal4);", "auto const var4 = pwgen::iMul(arg0, var3);"],
  "TacticValue": "0x000000000000000c",
  "StreamId": 0,
  "Metadata": "[ONNX Layer: /middle_block/middle_block.2/out_layers/out_layers.1/Sigmoid]\u001e[ONNX Layer: /middle_block/middle_block.2/out_layers/out_layers.1/Mul]"
},{
  "Name": "Reformatting CopyNode for Input Tensor 0 to /middle_block/middle_block.2/out_layers/out_layers.3/Conv + /middle_block/middle_block.2/Add_1",
  "LayerType": "NoOp",
  "Inputs": [
  {
    "Name": "/middle_block/middle_block.2/out_layers/out_layers.1/Mul_output_0",
    "Location": "Device",
    "Dimensions": [1,1280,4,6],
    "Format/Datatype": "Channel major FP16 format where channel % 2 == 0"
  }],
  "Outputs": [
  {
    "Name": "Reformatted Input Tensor 0 to /middle_block/middle_block.2/out_layers/out_layers.3/Conv + /middle_block/middle_block.2/Add_1",
    "Location": "Device",
    "Dimensions": [1,1280,4,6],
    "Format/Datatype": "Channel major FP16 format where channel % 8 == 0"
  }],
  "TacticValue": "0x0000000000000000",
  "StreamId": 0,
  "Metadata": ""
},{
  "Name": "/middle_block/middle_block.2/out_layers/out_layers.3/Conv + /middle_block/middle_block.2/Add_1",
  "LayerType": "CaskConvolution",
  "Inputs": [
  {
    "Name": "Reformatted Input Tensor 0 to /middle_block/middle_block.2/out_layers/out_layers.3/Conv + /middle_block/middle_block.2/Add_1",
    "Location": "Device",
    "Dimensions": [1,1280,4,6],
    "Format/Datatype": "Channel major FP16 format where channel % 8 == 0"
  },
  {
    "Name": "/middle_block/middle_block.2/in_layers/in_layers.0/Cast_output_0",
    "Location": "Device",
    "Dimensions": [1,1280,4,6],
    "Format/Datatype": "Channel major FP16 format where channel % 8 == 0"
  }],
  "Outputs": [
  {
    "Name": "/middle_block/middle_block.2/Add_1_output_0",
    "Location": "Device",
    "Dimensions": [1,1280,4,6],
    "Format/Datatype": "Channel major FP16 format where channel % 8 == 0"
  }],
  "ParameterType": "Convolution",
  "Kernel": [3,3],
  "PaddingMode": "kEXPLICIT_ROUND_DOWN",
  "PrePadding": [1,1],
  "PostPadding": [1,1],
  "Stride": [1,1],
  "Dilation": [1,1],
  "OutMaps": 1280,
  "Groups": 1,
  "Weights": {"Type": "Half", "Count": 14745600},
  "Bias": {"Type": "Half", "Count": 1280},
  "HasSparseWeights": 0,
  "HasDynamicFilter": 0,
  "HasDynamicBias": 0,
  "HasResidual": 1,
  "ConvXAsActInputIdx": -1,
  "BiasAsActInputIdx": -1,
  "ResAsActInputIdx": -1,
  "Activation": "NONE",
  "HasBias": 1,
  "HasReLU": 0,
  "TacticName": "sm80_xmma_fprop_implicit_gemm_f16f16_f16f16_f16_nhwckrsc_nhwc_tilesize64x32x64_stage5_warpsize2x2x1_g1_tensor16x8x16_t1r3s3",
  "TacticValue": "0xa033e20ae9f412b2",
  "StreamId": 0,
  "Metadata": "[ONNX Layer: /middle_block/middle_block.2/out_layers/out_layers.3/Conv]\u001e[ONNX Layer: /middle_block/middle_block.2/Add_1]"
},{
  "Name": "/middle_block_out/middle_block_out.0/Conv",
  "LayerType": "CaskGemmConvolution",
  "Inputs": [
  {
    "Name": "/middle_block/middle_block.2/Add_1_output_0",
    "Location": "Device",
    "Dimensions": [1,1280,4,6],
    "Format/Datatype": "Channel major FP16 format where channel % 8 == 0"
  }],
  "Outputs": [
  {
    "Name": "Reformatted Output Tensor 0 to /middle_block_out/middle_block_out.0/Conv",
    "Location": "Device",
    "Dimensions": [1,1280,4,6],
    "Format/Datatype": "Channel major FP16 format where channel % 8 == 0"
  }],
  "ParameterType": "Convolution",
  "Kernel": [1,1],
  "PaddingMode": "kEXPLICIT_ROUND_DOWN",
  "PrePadding": [0,0],
  "PostPadding": [0,0],
  "Stride": [1,1],
  "Dilation": [1,1],
  "OutMaps": 1280,
  "Groups": 1,
  "Weights": {"Type": "Half", "Count": 1638400},
  "Bias": {"Type": "Half", "Count": 1280},
  "HasSparseWeights": 0,
  "HasDynamicFilter": 0,
  "HasDynamicBias": 0,
  "HasResidual": 0,
  "ConvXAsActInputIdx": -1,
  "BiasAsActInputIdx": -1,
  "ResAsActInputIdx": -1,
  "Activation": "NONE",
  "TacticName": "sm80_xmma_gemm_f16f16_f16f16_f16_tn_n_tilesize32x32x64_stage6_warpsize2x2x1_tensor16x8x16",
  "TacticValue": "0x000000000002015c",
  "StreamId": 0,
  "Metadata": "[ONNX Layer: /middle_block_out/middle_block_out.0/Conv]"
},{
  "Name": "Reformatting CopyNode for Output Tensor 0 to /middle_block_out/middle_block_out.0/Conv",
  "LayerType": "Reformat",
  "Inputs": [
  {
    "Name": "Reformatted Output Tensor 0 to /middle_block_out/middle_block_out.0/Conv",
    "Location": "Device",
    "Dimensions": [1,1280,4,6],
    "Format/Datatype": "Channel major FP16 format where channel % 8 == 0"
  }],
  "Outputs": [
  {
    "Name": "4108",
    "Location": "Device",
    "Dimensions": [1,1280,4,6],
    "Format/Datatype": "Row major linear FP32"
  }],
  "ParameterType": "Reformat",
  "Origin": "REFORMAT",
  "TacticValue": "0x0000000000000000",
  "StreamId": 0,
  "Metadata": ""
}],
"Bindings": ["onnx::Cast_0"
,"input.3"
,"timesteps"
,"onnx::MatMul_3"
,"381"
,"816"
,"1341"
,"1343"
,"1869"
,"2394"
,"2396"
,"2922"
,"3447"
,"3449"
,"3494"
,"3539"
,"4108"
]}
